{"format": "graph-model", "generatedBy": "2.19.0", "convertedBy": "TensorFlow.js Converter v4.22.0", "signature": {"outputs": {"Identity:0": {"name": "Identity:0"}, "Identity_1:0": {"name": "Identity_1:0"}}}, "modelTopology": {"node": [{"name": "ConstantFolding/model_190/tf.math.divide_3/truediv_recip", "op": "Const", "attr": {"value": {"tensor": {"dtype": "DT_FLOAT", "tensorShape": {}}}, "dtype": {"type": "DT_FLOAT"}}}, {"name": "model_190/tf.strided_slice_97/ones_like/tensor", "op": "Const", "attr": {"value": {"tensor": {"dtype": "DT_INT64", "tensorShape": {"dim": [{"size": "3"}]}}}, "dtype": {"type": "DT_INT64"}}}, {"name": "model_190/tf.strided_slice_97/StridedSlice/end", "op": "Const", "attr": {"value": {"tensor": {"dtype": "DT_INT64", "tensorShape": {"dim": [{"size": "3"}]}}}, "dtype": {"type": "DT_INT64"}}}, {"name": "model_190/tf.strided_slice_97/ones_like", "op": "Const", "attr": {"value": {"tensor": {"dtype": "DT_INT64", "tensorShape": {"dim": [{"size": "3"}]}}}, "dtype": {"type": "DT_INT64"}}}, {"name": "model_190/tf.math.add_792/Add/y", "op": "Const", "attr": {"value": {"tensor": {"dtype": "DT_FLOAT", "tensorShape": {"dim": [{"size": "1"}, {"size": "2"}, {"size": "8400"}]}}}, "dtype": {"type": "DT_FLOAT"}}}, {"name": "model_190/269834", "op": "Const", "attr": {"value": {"tensor": {"dtype": "DT_FLOAT", "tensorShape": {"dim": [{"size": "1"}, {"size": "2"}, {"size": "8400"}]}}}, "dtype": {"type": "DT_FLOAT"}}}, {"name": "model_190/tf.nn.convolution_2146/convolution/filter", "op": "Const", "attr": {"value": {"tensor": {"dtype": "DT_FLOAT", "tensorShape": {"dim": [{"size": "3"}, {"size": "3"}, {"size": "384"}, {"size": "96"}]}}}, "dtype": {"type": "DT_FLOAT"}}}, {"name": "model_190/tf.math.add_706/Add/y", "op": "Const", "attr": {"value": {"tensor": {"dtype": "DT_FLOAT", "tensorShape": {"dim": [{"size": "96"}]}}}, "dtype": {"type": "DT_FLOAT"}}}, {"name": "model_190/tf.nn.convolution_2149/convolution/filter", "op": "Const", "attr": {"value": {"tensor": {"dtype": "DT_FLOAT", "tensorShape": {"dim": [{"size": "3"}, {"size": "3"}, {"size": "96"}, {"size": "96"}]}}}, "dtype": {"type": "DT_FLOAT"}}}, {"name": "model_190/tf.math.add_710/Add/y", "op": "Const", "attr": {"value": {"tensor": {"dtype": "DT_FLOAT", "tensorShape": {"dim": [{"size": "96"}]}}}, "dtype": {"type": "DT_FLOAT"}}}, {"name": "model_190/tf.nn.convolution_2154/convolution/filter", "op": "Const", "attr": {"value": {"tensor": {"dtype": "DT_FLOAT", "tensorShape": {"dim": [{"size": "1"}, {"size": "1"}, {"size": "96"}, {"size": "64"}]}}}, "dtype": {"type": "DT_FLOAT"}}}, {"name": "model_190/tf.math.add_716/Add/y", "op": "Const", "attr": {"value": {"tensor": {"dtype": "DT_FLOAT", "tensorShape": {"dim": [{"size": "64"}]}}}, "dtype": {"type": "DT_FLOAT"}}}, {"name": "model_190/tf.compat.v1.transpose_846/transpose/perm", "op": "Const", "attr": {"value": {"tensor": {"dtype": "DT_INT32", "tensorShape": {"dim": [{"size": "4"}]}}}, "dtype": {"type": "DT_INT32"}}}, {"name": "model_190/tf.reshape_155/Reshape/shape", "op": "Const", "attr": {"value": {"tensor": {"dtype": "DT_INT32", "tensorShape": {"dim": [{"size": "3"}]}}}, "dtype": {"type": "DT_INT32"}}}, {"name": "model_190/tf.nn.convolution_2175/convolution/filter", "op": "Const", "attr": {"value": {"tensor": {"dtype": "DT_FLOAT", "tensorShape": {"dim": [{"size": "3"}, {"size": "3"}, {"size": "768"}, {"size": "96"}]}}}, "dtype": {"type": "DT_FLOAT"}}}, {"name": "model_190/tf.math.add_746/Add/y", "op": "Const", "attr": {"value": {"tensor": {"dtype": "DT_FLOAT", "tensorShape": {"dim": [{"size": "96"}]}}}, "dtype": {"type": "DT_FLOAT"}}}, {"name": "model_190/tf.nn.convolution_2177/convolution/filter", "op": "Const", "attr": {"value": {"tensor": {"dtype": "DT_FLOAT", "tensorShape": {"dim": [{"size": "3"}, {"size": "3"}, {"size": "96"}, {"size": "96"}]}}}, "dtype": {"type": "DT_FLOAT"}}}, {"name": "model_190/tf.math.add_749/Add/y", "op": "Const", "attr": {"value": {"tensor": {"dtype": "DT_FLOAT", "tensorShape": {"dim": [{"size": "96"}]}}}, "dtype": {"type": "DT_FLOAT"}}}, {"name": "model_190/tf.nn.convolution_2181/convolution/filter", "op": "Const", "attr": {"value": {"tensor": {"dtype": "DT_FLOAT", "tensorShape": {"dim": [{"size": "1"}, {"size": "1"}, {"size": "96"}, {"size": "64"}]}}}, "dtype": {"type": "DT_FLOAT"}}}, {"name": "model_190/tf.math.add_753/Add/y", "op": "Const", "attr": {"value": {"tensor": {"dtype": "DT_FLOAT", "tensorShape": {"dim": [{"size": "64"}]}}}, "dtype": {"type": "DT_FLOAT"}}}, {"name": "model_190/tf.compat.v1.transpose_891/transpose/perm", "op": "Const", "attr": {"value": {"tensor": {"dtype": "DT_INT32", "tensorShape": {"dim": [{"size": "4"}]}}}, "dtype": {"type": "DT_INT32"}}}, {"name": "model_190/tf.reshape_164/Reshape/shape", "op": "Const", "attr": {"value": {"tensor": {"dtype": "DT_INT32", "tensorShape": {"dim": [{"size": "3"}]}}}, "dtype": {"type": "DT_INT32"}}}, {"name": "model_190/tf.nn.convolution_2200/convolution/filter", "op": "Const", "attr": {"value": {"tensor": {"dtype": "DT_FLOAT", "tensorShape": {"dim": [{"size": "3"}, {"size": "3"}, {"size": "768"}, {"size": "96"}]}}}, "dtype": {"type": "DT_FLOAT"}}}, {"name": "model_190/tf.math.add_781/Add/y", "op": "Const", "attr": {"value": {"tensor": {"dtype": "DT_FLOAT", "tensorShape": {"dim": [{"size": "96"}]}}}, "dtype": {"type": "DT_FLOAT"}}}, {"name": "model_190/tf.nn.convolution_2202/convolution/filter", "op": "Const", "attr": {"value": {"tensor": {"dtype": "DT_FLOAT", "tensorShape": {"dim": [{"size": "3"}, {"size": "3"}, {"size": "96"}, {"size": "96"}]}}}, "dtype": {"type": "DT_FLOAT"}}}, {"name": "model_190/tf.math.add_784/Add/y", "op": "Const", "attr": {"value": {"tensor": {"dtype": "DT_FLOAT", "tensorShape": {"dim": [{"size": "96"}]}}}, "dtype": {"type": "DT_FLOAT"}}}, {"name": "model_190/tf.nn.convolution_2205/convolution/filter", "op": "Const", "attr": {"value": {"tensor": {"dtype": "DT_FLOAT", "tensorShape": {"dim": [{"size": "1"}, {"size": "1"}, {"size": "96"}, {"size": "64"}]}}}, "dtype": {"type": "DT_FLOAT"}}}, {"name": "model_190/tf.math.add_787/Add/y", "op": "Const", "attr": {"value": {"tensor": {"dtype": "DT_FLOAT", "tensorShape": {"dim": [{"size": "64"}]}}}, "dtype": {"type": "DT_FLOAT"}}}, {"name": "model_190/tf.compat.v1.transpose_933/transpose/perm", "op": "Const", "attr": {"value": {"tensor": {"dtype": "DT_INT32", "tensorShape": {"dim": [{"size": "4"}]}}}, "dtype": {"type": "DT_INT32"}}}, {"name": "model_190/tf.reshape_173/Reshape/shape", "op": "Const", "attr": {"value": {"tensor": {"dtype": "DT_INT32", "tensorShape": {"dim": [{"size": "3"}]}}}, "dtype": {"type": "DT_INT32"}}}, {"name": "model_190/tf.concat_124/concat/axis", "op": "Const", "attr": {"value": {"tensor": {"dtype": "DT_INT32", "tensorShape": {}}}, "dtype": {"type": "DT_INT32"}}}, {"name": "model_190/tf.reshape_179/Reshape/shape", "op": "Const", "attr": {"value": {"tensor": {"dtype": "DT_INT32", "tensorShape": {"dim": [{"size": "4"}]}}}, "dtype": {"type": "DT_INT32"}}}, {"name": "model_190/tf.compat.v1.transpose_946/transpose/perm", "op": "Const", "attr": {"value": {"tensor": {"dtype": "DT_INT32", "tensorShape": {"dim": [{"size": "4"}]}}}, "dtype": {"type": "DT_INT32"}}}, {"name": "model_190/tf.compat.v1.transpose_948/transpose/perm", "op": "Const", "attr": {"value": {"tensor": {"dtype": "DT_INT32", "tensorShape": {"dim": [{"size": "4"}]}}}, "dtype": {"type": "DT_INT32"}}}, {"name": "model_190/tf.nn.convolution_2209/convolution/filter", "op": "Const", "attr": {"value": {"tensor": {"dtype": "DT_FLOAT", "tensorShape": {"dim": [{"size": "1"}, {"size": "1"}, {"size": "16"}, {"size": "1"}]}}}, "dtype": {"type": "DT_FLOAT"}}}, {"name": "model_190/tf.compat.v1.transpose_958/transpose/perm", "op": "Const", "attr": {"value": {"tensor": {"dtype": "DT_INT32", "tensorShape": {"dim": [{"size": "4"}]}}}, "dtype": {"type": "DT_INT32"}}}, {"name": "model_190/tf.reshape_185/Reshape/shape", "op": "Const", "attr": {"value": {"tensor": {"dtype": "DT_INT32", "tensorShape": {"dim": [{"size": "3"}]}}}, "dtype": {"type": "DT_INT32"}}}, {"name": "model_190/tf.strided_slice_96/ones_like/tensor", "op": "Const", "attr": {"value": {"tensor": {"dtype": "DT_INT64", "tensorShape": {"dim": [{"size": "3"}]}}}, "dtype": {"type": "DT_INT64"}}}, {"name": "model_190/tf.strided_slice_96/StridedSlice/end", "op": "Const", "attr": {"value": {"tensor": {"dtype": "DT_INT64", "tensorShape": {"dim": [{"size": "3"}]}}}, "dtype": {"type": "DT_INT64"}}}, {"name": "model_190/tf.strided_slice_96/ones_like", "op": "Const", "attr": {"value": {"tensor": {"dtype": "DT_INT64", "tensorShape": {"dim": [{"size": "3"}]}}}, "dtype": {"type": "DT_INT64"}}}, {"name": "model_190/tf.concat_130/concat/axis", "op": "Const", "attr": {"value": {"tensor": {"dtype": "DT_INT32", "tensorShape": {}}}, "dtype": {"type": "DT_INT32"}}}, {"name": "model_190/tf.math.multiply_2309/Mul/y", "op": "Const", "attr": {"value": {"tensor": {"dtype": "DT_FLOAT", "tensorShape": {"dim": [{"size": "1"}, {"size": "1"}, {"size": "8400"}]}}}, "dtype": {"type": "DT_FLOAT"}}}, {"name": "model_190/tf.compat.v1.nn.depthwise_conv2d_20/depthwise/filter_in", "op": "Const", "attr": {"value": {"tensor": {"dtype": "DT_FLOAT", "tensorShape": {"dim": [{"size": "3"}, {"size": "3"}, {"size": "384"}, {"size": "1"}]}}}, "dtype": {"type": "DT_FLOAT"}}}, {"name": "model_190/tf.math.add_707/Add/y", "op": "Const", "attr": {"value": {"tensor": {"dtype": "DT_FLOAT", "tensorShape": {"dim": [{"size": "384"}]}}}, "dtype": {"type": "DT_FLOAT"}}}, {"name": "model_190/tf.nn.convolution_2150/convolution/filter", "op": "Const", "attr": {"value": {"tensor": {"dtype": "DT_FLOAT", "tensorShape": {"dim": [{"size": "1"}, {"size": "1"}, {"size": "384"}, {"size": "384"}]}}}, "dtype": {"type": "DT_FLOAT"}}}, {"name": "model_190/tf.math.add_711/Add/y", "op": "Const", "attr": {"value": {"tensor": {"dtype": "DT_FLOAT", "tensorShape": {"dim": [{"size": "384"}]}}}, "dtype": {"type": "DT_FLOAT"}}}, {"name": "model_190/tf.compat.v1.nn.depthwise_conv2d_21/depthwise/filter_in", "op": "Const", "attr": {"value": {"tensor": {"dtype": "DT_FLOAT", "tensorShape": {"dim": [{"size": "3"}, {"size": "3"}, {"size": "384"}, {"size": "1"}]}}}, "dtype": {"type": "DT_FLOAT"}}}, {"name": "model_190/tf.math.add_717/Add/y", "op": "Const", "attr": {"value": {"tensor": {"dtype": "DT_FLOAT", "tensorShape": {"dim": [{"size": "384"}]}}}, "dtype": {"type": "DT_FLOAT"}}}, {"name": "model_190/tf.nn.convolution_2159/convolution/filter", "op": "Const", "attr": {"value": {"tensor": {"dtype": "DT_FLOAT", "tensorShape": {"dim": [{"size": "1"}, {"size": "1"}, {"size": "384"}, {"size": "384"}]}}}, "dtype": {"type": "DT_FLOAT"}}}, {"name": "model_190/tf.math.add_722/Add/y", "op": "Const", "attr": {"value": {"tensor": {"dtype": "DT_FLOAT", "tensorShape": {"dim": [{"size": "384"}]}}}, "dtype": {"type": "DT_FLOAT"}}}, {"name": "model_190/tf.nn.convolution_2161/convolution/filter", "op": "Const", "attr": {"value": {"tensor": {"dtype": "DT_FLOAT", "tensorShape": {"dim": [{"size": "1"}, {"size": "1"}, {"size": "384"}, {"size": "80"}]}}}, "dtype": {"type": "DT_FLOAT"}}}, {"name": "model_190/tf.math.add_724/Add/y", "op": "Const", "attr": {"value": {"tensor": {"dtype": "DT_FLOAT", "tensorShape": {"dim": [{"size": "80"}]}}}, "dtype": {"type": "DT_FLOAT"}}}, {"name": "model_190/tf.compat.v1.transpose_861/transpose/perm", "op": "Const", "attr": {"value": {"tensor": {"dtype": "DT_INT32", "tensorShape": {"dim": [{"size": "4"}]}}}, "dtype": {"type": "DT_INT32"}}}, {"name": "model_190/tf.reshape_161/Reshape/shape", "op": "Const", "attr": {"value": {"tensor": {"dtype": "DT_INT32", "tensorShape": {"dim": [{"size": "3"}]}}}, "dtype": {"type": "DT_INT32"}}}, {"name": "model_190/tf.compat.v1.nn.depthwise_conv2d_22/depthwise/filter_in", "op": "Const", "attr": {"value": {"tensor": {"dtype": "DT_FLOAT", "tensorShape": {"dim": [{"size": "3"}, {"size": "3"}, {"size": "768"}, {"size": "1"}]}}}, "dtype": {"type": "DT_FLOAT"}}}, {"name": "model_190/tf.math.add_747/Add/y", "op": "Const", "attr": {"value": {"tensor": {"dtype": "DT_FLOAT", "tensorShape": {"dim": [{"size": "768"}]}}}, "dtype": {"type": "DT_FLOAT"}}}, {"name": "model_190/tf.nn.convolution_2178/convolution/filter", "op": "Const", "attr": {"value": {"tensor": {"dtype": "DT_FLOAT", "tensorShape": {"dim": [{"size": "1"}, {"size": "1"}, {"size": "768"}, {"size": "384"}]}}}, "dtype": {"type": "DT_FLOAT"}}}, {"name": "model_190/tf.math.add_750/Add/y", "op": "Const", "attr": {"value": {"tensor": {"dtype": "DT_FLOAT", "tensorShape": {"dim": [{"size": "384"}]}}}, "dtype": {"type": "DT_FLOAT"}}}, {"name": "model_190/tf.compat.v1.nn.depthwise_conv2d_23/depthwise/filter_in", "op": "Const", "attr": {"value": {"tensor": {"dtype": "DT_FLOAT", "tensorShape": {"dim": [{"size": "3"}, {"size": "3"}, {"size": "384"}, {"size": "1"}]}}}, "dtype": {"type": "DT_FLOAT"}}}, {"name": "model_190/tf.math.add_754/Add/y", "op": "Const", "attr": {"value": {"tensor": {"dtype": "DT_FLOAT", "tensorShape": {"dim": [{"size": "384"}]}}}, "dtype": {"type": "DT_FLOAT"}}}, {"name": "model_190/tf.nn.convolution_2185/convolution/filter", "op": "Const", "attr": {"value": {"tensor": {"dtype": "DT_FLOAT", "tensorShape": {"dim": [{"size": "1"}, {"size": "1"}, {"size": "384"}, {"size": "384"}]}}}, "dtype": {"type": "DT_FLOAT"}}}, {"name": "model_190/tf.math.add_758/Add/y", "op": "Const", "attr": {"value": {"tensor": {"dtype": "DT_FLOAT", "tensorShape": {"dim": [{"size": "384"}]}}}, "dtype": {"type": "DT_FLOAT"}}}, {"name": "model_190/tf.nn.convolution_2187/convolution/filter", "op": "Const", "attr": {"value": {"tensor": {"dtype": "DT_FLOAT", "tensorShape": {"dim": [{"size": "1"}, {"size": "1"}, {"size": "384"}, {"size": "80"}]}}}, "dtype": {"type": "DT_FLOAT"}}}, {"name": "model_190/tf.math.add_760/Add/y", "op": "Const", "attr": {"value": {"tensor": {"dtype": "DT_FLOAT", "tensorShape": {"dim": [{"size": "80"}]}}}, "dtype": {"type": "DT_FLOAT"}}}, {"name": "model_190/tf.compat.v1.transpose_905/transpose/perm", "op": "Const", "attr": {"value": {"tensor": {"dtype": "DT_INT32", "tensorShape": {"dim": [{"size": "4"}]}}}, "dtype": {"type": "DT_INT32"}}}, {"name": "model_190/tf.reshape_170/Reshape/shape", "op": "Const", "attr": {"value": {"tensor": {"dtype": "DT_INT32", "tensorShape": {"dim": [{"size": "3"}]}}}, "dtype": {"type": "DT_INT32"}}}, {"name": "model_190/tf.compat.v1.nn.depthwise_conv2d_24/depthwise/filter_in", "op": "Const", "attr": {"value": {"tensor": {"dtype": "DT_FLOAT", "tensorShape": {"dim": [{"size": "3"}, {"size": "3"}, {"size": "768"}, {"size": "1"}]}}}, "dtype": {"type": "DT_FLOAT"}}}, {"name": "model_190/tf.math.add_782/Add/y", "op": "Const", "attr": {"value": {"tensor": {"dtype": "DT_FLOAT", "tensorShape": {"dim": [{"size": "768"}]}}}, "dtype": {"type": "DT_FLOAT"}}}, {"name": "model_190/tf.nn.convolution_2203/convolution/filter", "op": "Const", "attr": {"value": {"tensor": {"dtype": "DT_FLOAT", "tensorShape": {"dim": [{"size": "1"}, {"size": "1"}, {"size": "768"}, {"size": "384"}]}}}, "dtype": {"type": "DT_FLOAT"}}}, {"name": "model_190/tf.math.add_785/Add/y", "op": "Const", "attr": {"value": {"tensor": {"dtype": "DT_FLOAT", "tensorShape": {"dim": [{"size": "384"}]}}}, "dtype": {"type": "DT_FLOAT"}}}, {"name": "model_190/tf.compat.v1.nn.depthwise_conv2d_25/depthwise/filter_in", "op": "Const", "attr": {"value": {"tensor": {"dtype": "DT_FLOAT", "tensorShape": {"dim": [{"size": "3"}, {"size": "3"}, {"size": "384"}, {"size": "1"}]}}}, "dtype": {"type": "DT_FLOAT"}}}, {"name": "model_190/tf.math.add_788/Add/y", "op": "Const", "attr": {"value": {"tensor": {"dtype": "DT_FLOAT", "tensorShape": {"dim": [{"size": "384"}]}}}, "dtype": {"type": "DT_FLOAT"}}}, {"name": "model_190/tf.nn.convolution_2207/convolution/filter", "op": "Const", "attr": {"value": {"tensor": {"dtype": "DT_FLOAT", "tensorShape": {"dim": [{"size": "1"}, {"size": "1"}, {"size": "384"}, {"size": "384"}]}}}, "dtype": {"type": "DT_FLOAT"}}}, {"name": "model_190/tf.math.add_790/Add/y", "op": "Const", "attr": {"value": {"tensor": {"dtype": "DT_FLOAT", "tensorShape": {"dim": [{"size": "384"}]}}}, "dtype": {"type": "DT_FLOAT"}}}, {"name": "model_190/tf.nn.convolution_2208/convolution/filter", "op": "Const", "attr": {"value": {"tensor": {"dtype": "DT_FLOAT", "tensorShape": {"dim": [{"size": "1"}, {"size": "1"}, {"size": "384"}, {"size": "80"}]}}}, "dtype": {"type": "DT_FLOAT"}}}, {"name": "model_190/tf.math.add_791/Add/y", "op": "Const", "attr": {"value": {"tensor": {"dtype": "DT_FLOAT", "tensorShape": {"dim": [{"size": "80"}]}}}, "dtype": {"type": "DT_FLOAT"}}}, {"name": "model_190/tf.compat.v1.transpose_953/transpose/perm", "op": "Const", "attr": {"value": {"tensor": {"dtype": "DT_INT32", "tensorShape": {"dim": [{"size": "4"}]}}}, "dtype": {"type": "DT_INT32"}}}, {"name": "model_190/tf.reshape_182/Reshape/shape", "op": "Const", "attr": {"value": {"tensor": {"dtype": "DT_INT32", "tensorShape": {"dim": [{"size": "3"}]}}}, "dtype": {"type": "DT_INT32"}}}, {"name": "model_190/tf.concat_126/concat/axis", "op": "Const", "attr": {"value": {"tensor": {"dtype": "DT_INT32", "tensorShape": {}}}, "dtype": {"type": "DT_INT32"}}}, {"name": "model_190/tf.nn.convolution_2147/convolution/filter", "op": "Const", "attr": {"value": {"tensor": {"dtype": "DT_FLOAT", "tensorShape": {"dim": [{"size": "3"}, {"size": "3"}, {"size": "384"}, {"size": "96"}]}}}, "dtype": {"type": "DT_FLOAT"}}}, {"name": "model_190/tf.math.add_708/Add/y", "op": "Const", "attr": {"value": {"tensor": {"dtype": "DT_FLOAT", "tensorShape": {"dim": [{"size": "96"}]}}}, "dtype": {"type": "DT_FLOAT"}}}, {"name": "model_190/tf.nn.convolution_2151/convolution/filter", "op": "Const", "attr": {"value": {"tensor": {"dtype": "DT_FLOAT", "tensorShape": {"dim": [{"size": "3"}, {"size": "3"}, {"size": "96"}, {"size": "96"}]}}}, "dtype": {"type": "DT_FLOAT"}}}, {"name": "model_190/tf.math.add_712/Add/y", "op": "Const", "attr": {"value": {"tensor": {"dtype": "DT_FLOAT", "tensorShape": {"dim": [{"size": "96"}]}}}, "dtype": {"type": "DT_FLOAT"}}}, {"name": "model_190/tf.nn.convolution_2155/convolution/filter", "op": "Const", "attr": {"value": {"tensor": {"dtype": "DT_FLOAT", "tensorShape": {"dim": [{"size": "1"}, {"size": "1"}, {"size": "96"}, {"size": "32"}]}}}, "dtype": {"type": "DT_FLOAT"}}}, {"name": "model_190/tf.math.add_718/Add/y", "op": "Const", "attr": {"value": {"tensor": {"dtype": "DT_FLOAT", "tensorShape": {"dim": [{"size": "32"}]}}}, "dtype": {"type": "DT_FLOAT"}}}, {"name": "model_190/tf.compat.v1.transpose_851/transpose/perm", "op": "Const", "attr": {"value": {"tensor": {"dtype": "DT_INT32", "tensorShape": {"dim": [{"size": "4"}]}}}, "dtype": {"type": "DT_INT32"}}}, {"name": "model_190/tf.reshape_158/Reshape/shape", "op": "Const", "attr": {"value": {"tensor": {"dtype": "DT_INT32", "tensorShape": {"dim": [{"size": "3"}]}}}, "dtype": {"type": "DT_INT32"}}}, {"name": "model_190/tf.nn.convolution_2176/convolution/filter", "op": "Const", "attr": {"value": {"tensor": {"dtype": "DT_FLOAT", "tensorShape": {"dim": [{"size": "3"}, {"size": "3"}, {"size": "768"}, {"size": "96"}]}}}, "dtype": {"type": "DT_FLOAT"}}}, {"name": "model_190/tf.math.add_748/Add/y", "op": "Const", "attr": {"value": {"tensor": {"dtype": "DT_FLOAT", "tensorShape": {"dim": [{"size": "96"}]}}}, "dtype": {"type": "DT_FLOAT"}}}, {"name": "model_190/tf.nn.convolution_2179/convolution/filter", "op": "Const", "attr": {"value": {"tensor": {"dtype": "DT_FLOAT", "tensorShape": {"dim": [{"size": "3"}, {"size": "3"}, {"size": "96"}, {"size": "96"}]}}}, "dtype": {"type": "DT_FLOAT"}}}, {"name": "model_190/tf.math.add_751/Add/y", "op": "Const", "attr": {"value": {"tensor": {"dtype": "DT_FLOAT", "tensorShape": {"dim": [{"size": "96"}]}}}, "dtype": {"type": "DT_FLOAT"}}}, {"name": "model_190/tf.nn.convolution_2182/convolution/filter", "op": "Const", "attr": {"value": {"tensor": {"dtype": "DT_FLOAT", "tensorShape": {"dim": [{"size": "1"}, {"size": "1"}, {"size": "96"}, {"size": "32"}]}}}, "dtype": {"type": "DT_FLOAT"}}}, {"name": "model_190/tf.math.add_755/Add/y", "op": "Const", "attr": {"value": {"tensor": {"dtype": "DT_FLOAT", "tensorShape": {"dim": [{"size": "32"}]}}}, "dtype": {"type": "DT_FLOAT"}}}, {"name": "model_190/tf.compat.v1.transpose_896/transpose/perm", "op": "Const", "attr": {"value": {"tensor": {"dtype": "DT_INT32", "tensorShape": {"dim": [{"size": "4"}]}}}, "dtype": {"type": "DT_INT32"}}}, {"name": "model_190/tf.reshape_167/Reshape/shape", "op": "Const", "attr": {"value": {"tensor": {"dtype": "DT_INT32", "tensorShape": {"dim": [{"size": "3"}]}}}, "dtype": {"type": "DT_INT32"}}}, {"name": "model_190/tf.strided_slice_94/ones_like/tensor", "op": "Const", "attr": {"value": {"tensor": {"dtype": "DT_INT64", "tensorShape": {"dim": [{"size": "4"}]}}}, "dtype": {"type": "DT_INT64"}}}, {"name": "model_190/tf.strided_slice_94/StridedSlice/end", "op": "Const", "attr": {"value": {"tensor": {"dtype": "DT_INT64", "tensorShape": {"dim": [{"size": "4"}]}}}, "dtype": {"type": "DT_INT64"}}}, {"name": "model_190/tf.strided_slice_94/ones_like", "op": "Const", "attr": {"value": {"tensor": {"dtype": "DT_INT64", "tensorShape": {"dim": [{"size": "4"}]}}}, "dtype": {"type": "DT_INT64"}}}, {"name": "model_190/tf.nn.convolution_2192/convolution/filter", "op": "Const", "attr": {"value": {"tensor": {"dtype": "DT_FLOAT", "tensorShape": {"dim": [{"size": "1"}, {"size": "1"}, {"size": "384"}, {"size": "192"}]}}}, "dtype": {"type": "DT_FLOAT"}}}, {"name": "model_190/tf.math.add_769/Add/y", "op": "Const", "attr": {"value": {"tensor": {"dtype": "DT_FLOAT", "tensorShape": {"dim": [{"size": "192"}]}}}, "dtype": {"type": "DT_FLOAT"}}}, {"name": "model_190/tf.nn.convolution_2194/convolution/filter", "op": "Const", "attr": {"value": {"tensor": {"dtype": "DT_FLOAT", "tensorShape": {"dim": [{"size": "3"}, {"size": "3"}, {"size": "192"}, {"size": "192"}]}}}, "dtype": {"type": "DT_FLOAT"}}}, {"name": "model_190/tf.math.add_771/Add/y", "op": "Const", "attr": {"value": {"tensor": {"dtype": "DT_FLOAT", "tensorShape": {"dim": [{"size": "192"}]}}}, "dtype": {"type": "DT_FLOAT"}}}, {"name": "model_190/tf.nn.convolution_2195/convolution/filter", "op": "Const", "attr": {"value": {"tensor": {"dtype": "DT_FLOAT", "tensorShape": {"dim": [{"size": "3"}, {"size": "3"}, {"size": "192"}, {"size": "192"}]}}}, "dtype": {"type": "DT_FLOAT"}}}, {"name": "model_190/tf.math.add_772/Add/y", "op": "Const", "attr": {"value": {"tensor": {"dtype": "DT_FLOAT", "tensorShape": {"dim": [{"size": "192"}]}}}, "dtype": {"type": "DT_FLOAT"}}}, {"name": "model_190/tf.nn.convolution_2196/convolution/filter", "op": "Const", "attr": {"value": {"tensor": {"dtype": "DT_FLOAT", "tensorShape": {"dim": [{"size": "3"}, {"size": "3"}, {"size": "192"}, {"size": "192"}]}}}, "dtype": {"type": "DT_FLOAT"}}}, {"name": "model_190/tf.math.add_775/Add/y", "op": "Const", "attr": {"value": {"tensor": {"dtype": "DT_FLOAT", "tensorShape": {"dim": [{"size": "192"}]}}}, "dtype": {"type": "DT_FLOAT"}}}, {"name": "model_190/tf.nn.convolution_2197/convolution/filter", "op": "Const", "attr": {"value": {"tensor": {"dtype": "DT_FLOAT", "tensorShape": {"dim": [{"size": "3"}, {"size": "3"}, {"size": "192"}, {"size": "192"}]}}}, "dtype": {"type": "DT_FLOAT"}}}, {"name": "model_190/tf.math.add_776/Add/y", "op": "Const", "attr": {"value": {"tensor": {"dtype": "DT_FLOAT", "tensorShape": {"dim": [{"size": "192"}]}}}, "dtype": {"type": "DT_FLOAT"}}}, {"name": "model_190/tf.nn.convolution_2183/convolution/filter", "op": "Const", "attr": {"value": {"tensor": {"dtype": "DT_FLOAT", "tensorShape": {"dim": [{"size": "1"}, {"size": "1"}, {"size": "384"}, {"size": "192"}]}}}, "dtype": {"type": "DT_FLOAT"}}}, {"name": "model_190/tf.math.add_756/Add/y", "op": "Const", "attr": {"value": {"tensor": {"dtype": "DT_FLOAT", "tensorShape": {"dim": [{"size": "192"}]}}}, "dtype": {"type": "DT_FLOAT"}}}, {"name": "model_190/tf.nn.convolution_2186/convolution/filter", "op": "Const", "attr": {"value": {"tensor": {"dtype": "DT_FLOAT", "tensorShape": {"dim": [{"size": "3"}, {"size": "3"}, {"size": "192"}, {"size": "192"}]}}}, "dtype": {"type": "DT_FLOAT"}}}, {"name": "model_190/tf.math.add_759/Add/y", "op": "Const", "attr": {"value": {"tensor": {"dtype": "DT_FLOAT", "tensorShape": {"dim": [{"size": "192"}]}}}, "dtype": {"type": "DT_FLOAT"}}}, {"name": "model_190/tf.nn.convolution_2188/convolution/filter", "op": "Const", "attr": {"value": {"tensor": {"dtype": "DT_FLOAT", "tensorShape": {"dim": [{"size": "3"}, {"size": "3"}, {"size": "192"}, {"size": "192"}]}}}, "dtype": {"type": "DT_FLOAT"}}}, {"name": "model_190/tf.math.add_761/Add/y", "op": "Const", "attr": {"value": {"tensor": {"dtype": "DT_FLOAT", "tensorShape": {"dim": [{"size": "192"}]}}}, "dtype": {"type": "DT_FLOAT"}}}, {"name": "model_190/tf.nn.convolution_2189/convolution/filter", "op": "Const", "attr": {"value": {"tensor": {"dtype": "DT_FLOAT", "tensorShape": {"dim": [{"size": "3"}, {"size": "3"}, {"size": "192"}, {"size": "192"}]}}}, "dtype": {"type": "DT_FLOAT"}}}, {"name": "model_190/tf.math.add_764/Add/y", "op": "Const", "attr": {"value": {"tensor": {"dtype": "DT_FLOAT", "tensorShape": {"dim": [{"size": "192"}]}}}, "dtype": {"type": "DT_FLOAT"}}}, {"name": "model_190/tf.nn.convolution_2190/convolution/filter", "op": "Const", "attr": {"value": {"tensor": {"dtype": "DT_FLOAT", "tensorShape": {"dim": [{"size": "3"}, {"size": "3"}, {"size": "192"}, {"size": "192"}]}}}, "dtype": {"type": "DT_FLOAT"}}}, {"name": "model_190/tf.math.add_765/Add/y", "op": "Const", "attr": {"value": {"tensor": {"dtype": "DT_FLOAT", "tensorShape": {"dim": [{"size": "192"}]}}}, "dtype": {"type": "DT_FLOAT"}}}, {"name": "model_190/tf.strided_slice_92/ones_like/tensor", "op": "Const", "attr": {"value": {"tensor": {"dtype": "DT_INT64", "tensorShape": {"dim": [{"size": "4"}]}}}, "dtype": {"type": "DT_INT64"}}}, {"name": "model_190/tf.strided_slice_92/StridedSlice/end", "op": "Const", "attr": {"value": {"tensor": {"dtype": "DT_INT64", "tensorShape": {"dim": [{"size": "4"}]}}}, "dtype": {"type": "DT_INT64"}}}, {"name": "model_190/tf.strided_slice_92/ones_like", "op": "Const", "attr": {"value": {"tensor": {"dtype": "DT_INT64", "tensorShape": {"dim": [{"size": "4"}]}}}, "dtype": {"type": "DT_INT64"}}}, {"name": "model_190/tf.nn.convolution_2166/convolution/filter", "op": "Const", "attr": {"value": {"tensor": {"dtype": "DT_FLOAT", "tensorShape": {"dim": [{"size": "1"}, {"size": "1"}, {"size": "384"}, {"size": "192"}]}}}, "dtype": {"type": "DT_FLOAT"}}}, {"name": "model_190/tf.math.add_733/Add/y", "op": "Const", "attr": {"value": {"tensor": {"dtype": "DT_FLOAT", "tensorShape": {"dim": [{"size": "192"}]}}}, "dtype": {"type": "DT_FLOAT"}}}, {"name": "model_190/tf.nn.convolution_2168/convolution/filter", "op": "Const", "attr": {"value": {"tensor": {"dtype": "DT_FLOAT", "tensorShape": {"dim": [{"size": "3"}, {"size": "3"}, {"size": "192"}, {"size": "192"}]}}}, "dtype": {"type": "DT_FLOAT"}}}, {"name": "model_190/tf.math.add_735/Add/y", "op": "Const", "attr": {"value": {"tensor": {"dtype": "DT_FLOAT", "tensorShape": {"dim": [{"size": "192"}]}}}, "dtype": {"type": "DT_FLOAT"}}}, {"name": "model_190/tf.nn.convolution_2169/convolution/filter", "op": "Const", "attr": {"value": {"tensor": {"dtype": "DT_FLOAT", "tensorShape": {"dim": [{"size": "3"}, {"size": "3"}, {"size": "192"}, {"size": "192"}]}}}, "dtype": {"type": "DT_FLOAT"}}}, {"name": "model_190/tf.math.add_736/Add/y", "op": "Const", "attr": {"value": {"tensor": {"dtype": "DT_FLOAT", "tensorShape": {"dim": [{"size": "192"}]}}}, "dtype": {"type": "DT_FLOAT"}}}, {"name": "model_190/tf.nn.convolution_2170/convolution/filter", "op": "Const", "attr": {"value": {"tensor": {"dtype": "DT_FLOAT", "tensorShape": {"dim": [{"size": "3"}, {"size": "3"}, {"size": "192"}, {"size": "192"}]}}}, "dtype": {"type": "DT_FLOAT"}}}, {"name": "model_190/tf.math.add_739/Add/y", "op": "Const", "attr": {"value": {"tensor": {"dtype": "DT_FLOAT", "tensorShape": {"dim": [{"size": "192"}]}}}, "dtype": {"type": "DT_FLOAT"}}}, {"name": "model_190/tf.nn.convolution_2171/convolution/filter", "op": "Const", "attr": {"value": {"tensor": {"dtype": "DT_FLOAT", "tensorShape": {"dim": [{"size": "3"}, {"size": "3"}, {"size": "192"}, {"size": "192"}]}}}, "dtype": {"type": "DT_FLOAT"}}}, {"name": "model_190/tf.math.add_740/Add/y", "op": "Const", "attr": {"value": {"tensor": {"dtype": "DT_FLOAT", "tensorShape": {"dim": [{"size": "192"}]}}}, "dtype": {"type": "DT_FLOAT"}}}, {"name": "model_190/tf.nn.convolution_2157/convolution/filter", "op": "Const", "attr": {"value": {"tensor": {"dtype": "DT_FLOAT", "tensorShape": {"dim": [{"size": "1"}, {"size": "1"}, {"size": "384"}, {"size": "192"}]}}}, "dtype": {"type": "DT_FLOAT"}}}, {"name": "model_190/tf.math.add_720/Add/y", "op": "Const", "attr": {"value": {"tensor": {"dtype": "DT_FLOAT", "tensorShape": {"dim": [{"size": "192"}]}}}, "dtype": {"type": "DT_FLOAT"}}}, {"name": "model_190/tf.nn.convolution_2160/convolution/filter", "op": "Const", "attr": {"value": {"tensor": {"dtype": "DT_FLOAT", "tensorShape": {"dim": [{"size": "3"}, {"size": "3"}, {"size": "192"}, {"size": "192"}]}}}, "dtype": {"type": "DT_FLOAT"}}}, {"name": "model_190/tf.math.add_723/Add/y", "op": "Const", "attr": {"value": {"tensor": {"dtype": "DT_FLOAT", "tensorShape": {"dim": [{"size": "192"}]}}}, "dtype": {"type": "DT_FLOAT"}}}, {"name": "model_190/tf.nn.convolution_2162/convolution/filter", "op": "Const", "attr": {"value": {"tensor": {"dtype": "DT_FLOAT", "tensorShape": {"dim": [{"size": "3"}, {"size": "3"}, {"size": "192"}, {"size": "192"}]}}}, "dtype": {"type": "DT_FLOAT"}}}, {"name": "model_190/tf.math.add_725/Add/y", "op": "Const", "attr": {"value": {"tensor": {"dtype": "DT_FLOAT", "tensorShape": {"dim": [{"size": "192"}]}}}, "dtype": {"type": "DT_FLOAT"}}}, {"name": "model_190/tf.nn.convolution_2163/convolution/filter", "op": "Const", "attr": {"value": {"tensor": {"dtype": "DT_FLOAT", "tensorShape": {"dim": [{"size": "3"}, {"size": "3"}, {"size": "192"}, {"size": "192"}]}}}, "dtype": {"type": "DT_FLOAT"}}}, {"name": "model_190/tf.math.add_728/Add/y", "op": "Const", "attr": {"value": {"tensor": {"dtype": "DT_FLOAT", "tensorShape": {"dim": [{"size": "192"}]}}}, "dtype": {"type": "DT_FLOAT"}}}, {"name": "model_190/tf.nn.convolution_2164/convolution/filter", "op": "Const", "attr": {"value": {"tensor": {"dtype": "DT_FLOAT", "tensorShape": {"dim": [{"size": "3"}, {"size": "3"}, {"size": "192"}, {"size": "192"}]}}}, "dtype": {"type": "DT_FLOAT"}}}, {"name": "model_190/tf.math.add_729/Add/y", "op": "Const", "attr": {"value": {"tensor": {"dtype": "DT_FLOAT", "tensorShape": {"dim": [{"size": "192"}]}}}, "dtype": {"type": "DT_FLOAT"}}}, {"name": "model_190/tf.compat.v1.pad_26/Pad/paddings", "op": "Const", "attr": {"value": {"tensor": {"dtype": "DT_INT32", "tensorShape": {"dim": [{"size": "4"}, {"size": "2"}]}}}, "dtype": {"type": "DT_INT32"}}}, {"name": "model_190/tf.nn.convolution_2145/convolution/filter", "op": "Const", "attr": {"value": {"tensor": {"dtype": "DT_FLOAT", "tensorShape": {"dim": [{"size": "3"}, {"size": "3"}, {"size": "384"}, {"size": "384"}]}}}, "dtype": {"type": "DT_FLOAT"}}}, {"name": "model_190/tf.math.add_705/Add/y", "op": "Const", "attr": {"value": {"tensor": {"dtype": "DT_FLOAT", "tensorShape": {"dim": [{"size": "384"}]}}}, "dtype": {"type": "DT_FLOAT"}}}, {"name": "model_190/tf.concat_116/concat/axis", "op": "Const", "attr": {"value": {"tensor": {"dtype": "DT_INT32", "tensorShape": {}}}, "dtype": {"type": "DT_INT32"}}}, {"name": "model_190/tf.nn.convolution_2152/convolution/filter", "op": "Const", "attr": {"value": {"tensor": {"dtype": "DT_FLOAT", "tensorShape": {"dim": [{"size": "1"}, {"size": "1"}, {"size": "1152"}, {"size": "768"}]}}}, "dtype": {"type": "DT_FLOAT"}}}, {"name": "model_190/tf.math.add_714/Add/y", "op": "Const", "attr": {"value": {"tensor": {"dtype": "DT_FLOAT", "tensorShape": {"dim": [{"size": "768"}]}}}, "dtype": {"type": "DT_FLOAT"}}}, {"name": "model_190/tf.strided_slice_93/ones_like/tensor", "op": "Const", "attr": {"value": {"tensor": {"dtype": "DT_INT64", "tensorShape": {"dim": [{"size": "4"}]}}}, "dtype": {"type": "DT_INT64"}}}, {"name": "model_190/tf.strided_slice_93/StridedSlice/end", "op": "Const", "attr": {"value": {"tensor": {"dtype": "DT_INT64", "tensorShape": {"dim": [{"size": "4"}]}}}, "dtype": {"type": "DT_INT64"}}}, {"name": "model_190/tf.strided_slice_93/ones_like", "op": "Const", "attr": {"value": {"tensor": {"dtype": "DT_INT64", "tensorShape": {"dim": [{"size": "4"}]}}}, "dtype": {"type": "DT_INT64"}}}, {"name": "model_190/tf.nn.convolution_2158/convolution/filter", "op": "Const", "attr": {"value": {"tensor": {"dtype": "DT_FLOAT", "tensorShape": {"dim": [{"size": "1"}, {"size": "1"}, {"size": "384"}, {"size": "192"}]}}}, "dtype": {"type": "DT_FLOAT"}}}, {"name": "model_190/tf.math.add_721/Add/y", "op": "Const", "attr": {"value": {"tensor": {"dtype": "DT_FLOAT", "tensorShape": {"dim": [{"size": "192"}]}}}, "dtype": {"type": "DT_FLOAT"}}}, {"name": "model_190/tf.concat_117/concat/axis", "op": "Const", "attr": {"value": {"tensor": {"dtype": "DT_INT32", "tensorShape": {}}}, "dtype": {"type": "DT_INT32"}}}, {"name": "model_190/tf.nn.convolution_2165/convolution/filter", "op": "Const", "attr": {"value": {"tensor": {"dtype": "DT_FLOAT", "tensorShape": {"dim": [{"size": "1"}, {"size": "1"}, {"size": "384"}, {"size": "384"}]}}}, "dtype": {"type": "DT_FLOAT"}}}, {"name": "model_190/tf.math.add_732/Add/y", "op": "Const", "attr": {"value": {"tensor": {"dtype": "DT_FLOAT", "tensorShape": {"dim": [{"size": "384"}]}}}, "dtype": {"type": "DT_FLOAT"}}}, {"name": "model_190/tf.nn.convolution_2167/convolution/filter", "op": "Const", "attr": {"value": {"tensor": {"dtype": "DT_FLOAT", "tensorShape": {"dim": [{"size": "1"}, {"size": "1"}, {"size": "384"}, {"size": "192"}]}}}, "dtype": {"type": "DT_FLOAT"}}}, {"name": "model_190/tf.math.add_734/Add/y", "op": "Const", "attr": {"value": {"tensor": {"dtype": "DT_FLOAT", "tensorShape": {"dim": [{"size": "192"}]}}}, "dtype": {"type": "DT_FLOAT"}}}, {"name": "model_190/tf.concat_118/concat/axis", "op": "Const", "attr": {"value": {"tensor": {"dtype": "DT_INT32", "tensorShape": {}}}, "dtype": {"type": "DT_INT32"}}}, {"name": "model_190/tf.nn.convolution_2172/convolution/filter", "op": "Const", "attr": {"value": {"tensor": {"dtype": "DT_FLOAT", "tensorShape": {"dim": [{"size": "1"}, {"size": "1"}, {"size": "384"}, {"size": "384"}]}}}, "dtype": {"type": "DT_FLOAT"}}}, {"name": "model_190/tf.math.add_743/Add/y", "op": "Const", "attr": {"value": {"tensor": {"dtype": "DT_FLOAT", "tensorShape": {"dim": [{"size": "384"}]}}}, "dtype": {"type": "DT_FLOAT"}}}, {"name": "model_190/tf.concat_119/concat/axis", "op": "Const", "attr": {"value": {"tensor": {"dtype": "DT_INT32", "tensorShape": {}}}, "dtype": {"type": "DT_INT32"}}}, {"name": "model_190/tf.nn.convolution_2173/convolution/filter", "op": "Const", "attr": {"value": {"tensor": {"dtype": "DT_FLOAT", "tensorShape": {"dim": [{"size": "1"}, {"size": "1"}, {"size": "1536"}, {"size": "768"}]}}}, "dtype": {"type": "DT_FLOAT"}}}, {"name": "model_190/tf.math.add_744/Add/y", "op": "Const", "attr": {"value": {"tensor": {"dtype": "DT_FLOAT", "tensorShape": {"dim": [{"size": "768"}]}}}, "dtype": {"type": "DT_FLOAT"}}}, {"name": "model_190/tf.compat.v1.pad_27/Pad/paddings", "op": "Const", "attr": {"value": {"tensor": {"dtype": "DT_INT32", "tensorShape": {"dim": [{"size": "4"}, {"size": "2"}]}}}, "dtype": {"type": "DT_INT32"}}}, {"name": "model_190/tf.nn.convolution_2174/convolution/filter", "op": "Const", "attr": {"value": {"tensor": {"dtype": "DT_FLOAT", "tensorShape": {"dim": [{"size": "3"}, {"size": "3"}, {"size": "768"}, {"size": "768"}]}}}, "dtype": {"type": "DT_FLOAT"}}}, {"name": "model_190/tf.math.add_745/Add/y", "op": "Const", "attr": {"value": {"tensor": {"dtype": "DT_FLOAT", "tensorShape": {"dim": [{"size": "768"}]}}}, "dtype": {"type": "DT_FLOAT"}}}, {"name": "model_190/tf.concat_120/concat/axis", "op": "Const", "attr": {"value": {"tensor": {"dtype": "DT_INT32", "tensorShape": {}}}, "dtype": {"type": "DT_INT32"}}}, {"name": "model_190/tf.nn.convolution_2180/convolution/filter", "op": "Const", "attr": {"value": {"tensor": {"dtype": "DT_FLOAT", "tensorShape": {"dim": [{"size": "1"}, {"size": "1"}, {"size": "1536"}, {"size": "768"}]}}}, "dtype": {"type": "DT_FLOAT"}}}, {"name": "model_190/tf.math.add_752/Add/y", "op": "Const", "attr": {"value": {"tensor": {"dtype": "DT_FLOAT", "tensorShape": {"dim": [{"size": "768"}]}}}, "dtype": {"type": "DT_FLOAT"}}}, {"name": "model_190/tf.strided_slice_95/ones_like/tensor", "op": "Const", "attr": {"value": {"tensor": {"dtype": "DT_INT64", "tensorShape": {"dim": [{"size": "4"}]}}}, "dtype": {"type": "DT_INT64"}}}, {"name": "model_190/tf.strided_slice_95/StridedSlice/end", "op": "Const", "attr": {"value": {"tensor": {"dtype": "DT_INT64", "tensorShape": {"dim": [{"size": "4"}]}}}, "dtype": {"type": "DT_INT64"}}}, {"name": "model_190/tf.strided_slice_95/ones_like", "op": "Const", "attr": {"value": {"tensor": {"dtype": "DT_INT64", "tensorShape": {"dim": [{"size": "4"}]}}}, "dtype": {"type": "DT_INT64"}}}, {"name": "model_190/tf.nn.convolution_2184/convolution/filter", "op": "Const", "attr": {"value": {"tensor": {"dtype": "DT_FLOAT", "tensorShape": {"dim": [{"size": "1"}, {"size": "1"}, {"size": "384"}, {"size": "192"}]}}}, "dtype": {"type": "DT_FLOAT"}}}, {"name": "model_190/tf.math.add_757/Add/y", "op": "Const", "attr": {"value": {"tensor": {"dtype": "DT_FLOAT", "tensorShape": {"dim": [{"size": "192"}]}}}, "dtype": {"type": "DT_FLOAT"}}}, {"name": "model_190/tf.concat_121/concat/axis", "op": "Const", "attr": {"value": {"tensor": {"dtype": "DT_INT32", "tensorShape": {}}}, "dtype": {"type": "DT_INT32"}}}, {"name": "model_190/tf.nn.convolution_2191/convolution/filter", "op": "Const", "attr": {"value": {"tensor": {"dtype": "DT_FLOAT", "tensorShape": {"dim": [{"size": "1"}, {"size": "1"}, {"size": "384"}, {"size": "384"}]}}}, "dtype": {"type": "DT_FLOAT"}}}, {"name": "model_190/tf.math.add_768/Add/y", "op": "Const", "attr": {"value": {"tensor": {"dtype": "DT_FLOAT", "tensorShape": {"dim": [{"size": "384"}]}}}, "dtype": {"type": "DT_FLOAT"}}}, {"name": "model_190/tf.nn.convolution_2193/convolution/filter", "op": "Const", "attr": {"value": {"tensor": {"dtype": "DT_FLOAT", "tensorShape": {"dim": [{"size": "1"}, {"size": "1"}, {"size": "384"}, {"size": "192"}]}}}, "dtype": {"type": "DT_FLOAT"}}}, {"name": "model_190/tf.math.add_770/Add/y", "op": "Const", "attr": {"value": {"tensor": {"dtype": "DT_FLOAT", "tensorShape": {"dim": [{"size": "192"}]}}}, "dtype": {"type": "DT_FLOAT"}}}, {"name": "model_190/tf.concat_122/concat/axis", "op": "Const", "attr": {"value": {"tensor": {"dtype": "DT_INT32", "tensorShape": {}}}, "dtype": {"type": "DT_INT32"}}}, {"name": "model_190/tf.nn.convolution_2198/convolution/filter", "op": "Const", "attr": {"value": {"tensor": {"dtype": "DT_FLOAT", "tensorShape": {"dim": [{"size": "1"}, {"size": "1"}, {"size": "384"}, {"size": "384"}]}}}, "dtype": {"type": "DT_FLOAT"}}}, {"name": "model_190/tf.math.add_779/Add/y", "op": "Const", "attr": {"value": {"tensor": {"dtype": "DT_FLOAT", "tensorShape": {"dim": [{"size": "384"}]}}}, "dtype": {"type": "DT_FLOAT"}}}, {"name": "model_190/tf.concat_123/concat/axis", "op": "Const", "attr": {"value": {"tensor": {"dtype": "DT_INT32", "tensorShape": {}}}, "dtype": {"type": "DT_INT32"}}}, {"name": "model_190/tf.nn.convolution_2199/convolution/filter", "op": "Const", "attr": {"value": {"tensor": {"dtype": "DT_FLOAT", "tensorShape": {"dim": [{"size": "1"}, {"size": "1"}, {"size": "1536"}, {"size": "768"}]}}}, "dtype": {"type": "DT_FLOAT"}}}, {"name": "model_190/tf.math.add_780/Add/y", "op": "Const", "attr": {"value": {"tensor": {"dtype": "DT_FLOAT", "tensorShape": {"dim": [{"size": "768"}]}}}, "dtype": {"type": "DT_FLOAT"}}}, {"name": "model_190/tf.nn.convolution_2201/convolution/filter", "op": "Const", "attr": {"value": {"tensor": {"dtype": "DT_FLOAT", "tensorShape": {"dim": [{"size": "3"}, {"size": "3"}, {"size": "768"}, {"size": "96"}]}}}, "dtype": {"type": "DT_FLOAT"}}}, {"name": "model_190/tf.math.add_783/Add/y", "op": "Const", "attr": {"value": {"tensor": {"dtype": "DT_FLOAT", "tensorShape": {"dim": [{"size": "96"}]}}}, "dtype": {"type": "DT_FLOAT"}}}, {"name": "model_190/tf.nn.convolution_2204/convolution/filter", "op": "Const", "attr": {"value": {"tensor": {"dtype": "DT_FLOAT", "tensorShape": {"dim": [{"size": "3"}, {"size": "3"}, {"size": "96"}, {"size": "96"}]}}}, "dtype": {"type": "DT_FLOAT"}}}, {"name": "model_190/tf.math.add_786/Add/y", "op": "Const", "attr": {"value": {"tensor": {"dtype": "DT_FLOAT", "tensorShape": {"dim": [{"size": "96"}]}}}, "dtype": {"type": "DT_FLOAT"}}}, {"name": "model_190/tf.nn.convolution_2206/convolution/filter", "op": "Const", "attr": {"value": {"tensor": {"dtype": "DT_FLOAT", "tensorShape": {"dim": [{"size": "1"}, {"size": "1"}, {"size": "96"}, {"size": "32"}]}}}, "dtype": {"type": "DT_FLOAT"}}}, {"name": "model_190/tf.math.add_789/Add/y", "op": "Const", "attr": {"value": {"tensor": {"dtype": "DT_FLOAT", "tensorShape": {"dim": [{"size": "32"}]}}}, "dtype": {"type": "DT_FLOAT"}}}, {"name": "model_190/tf.compat.v1.transpose_938/transpose/perm", "op": "Const", "attr": {"value": {"tensor": {"dtype": "DT_INT32", "tensorShape": {"dim": [{"size": "4"}]}}}, "dtype": {"type": "DT_INT32"}}}, {"name": "model_190/tf.reshape_176/Reshape/shape", "op": "Const", "attr": {"value": {"tensor": {"dtype": "DT_INT32", "tensorShape": {"dim": [{"size": "3"}]}}}, "dtype": {"type": "DT_INT32"}}}, {"name": "model_190/tf.concat_125/concat/axis", "op": "Const", "attr": {"value": {"tensor": {"dtype": "DT_INT32", "tensorShape": {}}}, "dtype": {"type": "DT_INT32"}}}, {"name": "model_190/output0/concat/axis", "op": "Const", "attr": {"value": {"tensor": {"dtype": "DT_INT32", "tensorShape": {}}}, "dtype": {"type": "DT_INT32"}}}, {"name": "model_190/tf.nn.conv2d_transpose_3/conv2d_transpose/input_sizes", "op": "Const", "attr": {"value": {"tensor": {"dtype": "DT_INT32", "tensorShape": {"dim": [{"size": "4"}]}}}, "dtype": {"type": "DT_INT32"}}}, {"name": "model_190/tf.nn.conv2d_transpose_3/conv2d_transpose/filter", "op": "Const", "attr": {"value": {"tensor": {"dtype": "DT_FLOAT", "tensorShape": {"dim": [{"size": "2"}, {"size": "2"}, {"size": "384"}, {"size": "384"}]}}}, "dtype": {"type": "DT_FLOAT"}}}, {"name": "model_190/tf.strided_slice_90/ones_like/tensor", "op": "Const", "attr": {"value": {"tensor": {"dtype": "DT_INT64", "tensorShape": {"dim": [{"size": "4"}]}}}, "dtype": {"type": "DT_INT64"}}}, {"name": "model_190/tf.strided_slice_90/StridedSlice/end", "op": "Const", "attr": {"value": {"tensor": {"dtype": "DT_INT64", "tensorShape": {"dim": [{"size": "4"}]}}}, "dtype": {"type": "DT_INT64"}}}, {"name": "model_190/tf.strided_slice_90/ones_like", "op": "Const", "attr": {"value": {"tensor": {"dtype": "DT_INT64", "tensorShape": {"dim": [{"size": "4"}]}}}, "dtype": {"type": "DT_INT64"}}}, {"name": "model_190/tf.nn.convolution_2137/convolution/filter", "op": "Const", "attr": {"value": {"tensor": {"dtype": "DT_FLOAT", "tensorShape": {"dim": [{"size": "1"}, {"size": "1"}, {"size": "192"}, {"size": "96"}]}}}, "dtype": {"type": "DT_FLOAT"}}}, {"name": "model_190/tf.math.add_693/Add/y", "op": "Const", "attr": {"value": {"tensor": {"dtype": "DT_FLOAT", "tensorShape": {"dim": [{"size": "96"}]}}}, "dtype": {"type": "DT_FLOAT"}}}, {"name": "model_190/tf.nn.convolution_2139/convolution/filter", "op": "Const", "attr": {"value": {"tensor": {"dtype": "DT_FLOAT", "tensorShape": {"dim": [{"size": "3"}, {"size": "3"}, {"size": "96"}, {"size": "96"}]}}}, "dtype": {"type": "DT_FLOAT"}}}, {"name": "model_190/tf.math.add_695/Add/y", "op": "Const", "attr": {"value": {"tensor": {"dtype": "DT_FLOAT", "tensorShape": {"dim": [{"size": "96"}]}}}, "dtype": {"type": "DT_FLOAT"}}}, {"name": "model_190/tf.nn.convolution_2140/convolution/filter", "op": "Const", "attr": {"value": {"tensor": {"dtype": "DT_FLOAT", "tensorShape": {"dim": [{"size": "3"}, {"size": "3"}, {"size": "96"}, {"size": "96"}]}}}, "dtype": {"type": "DT_FLOAT"}}}, {"name": "model_190/tf.math.add_696/Add/y", "op": "Const", "attr": {"value": {"tensor": {"dtype": "DT_FLOAT", "tensorShape": {"dim": [{"size": "96"}]}}}, "dtype": {"type": "DT_FLOAT"}}}, {"name": "model_190/tf.nn.convolution_2141/convolution/filter", "op": "Const", "attr": {"value": {"tensor": {"dtype": "DT_FLOAT", "tensorShape": {"dim": [{"size": "3"}, {"size": "3"}, {"size": "96"}, {"size": "96"}]}}}, "dtype": {"type": "DT_FLOAT"}}}, {"name": "model_190/tf.math.add_699/Add/y", "op": "Const", "attr": {"value": {"tensor": {"dtype": "DT_FLOAT", "tensorShape": {"dim": [{"size": "96"}]}}}, "dtype": {"type": "DT_FLOAT"}}}, {"name": "model_190/tf.nn.convolution_2142/convolution/filter", "op": "Const", "attr": {"value": {"tensor": {"dtype": "DT_FLOAT", "tensorShape": {"dim": [{"size": "3"}, {"size": "3"}, {"size": "96"}, {"size": "96"}]}}}, "dtype": {"type": "DT_FLOAT"}}}, {"name": "model_190/tf.math.add_700/Add/y", "op": "Const", "attr": {"value": {"tensor": {"dtype": "DT_FLOAT", "tensorShape": {"dim": [{"size": "96"}]}}}, "dtype": {"type": "DT_FLOAT"}}}, {"name": "model_190/tf.nn.convolution_2130/convolution/filter", "op": "Const", "attr": {"value": {"tensor": {"dtype": "DT_FLOAT", "tensorShape": {"dim": [{"size": "1"}, {"size": "1"}, {"size": "192"}, {"size": "96"}]}}}, "dtype": {"type": "DT_FLOAT"}}}, {"name": "model_190/tf.math.add_682/Add/y", "op": "Const", "attr": {"value": {"tensor": {"dtype": "DT_FLOAT", "tensorShape": {"dim": [{"size": "96"}]}}}, "dtype": {"type": "DT_FLOAT"}}}, {"name": "model_190/tf.nn.convolution_2132/convolution/filter", "op": "Const", "attr": {"value": {"tensor": {"dtype": "DT_FLOAT", "tensorShape": {"dim": [{"size": "3"}, {"size": "3"}, {"size": "96"}, {"size": "96"}]}}}, "dtype": {"type": "DT_FLOAT"}}}, {"name": "model_190/tf.math.add_684/Add/y", "op": "Const", "attr": {"value": {"tensor": {"dtype": "DT_FLOAT", "tensorShape": {"dim": [{"size": "96"}]}}}, "dtype": {"type": "DT_FLOAT"}}}, {"name": "model_190/tf.nn.convolution_2133/convolution/filter", "op": "Const", "attr": {"value": {"tensor": {"dtype": "DT_FLOAT", "tensorShape": {"dim": [{"size": "3"}, {"size": "3"}, {"size": "96"}, {"size": "96"}]}}}, "dtype": {"type": "DT_FLOAT"}}}, {"name": "model_190/tf.math.add_685/Add/y", "op": "Const", "attr": {"value": {"tensor": {"dtype": "DT_FLOAT", "tensorShape": {"dim": [{"size": "96"}]}}}, "dtype": {"type": "DT_FLOAT"}}}, {"name": "model_190/tf.nn.convolution_2134/convolution/filter", "op": "Const", "attr": {"value": {"tensor": {"dtype": "DT_FLOAT", "tensorShape": {"dim": [{"size": "3"}, {"size": "3"}, {"size": "96"}, {"size": "96"}]}}}, "dtype": {"type": "DT_FLOAT"}}}, {"name": "model_190/tf.math.add_688/Add/y", "op": "Const", "attr": {"value": {"tensor": {"dtype": "DT_FLOAT", "tensorShape": {"dim": [{"size": "96"}]}}}, "dtype": {"type": "DT_FLOAT"}}}, {"name": "model_190/tf.nn.convolution_2135/convolution/filter", "op": "Const", "attr": {"value": {"tensor": {"dtype": "DT_FLOAT", "tensorShape": {"dim": [{"size": "3"}, {"size": "3"}, {"size": "96"}, {"size": "96"}]}}}, "dtype": {"type": "DT_FLOAT"}}}, {"name": "model_190/tf.math.add_689/Add/y", "op": "Const", "attr": {"value": {"tensor": {"dtype": "DT_FLOAT", "tensorShape": {"dim": [{"size": "96"}]}}}, "dtype": {"type": "DT_FLOAT"}}}, {"name": "model_190/tf.strided_slice_88/ones_like/tensor", "op": "Const", "attr": {"value": {"tensor": {"dtype": "DT_INT64", "tensorShape": {"dim": [{"size": "4"}]}}}, "dtype": {"type": "DT_INT64"}}}, {"name": "model_190/tf.strided_slice_88/StridedSlice/end", "op": "Const", "attr": {"value": {"tensor": {"dtype": "DT_INT64", "tensorShape": {"dim": [{"size": "4"}]}}}, "dtype": {"type": "DT_INT64"}}}, {"name": "model_190/tf.strided_slice_88/ones_like", "op": "Const", "attr": {"value": {"tensor": {"dtype": "DT_INT64", "tensorShape": {"dim": [{"size": "4"}]}}}, "dtype": {"type": "DT_INT64"}}}, {"name": "model_190/tf.nn.convolution_2121/convolution/filter", "op": "Const", "attr": {"value": {"tensor": {"dtype": "DT_FLOAT", "tensorShape": {"dim": [{"size": "1"}, {"size": "1"}, {"size": "384"}, {"size": "192"}]}}}, "dtype": {"type": "DT_FLOAT"}}}, {"name": "model_190/tf.math.add_669/Add/y", "op": "Const", "attr": {"value": {"tensor": {"dtype": "DT_FLOAT", "tensorShape": {"dim": [{"size": "192"}]}}}, "dtype": {"type": "DT_FLOAT"}}}, {"name": "model_190/tf.nn.convolution_2123/convolution/filter", "op": "Const", "attr": {"value": {"tensor": {"dtype": "DT_FLOAT", "tensorShape": {"dim": [{"size": "3"}, {"size": "3"}, {"size": "192"}, {"size": "192"}]}}}, "dtype": {"type": "DT_FLOAT"}}}, {"name": "model_190/tf.math.add_671/Add/y", "op": "Const", "attr": {"value": {"tensor": {"dtype": "DT_FLOAT", "tensorShape": {"dim": [{"size": "192"}]}}}, "dtype": {"type": "DT_FLOAT"}}}, {"name": "model_190/tf.nn.convolution_2124/convolution/filter", "op": "Const", "attr": {"value": {"tensor": {"dtype": "DT_FLOAT", "tensorShape": {"dim": [{"size": "3"}, {"size": "3"}, {"size": "192"}, {"size": "192"}]}}}, "dtype": {"type": "DT_FLOAT"}}}, {"name": "model_190/tf.math.add_672/Add/y", "op": "Const", "attr": {"value": {"tensor": {"dtype": "DT_FLOAT", "tensorShape": {"dim": [{"size": "192"}]}}}, "dtype": {"type": "DT_FLOAT"}}}, {"name": "model_190/tf.nn.convolution_2125/convolution/filter", "op": "Const", "attr": {"value": {"tensor": {"dtype": "DT_FLOAT", "tensorShape": {"dim": [{"size": "3"}, {"size": "3"}, {"size": "192"}, {"size": "192"}]}}}, "dtype": {"type": "DT_FLOAT"}}}, {"name": "model_190/tf.math.add_675/Add/y", "op": "Const", "attr": {"value": {"tensor": {"dtype": "DT_FLOAT", "tensorShape": {"dim": [{"size": "192"}]}}}, "dtype": {"type": "DT_FLOAT"}}}, {"name": "model_190/tf.nn.convolution_2126/convolution/filter", "op": "Const", "attr": {"value": {"tensor": {"dtype": "DT_FLOAT", "tensorShape": {"dim": [{"size": "3"}, {"size": "3"}, {"size": "192"}, {"size": "192"}]}}}, "dtype": {"type": "DT_FLOAT"}}}, {"name": "model_190/tf.math.add_676/Add/y", "op": "Const", "attr": {"value": {"tensor": {"dtype": "DT_FLOAT", "tensorShape": {"dim": [{"size": "192"}]}}}, "dtype": {"type": "DT_FLOAT"}}}, {"name": "model_190/tf.nn.convolution_2114/convolution/filter", "op": "Const", "attr": {"value": {"tensor": {"dtype": "DT_FLOAT", "tensorShape": {"dim": [{"size": "1"}, {"size": "1"}, {"size": "384"}, {"size": "192"}]}}}, "dtype": {"type": "DT_FLOAT"}}}, {"name": "model_190/tf.math.add_658/Add/y", "op": "Const", "attr": {"value": {"tensor": {"dtype": "DT_FLOAT", "tensorShape": {"dim": [{"size": "192"}]}}}, "dtype": {"type": "DT_FLOAT"}}}, {"name": "model_190/tf.nn.convolution_2116/convolution/filter", "op": "Const", "attr": {"value": {"tensor": {"dtype": "DT_FLOAT", "tensorShape": {"dim": [{"size": "3"}, {"size": "3"}, {"size": "192"}, {"size": "192"}]}}}, "dtype": {"type": "DT_FLOAT"}}}, {"name": "model_190/tf.math.add_660/Add/y", "op": "Const", "attr": {"value": {"tensor": {"dtype": "DT_FLOAT", "tensorShape": {"dim": [{"size": "192"}]}}}, "dtype": {"type": "DT_FLOAT"}}}, {"name": "model_190/tf.nn.convolution_2117/convolution/filter", "op": "Const", "attr": {"value": {"tensor": {"dtype": "DT_FLOAT", "tensorShape": {"dim": [{"size": "3"}, {"size": "3"}, {"size": "192"}, {"size": "192"}]}}}, "dtype": {"type": "DT_FLOAT"}}}, {"name": "model_190/tf.math.add_661/Add/y", "op": "Const", "attr": {"value": {"tensor": {"dtype": "DT_FLOAT", "tensorShape": {"dim": [{"size": "192"}]}}}, "dtype": {"type": "DT_FLOAT"}}}, {"name": "model_190/tf.nn.convolution_2118/convolution/filter", "op": "Const", "attr": {"value": {"tensor": {"dtype": "DT_FLOAT", "tensorShape": {"dim": [{"size": "3"}, {"size": "3"}, {"size": "192"}, {"size": "192"}]}}}, "dtype": {"type": "DT_FLOAT"}}}, {"name": "model_190/tf.math.add_664/Add/y", "op": "Const", "attr": {"value": {"tensor": {"dtype": "DT_FLOAT", "tensorShape": {"dim": [{"size": "192"}]}}}, "dtype": {"type": "DT_FLOAT"}}}, {"name": "model_190/tf.nn.convolution_2119/convolution/filter", "op": "Const", "attr": {"value": {"tensor": {"dtype": "DT_FLOAT", "tensorShape": {"dim": [{"size": "3"}, {"size": "3"}, {"size": "192"}, {"size": "192"}]}}}, "dtype": {"type": "DT_FLOAT"}}}, {"name": "model_190/tf.math.add_665/Add/y", "op": "Const", "attr": {"value": {"tensor": {"dtype": "DT_FLOAT", "tensorShape": {"dim": [{"size": "192"}]}}}, "dtype": {"type": "DT_FLOAT"}}}, {"name": "model_190/tf.strided_slice_80/StridedSlice/begin", "op": "Const", "attr": {"value": {"tensor": {"dtype": "DT_INT32", "tensorShape": {"dim": [{"size": "4"}]}}}, "dtype": {"type": "DT_INT32"}}}, {"name": "model_190/tf.strided_slice_80/StridedSlice/end", "op": "Const", "attr": {"value": {"tensor": {"dtype": "DT_INT32", "tensorShape": {"dim": [{"size": "4"}]}}}, "dtype": {"type": "DT_INT32"}}}, {"name": "model_190/tf.strided_slice_80/ones_like", "op": "Const", "attr": {"value": {"tensor": {"dtype": "DT_INT32", "tensorShape": {"dim": [{"size": "4"}]}}}, "dtype": {"type": "DT_INT32"}}}, {"name": "model_190/tf.math.add_653/Add/y", "op": "Const", "attr": {"value": {"tensor": {"dtype": "DT_FLOAT", "tensorShape": {"dim": [{"size": "384"}]}}}, "dtype": {"type": "DT_FLOAT"}}}, {"name": "model_190/tf.math.add_649/Add/y", "op": "Const", "attr": {"value": {"tensor": {"dtype": "DT_FLOAT", "tensorShape": {"dim": [{"size": "384"}]}}}, "dtype": {"type": "DT_FLOAT"}}}, {"name": "model_190/tf.math.add_646/Add/y", "op": "Const", "attr": {"value": {"tensor": {"dtype": "DT_FLOAT", "tensorShape": {"dim": [{"size": "384"}]}}}, "dtype": {"type": "DT_FLOAT"}}}, {"name": "model_190/tf.strided_slice_85/StridedSlice/begin", "op": "Const", "attr": {"value": {"tensor": {"dtype": "DT_INT32", "tensorShape": {"dim": [{"size": "4"}]}}}, "dtype": {"type": "DT_INT32"}}}, {"name": "model_190/tf.strided_slice_85/StridedSlice/end", "op": "Const", "attr": {"value": {"tensor": {"dtype": "DT_INT32", "tensorShape": {"dim": [{"size": "4"}]}}}, "dtype": {"type": "DT_INT32"}}}, {"name": "model_190/tf.strided_slice_85/ones_like", "op": "Const", "attr": {"value": {"tensor": {"dtype": "DT_INT32", "tensorShape": {"dim": [{"size": "4"}]}}}, "dtype": {"type": "DT_INT32"}}}, {"name": "model_190/tf.strided_slice_86/StridedSlice/begin", "op": "Const", "attr": {"value": {"tensor": {"dtype": "DT_INT32", "tensorShape": {"dim": [{"size": "4"}]}}}, "dtype": {"type": "DT_INT32"}}}, {"name": "model_190/tf.strided_slice_86/StridedSlice/end", "op": "Const", "attr": {"value": {"tensor": {"dtype": "DT_INT32", "tensorShape": {"dim": [{"size": "4"}]}}}, "dtype": {"type": "DT_INT32"}}}, {"name": "model_190/tf.strided_slice_86/ones_like", "op": "Const", "attr": {"value": {"tensor": {"dtype": "DT_INT32", "tensorShape": {"dim": [{"size": "4"}]}}}, "dtype": {"type": "DT_INT32"}}}, {"name": "model_190/tf.math.multiply_1878/Mul/y", "op": "Const", "attr": {"value": {"tensor": {"dtype": "DT_FLOAT", "tensorShape": {}}}, "dtype": {"type": "DT_FLOAT"}}}, {"name": "model_190/tf.reshape_152/Reshape/shape", "op": "Const", "attr": {"value": {"tensor": {"dtype": "DT_INT32", "tensorShape": {"dim": [{"size": "4"}]}}}, "dtype": {"type": "DT_INT32"}}}, {"name": "model_190/tf.compat.v1.transpose_788/transpose/perm", "op": "Const", "attr": {"value": {"tensor": {"dtype": "DT_INT32", "tensorShape": {"dim": [{"size": "4"}]}}}, "dtype": {"type": "DT_INT32"}}}, {"name": "model_190/tf.nn.convolution_1725/convolution/filter", "op": "Const", "attr": {"value": {"tensor": {"dtype": "DT_FLOAT", "tensorShape": {"dim": [{"size": "3"}, {"size": "3"}, {"size": "1"}, {"size": "1"}]}}}, "dtype": {"type": "DT_FLOAT"}}}, {"name": "model_190/tf.nn.convolution_1726/convolution/filter", "op": "Const", "attr": {"value": {"tensor": {"dtype": "DT_FLOAT", "tensorShape": {"dim": [{"size": "3"}, {"size": "3"}, {"size": "1"}, {"size": "1"}]}}}, "dtype": {"type": "DT_FLOAT"}}}, {"name": "model_190/tf.nn.convolution_1727/convolution/filter", "op": "Const", "attr": {"value": {"tensor": {"dtype": "DT_FLOAT", "tensorShape": {"dim": [{"size": "3"}, {"size": "3"}, {"size": "1"}, {"size": "1"}]}}}, "dtype": {"type": "DT_FLOAT"}}}, {"name": "model_190/tf.nn.convolution_1728/convolution/filter", "op": "Const", "attr": {"value": {"tensor": {"dtype": "DT_FLOAT", "tensorShape": {"dim": [{"size": "3"}, {"size": "3"}, {"size": "1"}, {"size": "1"}]}}}, "dtype": {"type": "DT_FLOAT"}}}, {"name": "model_190/tf.nn.convolution_1729/convolution/filter", "op": "Const", "attr": {"value": {"tensor": {"dtype": "DT_FLOAT", "tensorShape": {"dim": [{"size": "3"}, {"size": "3"}, {"size": "1"}, {"size": "1"}]}}}, "dtype": {"type": "DT_FLOAT"}}}, {"name": "model_190/tf.nn.convolution_1730/convolution/filter", "op": "Const", "attr": {"value": {"tensor": {"dtype": "DT_FLOAT", "tensorShape": {"dim": [{"size": "3"}, {"size": "3"}, {"size": "1"}, {"size": "1"}]}}}, "dtype": {"type": "DT_FLOAT"}}}, {"name": "model_190/tf.nn.convolution_1731/convolution/filter", "op": "Const", "attr": {"value": {"tensor": {"dtype": "DT_FLOAT", "tensorShape": {"dim": [{"size": "3"}, {"size": "3"}, {"size": "1"}, {"size": "1"}]}}}, "dtype": {"type": "DT_FLOAT"}}}, {"name": "model_190/tf.nn.convolution_1732/convolution/filter", "op": "Const", "attr": {"value": {"tensor": {"dtype": "DT_FLOAT", "tensorShape": {"dim": [{"size": "3"}, {"size": "3"}, {"size": "1"}, {"size": "1"}]}}}, "dtype": {"type": "DT_FLOAT"}}}, {"name": "model_190/tf.nn.convolution_1733/convolution/filter", "op": "Const", "attr": {"value": {"tensor": {"dtype": "DT_FLOAT", "tensorShape": {"dim": [{"size": "3"}, {"size": "3"}, {"size": "1"}, {"size": "1"}]}}}, "dtype": {"type": "DT_FLOAT"}}}, {"name": "model_190/tf.nn.convolution_1734/convolution/filter", "op": "Const", "attr": {"value": {"tensor": {"dtype": "DT_FLOAT", "tensorShape": {"dim": [{"size": "3"}, {"size": "3"}, {"size": "1"}, {"size": "1"}]}}}, "dtype": {"type": "DT_FLOAT"}}}, {"name": "model_190/tf.nn.convolution_1735/convolution/filter", "op": "Const", "attr": {"value": {"tensor": {"dtype": "DT_FLOAT", "tensorShape": {"dim": [{"size": "3"}, {"size": "3"}, {"size": "1"}, {"size": "1"}]}}}, "dtype": {"type": "DT_FLOAT"}}}, {"name": "model_190/tf.nn.convolution_1736/convolution/filter", "op": "Const", "attr": {"value": {"tensor": {"dtype": "DT_FLOAT", "tensorShape": {"dim": [{"size": "3"}, {"size": "3"}, {"size": "1"}, {"size": "1"}]}}}, "dtype": {"type": "DT_FLOAT"}}}, {"name": "model_190/tf.nn.convolution_1737/convolution/filter", "op": "Const", "attr": {"value": {"tensor": {"dtype": "DT_FLOAT", "tensorShape": {"dim": [{"size": "3"}, {"size": "3"}, {"size": "1"}, {"size": "1"}]}}}, "dtype": {"type": "DT_FLOAT"}}}, {"name": "model_190/tf.nn.convolution_1738/convolution/filter", "op": "Const", "attr": {"value": {"tensor": {"dtype": "DT_FLOAT", "tensorShape": {"dim": [{"size": "3"}, {"size": "3"}, {"size": "1"}, {"size": "1"}]}}}, "dtype": {"type": "DT_FLOAT"}}}, {"name": "model_190/tf.nn.convolution_1739/convolution/filter", "op": "Const", "attr": {"value": {"tensor": {"dtype": "DT_FLOAT", "tensorShape": {"dim": [{"size": "3"}, {"size": "3"}, {"size": "1"}, {"size": "1"}]}}}, "dtype": {"type": "DT_FLOAT"}}}, {"name": "model_190/tf.nn.convolution_1740/convolution/filter", "op": "Const", "attr": {"value": {"tensor": {"dtype": "DT_FLOAT", "tensorShape": {"dim": [{"size": "3"}, {"size": "3"}, {"size": "1"}, {"size": "1"}]}}}, "dtype": {"type": "DT_FLOAT"}}}, {"name": "model_190/tf.nn.convolution_1741/convolution/filter", "op": "Const", "attr": {"value": {"tensor": {"dtype": "DT_FLOAT", "tensorShape": {"dim": [{"size": "3"}, {"size": "3"}, {"size": "1"}, {"size": "1"}]}}}, "dtype": {"type": "DT_FLOAT"}}}, {"name": "model_190/tf.nn.convolution_1742/convolution/filter", "op": "Const", "attr": {"value": {"tensor": {"dtype": "DT_FLOAT", "tensorShape": {"dim": [{"size": "3"}, {"size": "3"}, {"size": "1"}, {"size": "1"}]}}}, "dtype": {"type": "DT_FLOAT"}}}, {"name": "model_190/tf.nn.convolution_1743/convolution/filter", "op": "Const", "attr": {"value": {"tensor": {"dtype": "DT_FLOAT", "tensorShape": {"dim": [{"size": "3"}, {"size": "3"}, {"size": "1"}, {"size": "1"}]}}}, "dtype": {"type": "DT_FLOAT"}}}, {"name": "model_190/tf.nn.convolution_1744/convolution/filter", "op": "Const", "attr": {"value": {"tensor": {"dtype": "DT_FLOAT", "tensorShape": {"dim": [{"size": "3"}, {"size": "3"}, {"size": "1"}, {"size": "1"}]}}}, "dtype": {"type": "DT_FLOAT"}}}, {"name": "model_190/tf.nn.convolution_1745/convolution/filter", "op": "Const", "attr": {"value": {"tensor": {"dtype": "DT_FLOAT", "tensorShape": {"dim": [{"size": "3"}, {"size": "3"}, {"size": "1"}, {"size": "1"}]}}}, "dtype": {"type": "DT_FLOAT"}}}, {"name": "model_190/tf.nn.convolution_1746/convolution/filter", "op": "Const", "attr": {"value": {"tensor": {"dtype": "DT_FLOAT", "tensorShape": {"dim": [{"size": "3"}, {"size": "3"}, {"size": "1"}, {"size": "1"}]}}}, "dtype": {"type": "DT_FLOAT"}}}, {"name": "model_190/tf.nn.convolution_1747/convolution/filter", "op": "Const", "attr": {"value": {"tensor": {"dtype": "DT_FLOAT", "tensorShape": {"dim": [{"size": "3"}, {"size": "3"}, {"size": "1"}, {"size": "1"}]}}}, "dtype": {"type": "DT_FLOAT"}}}, {"name": "model_190/tf.nn.convolution_1748/convolution/filter", "op": "Const", "attr": {"value": {"tensor": {"dtype": "DT_FLOAT", "tensorShape": {"dim": [{"size": "3"}, {"size": "3"}, {"size": "1"}, {"size": "1"}]}}}, "dtype": {"type": "DT_FLOAT"}}}, {"name": "model_190/tf.nn.convolution_1749/convolution/filter", "op": "Const", "attr": {"value": {"tensor": {"dtype": "DT_FLOAT", "tensorShape": {"dim": [{"size": "3"}, {"size": "3"}, {"size": "1"}, {"size": "1"}]}}}, "dtype": {"type": "DT_FLOAT"}}}, {"name": "model_190/tf.nn.convolution_1750/convolution/filter", "op": "Const", "attr": {"value": {"tensor": {"dtype": "DT_FLOAT", "tensorShape": {"dim": [{"size": "3"}, {"size": "3"}, {"size": "1"}, {"size": "1"}]}}}, "dtype": {"type": "DT_FLOAT"}}}, {"name": "model_190/tf.nn.convolution_1751/convolution/filter", "op": "Const", "attr": {"value": {"tensor": {"dtype": "DT_FLOAT", "tensorShape": {"dim": [{"size": "3"}, {"size": "3"}, {"size": "1"}, {"size": "1"}]}}}, "dtype": {"type": "DT_FLOAT"}}}, {"name": "model_190/tf.nn.convolution_1752/convolution/filter", "op": "Const", "attr": {"value": {"tensor": {"dtype": "DT_FLOAT", "tensorShape": {"dim": [{"size": "3"}, {"size": "3"}, {"size": "1"}, {"size": "1"}]}}}, "dtype": {"type": "DT_FLOAT"}}}, {"name": "model_190/tf.nn.convolution_1753/convolution/filter", "op": "Const", "attr": {"value": {"tensor": {"dtype": "DT_FLOAT", "tensorShape": {"dim": [{"size": "3"}, {"size": "3"}, {"size": "1"}, {"size": "1"}]}}}, "dtype": {"type": "DT_FLOAT"}}}, {"name": "model_190/tf.nn.convolution_1754/convolution/filter", "op": "Const", "attr": {"value": {"tensor": {"dtype": "DT_FLOAT", "tensorShape": {"dim": [{"size": "3"}, {"size": "3"}, {"size": "1"}, {"size": "1"}]}}}, "dtype": {"type": "DT_FLOAT"}}}, {"name": "model_190/tf.nn.convolution_1755/convolution/filter", "op": "Const", "attr": {"value": {"tensor": {"dtype": "DT_FLOAT", "tensorShape": {"dim": [{"size": "3"}, {"size": "3"}, {"size": "1"}, {"size": "1"}]}}}, "dtype": {"type": "DT_FLOAT"}}}, {"name": "model_190/tf.nn.convolution_1756/convolution/filter", "op": "Const", "attr": {"value": {"tensor": {"dtype": "DT_FLOAT", "tensorShape": {"dim": [{"size": "3"}, {"size": "3"}, {"size": "1"}, {"size": "1"}]}}}, "dtype": {"type": "DT_FLOAT"}}}, {"name": "model_190/tf.nn.convolution_1757/convolution/filter", "op": "Const", "attr": {"value": {"tensor": {"dtype": "DT_FLOAT", "tensorShape": {"dim": [{"size": "3"}, {"size": "3"}, {"size": "1"}, {"size": "1"}]}}}, "dtype": {"type": "DT_FLOAT"}}}, {"name": "model_190/tf.nn.convolution_1758/convolution/filter", "op": "Const", "attr": {"value": {"tensor": {"dtype": "DT_FLOAT", "tensorShape": {"dim": [{"size": "3"}, {"size": "3"}, {"size": "1"}, {"size": "1"}]}}}, "dtype": {"type": "DT_FLOAT"}}}, {"name": "model_190/tf.nn.convolution_1759/convolution/filter", "op": "Const", "attr": {"value": {"tensor": {"dtype": "DT_FLOAT", "tensorShape": {"dim": [{"size": "3"}, {"size": "3"}, {"size": "1"}, {"size": "1"}]}}}, "dtype": {"type": "DT_FLOAT"}}}, {"name": "model_190/tf.nn.convolution_1760/convolution/filter", "op": "Const", "attr": {"value": {"tensor": {"dtype": "DT_FLOAT", "tensorShape": {"dim": [{"size": "3"}, {"size": "3"}, {"size": "1"}, {"size": "1"}]}}}, "dtype": {"type": "DT_FLOAT"}}}, {"name": "model_190/tf.nn.convolution_1761/convolution/filter", "op": "Const", "attr": {"value": {"tensor": {"dtype": "DT_FLOAT", "tensorShape": {"dim": [{"size": "3"}, {"size": "3"}, {"size": "1"}, {"size": "1"}]}}}, "dtype": {"type": "DT_FLOAT"}}}, {"name": "model_190/tf.nn.convolution_1762/convolution/filter", "op": "Const", "attr": {"value": {"tensor": {"dtype": "DT_FLOAT", "tensorShape": {"dim": [{"size": "3"}, {"size": "3"}, {"size": "1"}, {"size": "1"}]}}}, "dtype": {"type": "DT_FLOAT"}}}, {"name": "model_190/tf.nn.convolution_1763/convolution/filter", "op": "Const", "attr": {"value": {"tensor": {"dtype": "DT_FLOAT", "tensorShape": {"dim": [{"size": "3"}, {"size": "3"}, {"size": "1"}, {"size": "1"}]}}}, "dtype": {"type": "DT_FLOAT"}}}, {"name": "model_190/tf.nn.convolution_1764/convolution/filter", "op": "Const", "attr": {"value": {"tensor": {"dtype": "DT_FLOAT", "tensorShape": {"dim": [{"size": "3"}, {"size": "3"}, {"size": "1"}, {"size": "1"}]}}}, "dtype": {"type": "DT_FLOAT"}}}, {"name": "model_190/tf.nn.convolution_1765/convolution/filter", "op": "Const", "attr": {"value": {"tensor": {"dtype": "DT_FLOAT", "tensorShape": {"dim": [{"size": "3"}, {"size": "3"}, {"size": "1"}, {"size": "1"}]}}}, "dtype": {"type": "DT_FLOAT"}}}, {"name": "model_190/tf.nn.convolution_1766/convolution/filter", "op": "Const", "attr": {"value": {"tensor": {"dtype": "DT_FLOAT", "tensorShape": {"dim": [{"size": "3"}, {"size": "3"}, {"size": "1"}, {"size": "1"}]}}}, "dtype": {"type": "DT_FLOAT"}}}, {"name": "model_190/tf.nn.convolution_1767/convolution/filter", "op": "Const", "attr": {"value": {"tensor": {"dtype": "DT_FLOAT", "tensorShape": {"dim": [{"size": "3"}, {"size": "3"}, {"size": "1"}, {"size": "1"}]}}}, "dtype": {"type": "DT_FLOAT"}}}, {"name": "model_190/tf.nn.convolution_1768/convolution/filter", "op": "Const", "attr": {"value": {"tensor": {"dtype": "DT_FLOAT", "tensorShape": {"dim": [{"size": "3"}, {"size": "3"}, {"size": "1"}, {"size": "1"}]}}}, "dtype": {"type": "DT_FLOAT"}}}, {"name": "model_190/tf.nn.convolution_1769/convolution/filter", "op": "Const", "attr": {"value": {"tensor": {"dtype": "DT_FLOAT", "tensorShape": {"dim": [{"size": "3"}, {"size": "3"}, {"size": "1"}, {"size": "1"}]}}}, "dtype": {"type": "DT_FLOAT"}}}, {"name": "model_190/tf.nn.convolution_1770/convolution/filter", "op": "Const", "attr": {"value": {"tensor": {"dtype": "DT_FLOAT", "tensorShape": {"dim": [{"size": "3"}, {"size": "3"}, {"size": "1"}, {"size": "1"}]}}}, "dtype": {"type": "DT_FLOAT"}}}, {"name": "model_190/tf.nn.convolution_1771/convolution/filter", "op": "Const", "attr": {"value": {"tensor": {"dtype": "DT_FLOAT", "tensorShape": {"dim": [{"size": "3"}, {"size": "3"}, {"size": "1"}, {"size": "1"}]}}}, "dtype": {"type": "DT_FLOAT"}}}, {"name": "model_190/tf.nn.convolution_1772/convolution/filter", "op": "Const", "attr": {"value": {"tensor": {"dtype": "DT_FLOAT", "tensorShape": {"dim": [{"size": "3"}, {"size": "3"}, {"size": "1"}, {"size": "1"}]}}}, "dtype": {"type": "DT_FLOAT"}}}, {"name": "model_190/tf.nn.convolution_1773/convolution/filter", "op": "Const", "attr": {"value": {"tensor": {"dtype": "DT_FLOAT", "tensorShape": {"dim": [{"size": "3"}, {"size": "3"}, {"size": "1"}, {"size": "1"}]}}}, "dtype": {"type": "DT_FLOAT"}}}, {"name": "model_190/tf.nn.convolution_1774/convolution/filter", "op": "Const", "attr": {"value": {"tensor": {"dtype": "DT_FLOAT", "tensorShape": {"dim": [{"size": "3"}, {"size": "3"}, {"size": "1"}, {"size": "1"}]}}}, "dtype": {"type": "DT_FLOAT"}}}, {"name": "model_190/tf.nn.convolution_1775/convolution/filter", "op": "Const", "attr": {"value": {"tensor": {"dtype": "DT_FLOAT", "tensorShape": {"dim": [{"size": "3"}, {"size": "3"}, {"size": "1"}, {"size": "1"}]}}}, "dtype": {"type": "DT_FLOAT"}}}, {"name": "model_190/tf.nn.convolution_1776/convolution/filter", "op": "Const", "attr": {"value": {"tensor": {"dtype": "DT_FLOAT", "tensorShape": {"dim": [{"size": "3"}, {"size": "3"}, {"size": "1"}, {"size": "1"}]}}}, "dtype": {"type": "DT_FLOAT"}}}, {"name": "model_190/tf.nn.convolution_1777/convolution/filter", "op": "Const", "attr": {"value": {"tensor": {"dtype": "DT_FLOAT", "tensorShape": {"dim": [{"size": "3"}, {"size": "3"}, {"size": "1"}, {"size": "1"}]}}}, "dtype": {"type": "DT_FLOAT"}}}, {"name": "model_190/tf.nn.convolution_1778/convolution/filter", "op": "Const", "attr": {"value": {"tensor": {"dtype": "DT_FLOAT", "tensorShape": {"dim": [{"size": "3"}, {"size": "3"}, {"size": "1"}, {"size": "1"}]}}}, "dtype": {"type": "DT_FLOAT"}}}, {"name": "model_190/tf.nn.convolution_1779/convolution/filter", "op": "Const", "attr": {"value": {"tensor": {"dtype": "DT_FLOAT", "tensorShape": {"dim": [{"size": "3"}, {"size": "3"}, {"size": "1"}, {"size": "1"}]}}}, "dtype": {"type": "DT_FLOAT"}}}, {"name": "model_190/tf.nn.convolution_1780/convolution/filter", "op": "Const", "attr": {"value": {"tensor": {"dtype": "DT_FLOAT", "tensorShape": {"dim": [{"size": "3"}, {"size": "3"}, {"size": "1"}, {"size": "1"}]}}}, "dtype": {"type": "DT_FLOAT"}}}, {"name": "model_190/tf.nn.convolution_1781/convolution/filter", "op": "Const", "attr": {"value": {"tensor": {"dtype": "DT_FLOAT", "tensorShape": {"dim": [{"size": "3"}, {"size": "3"}, {"size": "1"}, {"size": "1"}]}}}, "dtype": {"type": "DT_FLOAT"}}}, {"name": "model_190/tf.nn.convolution_1782/convolution/filter", "op": "Const", "attr": {"value": {"tensor": {"dtype": "DT_FLOAT", "tensorShape": {"dim": [{"size": "3"}, {"size": "3"}, {"size": "1"}, {"size": "1"}]}}}, "dtype": {"type": "DT_FLOAT"}}}, {"name": "model_190/tf.nn.convolution_1783/convolution/filter", "op": "Const", "attr": {"value": {"tensor": {"dtype": "DT_FLOAT", "tensorShape": {"dim": [{"size": "3"}, {"size": "3"}, {"size": "1"}, {"size": "1"}]}}}, "dtype": {"type": "DT_FLOAT"}}}, {"name": "model_190/tf.nn.convolution_1784/convolution/filter", "op": "Const", "attr": {"value": {"tensor": {"dtype": "DT_FLOAT", "tensorShape": {"dim": [{"size": "3"}, {"size": "3"}, {"size": "1"}, {"size": "1"}]}}}, "dtype": {"type": "DT_FLOAT"}}}, {"name": "model_190/tf.nn.convolution_1785/convolution/filter", "op": "Const", "attr": {"value": {"tensor": {"dtype": "DT_FLOAT", "tensorShape": {"dim": [{"size": "3"}, {"size": "3"}, {"size": "1"}, {"size": "1"}]}}}, "dtype": {"type": "DT_FLOAT"}}}, {"name": "model_190/tf.nn.convolution_1786/convolution/filter", "op": "Const", "attr": {"value": {"tensor": {"dtype": "DT_FLOAT", "tensorShape": {"dim": [{"size": "3"}, {"size": "3"}, {"size": "1"}, {"size": "1"}]}}}, "dtype": {"type": "DT_FLOAT"}}}, {"name": "model_190/tf.nn.convolution_1787/convolution/filter", "op": "Const", "attr": {"value": {"tensor": {"dtype": "DT_FLOAT", "tensorShape": {"dim": [{"size": "3"}, {"size": "3"}, {"size": "1"}, {"size": "1"}]}}}, "dtype": {"type": "DT_FLOAT"}}}, {"name": "model_190/tf.nn.convolution_1788/convolution/filter", "op": "Const", "attr": {"value": {"tensor": {"dtype": "DT_FLOAT", "tensorShape": {"dim": [{"size": "3"}, {"size": "3"}, {"size": "1"}, {"size": "1"}]}}}, "dtype": {"type": "DT_FLOAT"}}}, {"name": "model_190/tf.nn.convolution_1789/convolution/filter", "op": "Const", "attr": {"value": {"tensor": {"dtype": "DT_FLOAT", "tensorShape": {"dim": [{"size": "3"}, {"size": "3"}, {"size": "1"}, {"size": "1"}]}}}, "dtype": {"type": "DT_FLOAT"}}}, {"name": "model_190/tf.nn.convolution_1790/convolution/filter", "op": "Const", "attr": {"value": {"tensor": {"dtype": "DT_FLOAT", "tensorShape": {"dim": [{"size": "3"}, {"size": "3"}, {"size": "1"}, {"size": "1"}]}}}, "dtype": {"type": "DT_FLOAT"}}}, {"name": "model_190/tf.nn.convolution_1791/convolution/filter", "op": "Const", "attr": {"value": {"tensor": {"dtype": "DT_FLOAT", "tensorShape": {"dim": [{"size": "3"}, {"size": "3"}, {"size": "1"}, {"size": "1"}]}}}, "dtype": {"type": "DT_FLOAT"}}}, {"name": "model_190/tf.nn.convolution_1792/convolution/filter", "op": "Const", "attr": {"value": {"tensor": {"dtype": "DT_FLOAT", "tensorShape": {"dim": [{"size": "3"}, {"size": "3"}, {"size": "1"}, {"size": "1"}]}}}, "dtype": {"type": "DT_FLOAT"}}}, {"name": "model_190/tf.nn.convolution_1793/convolution/filter", "op": "Const", "attr": {"value": {"tensor": {"dtype": "DT_FLOAT", "tensorShape": {"dim": [{"size": "3"}, {"size": "3"}, {"size": "1"}, {"size": "1"}]}}}, "dtype": {"type": "DT_FLOAT"}}}, {"name": "model_190/tf.nn.convolution_1794/convolution/filter", "op": "Const", "attr": {"value": {"tensor": {"dtype": "DT_FLOAT", "tensorShape": {"dim": [{"size": "3"}, {"size": "3"}, {"size": "1"}, {"size": "1"}]}}}, "dtype": {"type": "DT_FLOAT"}}}, {"name": "model_190/tf.nn.convolution_1795/convolution/filter", "op": "Const", "attr": {"value": {"tensor": {"dtype": "DT_FLOAT", "tensorShape": {"dim": [{"size": "3"}, {"size": "3"}, {"size": "1"}, {"size": "1"}]}}}, "dtype": {"type": "DT_FLOAT"}}}, {"name": "model_190/tf.nn.convolution_1796/convolution/filter", "op": "Const", "attr": {"value": {"tensor": {"dtype": "DT_FLOAT", "tensorShape": {"dim": [{"size": "3"}, {"size": "3"}, {"size": "1"}, {"size": "1"}]}}}, "dtype": {"type": "DT_FLOAT"}}}, {"name": "model_190/tf.nn.convolution_1797/convolution/filter", "op": "Const", "attr": {"value": {"tensor": {"dtype": "DT_FLOAT", "tensorShape": {"dim": [{"size": "3"}, {"size": "3"}, {"size": "1"}, {"size": "1"}]}}}, "dtype": {"type": "DT_FLOAT"}}}, {"name": "model_190/tf.nn.convolution_1798/convolution/filter", "op": "Const", "attr": {"value": {"tensor": {"dtype": "DT_FLOAT", "tensorShape": {"dim": [{"size": "3"}, {"size": "3"}, {"size": "1"}, {"size": "1"}]}}}, "dtype": {"type": "DT_FLOAT"}}}, {"name": "model_190/tf.nn.convolution_1799/convolution/filter", "op": "Const", "attr": {"value": {"tensor": {"dtype": "DT_FLOAT", "tensorShape": {"dim": [{"size": "3"}, {"size": "3"}, {"size": "1"}, {"size": "1"}]}}}, "dtype": {"type": "DT_FLOAT"}}}, {"name": "model_190/tf.nn.convolution_1800/convolution/filter", "op": "Const", "attr": {"value": {"tensor": {"dtype": "DT_FLOAT", "tensorShape": {"dim": [{"size": "3"}, {"size": "3"}, {"size": "1"}, {"size": "1"}]}}}, "dtype": {"type": "DT_FLOAT"}}}, {"name": "model_190/tf.nn.convolution_1801/convolution/filter", "op": "Const", "attr": {"value": {"tensor": {"dtype": "DT_FLOAT", "tensorShape": {"dim": [{"size": "3"}, {"size": "3"}, {"size": "1"}, {"size": "1"}]}}}, "dtype": {"type": "DT_FLOAT"}}}, {"name": "model_190/tf.nn.convolution_1802/convolution/filter", "op": "Const", "attr": {"value": {"tensor": {"dtype": "DT_FLOAT", "tensorShape": {"dim": [{"size": "3"}, {"size": "3"}, {"size": "1"}, {"size": "1"}]}}}, "dtype": {"type": "DT_FLOAT"}}}, {"name": "model_190/tf.nn.convolution_1803/convolution/filter", "op": "Const", "attr": {"value": {"tensor": {"dtype": "DT_FLOAT", "tensorShape": {"dim": [{"size": "3"}, {"size": "3"}, {"size": "1"}, {"size": "1"}]}}}, "dtype": {"type": "DT_FLOAT"}}}, {"name": "model_190/tf.nn.convolution_1804/convolution/filter", "op": "Const", "attr": {"value": {"tensor": {"dtype": "DT_FLOAT", "tensorShape": {"dim": [{"size": "3"}, {"size": "3"}, {"size": "1"}, {"size": "1"}]}}}, "dtype": {"type": "DT_FLOAT"}}}, {"name": "model_190/tf.nn.convolution_1805/convolution/filter", "op": "Const", "attr": {"value": {"tensor": {"dtype": "DT_FLOAT", "tensorShape": {"dim": [{"size": "3"}, {"size": "3"}, {"size": "1"}, {"size": "1"}]}}}, "dtype": {"type": "DT_FLOAT"}}}, {"name": "model_190/tf.nn.convolution_1806/convolution/filter", "op": "Const", "attr": {"value": {"tensor": {"dtype": "DT_FLOAT", "tensorShape": {"dim": [{"size": "3"}, {"size": "3"}, {"size": "1"}, {"size": "1"}]}}}, "dtype": {"type": "DT_FLOAT"}}}, {"name": "model_190/tf.nn.convolution_1807/convolution/filter", "op": "Const", "attr": {"value": {"tensor": {"dtype": "DT_FLOAT", "tensorShape": {"dim": [{"size": "3"}, {"size": "3"}, {"size": "1"}, {"size": "1"}]}}}, "dtype": {"type": "DT_FLOAT"}}}, {"name": "model_190/tf.nn.convolution_1808/convolution/filter", "op": "Const", "attr": {"value": {"tensor": {"dtype": "DT_FLOAT", "tensorShape": {"dim": [{"size": "3"}, {"size": "3"}, {"size": "1"}, {"size": "1"}]}}}, "dtype": {"type": "DT_FLOAT"}}}, {"name": "model_190/tf.nn.convolution_1809/convolution/filter", "op": "Const", "attr": {"value": {"tensor": {"dtype": "DT_FLOAT", "tensorShape": {"dim": [{"size": "3"}, {"size": "3"}, {"size": "1"}, {"size": "1"}]}}}, "dtype": {"type": "DT_FLOAT"}}}, {"name": "model_190/tf.nn.convolution_1810/convolution/filter", "op": "Const", "attr": {"value": {"tensor": {"dtype": "DT_FLOAT", "tensorShape": {"dim": [{"size": "3"}, {"size": "3"}, {"size": "1"}, {"size": "1"}]}}}, "dtype": {"type": "DT_FLOAT"}}}, {"name": "model_190/tf.nn.convolution_1811/convolution/filter", "op": "Const", "attr": {"value": {"tensor": {"dtype": "DT_FLOAT", "tensorShape": {"dim": [{"size": "3"}, {"size": "3"}, {"size": "1"}, {"size": "1"}]}}}, "dtype": {"type": "DT_FLOAT"}}}, {"name": "model_190/tf.nn.convolution_1812/convolution/filter", "op": "Const", "attr": {"value": {"tensor": {"dtype": "DT_FLOAT", "tensorShape": {"dim": [{"size": "3"}, {"size": "3"}, {"size": "1"}, {"size": "1"}]}}}, "dtype": {"type": "DT_FLOAT"}}}, {"name": "model_190/tf.nn.convolution_1813/convolution/filter", "op": "Const", "attr": {"value": {"tensor": {"dtype": "DT_FLOAT", "tensorShape": {"dim": [{"size": "3"}, {"size": "3"}, {"size": "1"}, {"size": "1"}]}}}, "dtype": {"type": "DT_FLOAT"}}}, {"name": "model_190/tf.nn.convolution_1814/convolution/filter", "op": "Const", "attr": {"value": {"tensor": {"dtype": "DT_FLOAT", "tensorShape": {"dim": [{"size": "3"}, {"size": "3"}, {"size": "1"}, {"size": "1"}]}}}, "dtype": {"type": "DT_FLOAT"}}}, {"name": "model_190/tf.nn.convolution_1815/convolution/filter", "op": "Const", "attr": {"value": {"tensor": {"dtype": "DT_FLOAT", "tensorShape": {"dim": [{"size": "3"}, {"size": "3"}, {"size": "1"}, {"size": "1"}]}}}, "dtype": {"type": "DT_FLOAT"}}}, {"name": "model_190/tf.nn.convolution_1816/convolution/filter", "op": "Const", "attr": {"value": {"tensor": {"dtype": "DT_FLOAT", "tensorShape": {"dim": [{"size": "3"}, {"size": "3"}, {"size": "1"}, {"size": "1"}]}}}, "dtype": {"type": "DT_FLOAT"}}}, {"name": "model_190/tf.nn.convolution_1817/convolution/filter", "op": "Const", "attr": {"value": {"tensor": {"dtype": "DT_FLOAT", "tensorShape": {"dim": [{"size": "3"}, {"size": "3"}, {"size": "1"}, {"size": "1"}]}}}, "dtype": {"type": "DT_FLOAT"}}}, {"name": "model_190/tf.nn.convolution_1818/convolution/filter", "op": "Const", "attr": {"value": {"tensor": {"dtype": "DT_FLOAT", "tensorShape": {"dim": [{"size": "3"}, {"size": "3"}, {"size": "1"}, {"size": "1"}]}}}, "dtype": {"type": "DT_FLOAT"}}}, {"name": "model_190/tf.nn.convolution_1819/convolution/filter", "op": "Const", "attr": {"value": {"tensor": {"dtype": "DT_FLOAT", "tensorShape": {"dim": [{"size": "3"}, {"size": "3"}, {"size": "1"}, {"size": "1"}]}}}, "dtype": {"type": "DT_FLOAT"}}}, {"name": "model_190/tf.nn.convolution_1820/convolution/filter", "op": "Const", "attr": {"value": {"tensor": {"dtype": "DT_FLOAT", "tensorShape": {"dim": [{"size": "3"}, {"size": "3"}, {"size": "1"}, {"size": "1"}]}}}, "dtype": {"type": "DT_FLOAT"}}}, {"name": "model_190/tf.nn.convolution_1821/convolution/filter", "op": "Const", "attr": {"value": {"tensor": {"dtype": "DT_FLOAT", "tensorShape": {"dim": [{"size": "3"}, {"size": "3"}, {"size": "1"}, {"size": "1"}]}}}, "dtype": {"type": "DT_FLOAT"}}}, {"name": "model_190/tf.nn.convolution_1822/convolution/filter", "op": "Const", "attr": {"value": {"tensor": {"dtype": "DT_FLOAT", "tensorShape": {"dim": [{"size": "3"}, {"size": "3"}, {"size": "1"}, {"size": "1"}]}}}, "dtype": {"type": "DT_FLOAT"}}}, {"name": "model_190/tf.nn.convolution_1823/convolution/filter", "op": "Const", "attr": {"value": {"tensor": {"dtype": "DT_FLOAT", "tensorShape": {"dim": [{"size": "3"}, {"size": "3"}, {"size": "1"}, {"size": "1"}]}}}, "dtype": {"type": "DT_FLOAT"}}}, {"name": "model_190/tf.nn.convolution_1824/convolution/filter", "op": "Const", "attr": {"value": {"tensor": {"dtype": "DT_FLOAT", "tensorShape": {"dim": [{"size": "3"}, {"size": "3"}, {"size": "1"}, {"size": "1"}]}}}, "dtype": {"type": "DT_FLOAT"}}}, {"name": "model_190/tf.nn.convolution_1825/convolution/filter", "op": "Const", "attr": {"value": {"tensor": {"dtype": "DT_FLOAT", "tensorShape": {"dim": [{"size": "3"}, {"size": "3"}, {"size": "1"}, {"size": "1"}]}}}, "dtype": {"type": "DT_FLOAT"}}}, {"name": "model_190/tf.nn.convolution_1826/convolution/filter", "op": "Const", "attr": {"value": {"tensor": {"dtype": "DT_FLOAT", "tensorShape": {"dim": [{"size": "3"}, {"size": "3"}, {"size": "1"}, {"size": "1"}]}}}, "dtype": {"type": "DT_FLOAT"}}}, {"name": "model_190/tf.nn.convolution_1827/convolution/filter", "op": "Const", "attr": {"value": {"tensor": {"dtype": "DT_FLOAT", "tensorShape": {"dim": [{"size": "3"}, {"size": "3"}, {"size": "1"}, {"size": "1"}]}}}, "dtype": {"type": "DT_FLOAT"}}}, {"name": "model_190/tf.nn.convolution_1828/convolution/filter", "op": "Const", "attr": {"value": {"tensor": {"dtype": "DT_FLOAT", "tensorShape": {"dim": [{"size": "3"}, {"size": "3"}, {"size": "1"}, {"size": "1"}]}}}, "dtype": {"type": "DT_FLOAT"}}}, {"name": "model_190/tf.nn.convolution_1829/convolution/filter", "op": "Const", "attr": {"value": {"tensor": {"dtype": "DT_FLOAT", "tensorShape": {"dim": [{"size": "3"}, {"size": "3"}, {"size": "1"}, {"size": "1"}]}}}, "dtype": {"type": "DT_FLOAT"}}}, {"name": "model_190/tf.nn.convolution_1830/convolution/filter", "op": "Const", "attr": {"value": {"tensor": {"dtype": "DT_FLOAT", "tensorShape": {"dim": [{"size": "3"}, {"size": "3"}, {"size": "1"}, {"size": "1"}]}}}, "dtype": {"type": "DT_FLOAT"}}}, {"name": "model_190/tf.nn.convolution_1831/convolution/filter", "op": "Const", "attr": {"value": {"tensor": {"dtype": "DT_FLOAT", "tensorShape": {"dim": [{"size": "3"}, {"size": "3"}, {"size": "1"}, {"size": "1"}]}}}, "dtype": {"type": "DT_FLOAT"}}}, {"name": "model_190/tf.nn.convolution_1832/convolution/filter", "op": "Const", "attr": {"value": {"tensor": {"dtype": "DT_FLOAT", "tensorShape": {"dim": [{"size": "3"}, {"size": "3"}, {"size": "1"}, {"size": "1"}]}}}, "dtype": {"type": "DT_FLOAT"}}}, {"name": "model_190/tf.nn.convolution_1833/convolution/filter", "op": "Const", "attr": {"value": {"tensor": {"dtype": "DT_FLOAT", "tensorShape": {"dim": [{"size": "3"}, {"size": "3"}, {"size": "1"}, {"size": "1"}]}}}, "dtype": {"type": "DT_FLOAT"}}}, {"name": "model_190/tf.nn.convolution_1834/convolution/filter", "op": "Const", "attr": {"value": {"tensor": {"dtype": "DT_FLOAT", "tensorShape": {"dim": [{"size": "3"}, {"size": "3"}, {"size": "1"}, {"size": "1"}]}}}, "dtype": {"type": "DT_FLOAT"}}}, {"name": "model_190/tf.nn.convolution_1835/convolution/filter", "op": "Const", "attr": {"value": {"tensor": {"dtype": "DT_FLOAT", "tensorShape": {"dim": [{"size": "3"}, {"size": "3"}, {"size": "1"}, {"size": "1"}]}}}, "dtype": {"type": "DT_FLOAT"}}}, {"name": "model_190/tf.nn.convolution_1836/convolution/filter", "op": "Const", "attr": {"value": {"tensor": {"dtype": "DT_FLOAT", "tensorShape": {"dim": [{"size": "3"}, {"size": "3"}, {"size": "1"}, {"size": "1"}]}}}, "dtype": {"type": "DT_FLOAT"}}}, {"name": "model_190/tf.nn.convolution_1837/convolution/filter", "op": "Const", "attr": {"value": {"tensor": {"dtype": "DT_FLOAT", "tensorShape": {"dim": [{"size": "3"}, {"size": "3"}, {"size": "1"}, {"size": "1"}]}}}, "dtype": {"type": "DT_FLOAT"}}}, {"name": "model_190/tf.nn.convolution_1838/convolution/filter", "op": "Const", "attr": {"value": {"tensor": {"dtype": "DT_FLOAT", "tensorShape": {"dim": [{"size": "3"}, {"size": "3"}, {"size": "1"}, {"size": "1"}]}}}, "dtype": {"type": "DT_FLOAT"}}}, {"name": "model_190/tf.nn.convolution_1839/convolution/filter", "op": "Const", "attr": {"value": {"tensor": {"dtype": "DT_FLOAT", "tensorShape": {"dim": [{"size": "3"}, {"size": "3"}, {"size": "1"}, {"size": "1"}]}}}, "dtype": {"type": "DT_FLOAT"}}}, {"name": "model_190/tf.nn.convolution_1840/convolution/filter", "op": "Const", "attr": {"value": {"tensor": {"dtype": "DT_FLOAT", "tensorShape": {"dim": [{"size": "3"}, {"size": "3"}, {"size": "1"}, {"size": "1"}]}}}, "dtype": {"type": "DT_FLOAT"}}}, {"name": "model_190/tf.nn.convolution_1841/convolution/filter", "op": "Const", "attr": {"value": {"tensor": {"dtype": "DT_FLOAT", "tensorShape": {"dim": [{"size": "3"}, {"size": "3"}, {"size": "1"}, {"size": "1"}]}}}, "dtype": {"type": "DT_FLOAT"}}}, {"name": "model_190/tf.nn.convolution_1842/convolution/filter", "op": "Const", "attr": {"value": {"tensor": {"dtype": "DT_FLOAT", "tensorShape": {"dim": [{"size": "3"}, {"size": "3"}, {"size": "1"}, {"size": "1"}]}}}, "dtype": {"type": "DT_FLOAT"}}}, {"name": "model_190/tf.nn.convolution_1843/convolution/filter", "op": "Const", "attr": {"value": {"tensor": {"dtype": "DT_FLOAT", "tensorShape": {"dim": [{"size": "3"}, {"size": "3"}, {"size": "1"}, {"size": "1"}]}}}, "dtype": {"type": "DT_FLOAT"}}}, {"name": "model_190/tf.nn.convolution_1844/convolution/filter", "op": "Const", "attr": {"value": {"tensor": {"dtype": "DT_FLOAT", "tensorShape": {"dim": [{"size": "3"}, {"size": "3"}, {"size": "1"}, {"size": "1"}]}}}, "dtype": {"type": "DT_FLOAT"}}}, {"name": "model_190/tf.nn.convolution_1845/convolution/filter", "op": "Const", "attr": {"value": {"tensor": {"dtype": "DT_FLOAT", "tensorShape": {"dim": [{"size": "3"}, {"size": "3"}, {"size": "1"}, {"size": "1"}]}}}, "dtype": {"type": "DT_FLOAT"}}}, {"name": "model_190/tf.nn.convolution_1846/convolution/filter", "op": "Const", "attr": {"value": {"tensor": {"dtype": "DT_FLOAT", "tensorShape": {"dim": [{"size": "3"}, {"size": "3"}, {"size": "1"}, {"size": "1"}]}}}, "dtype": {"type": "DT_FLOAT"}}}, {"name": "model_190/tf.nn.convolution_1847/convolution/filter", "op": "Const", "attr": {"value": {"tensor": {"dtype": "DT_FLOAT", "tensorShape": {"dim": [{"size": "3"}, {"size": "3"}, {"size": "1"}, {"size": "1"}]}}}, "dtype": {"type": "DT_FLOAT"}}}, {"name": "model_190/tf.nn.convolution_1848/convolution/filter", "op": "Const", "attr": {"value": {"tensor": {"dtype": "DT_FLOAT", "tensorShape": {"dim": [{"size": "3"}, {"size": "3"}, {"size": "1"}, {"size": "1"}]}}}, "dtype": {"type": "DT_FLOAT"}}}, {"name": "model_190/tf.nn.convolution_1849/convolution/filter", "op": "Const", "attr": {"value": {"tensor": {"dtype": "DT_FLOAT", "tensorShape": {"dim": [{"size": "3"}, {"size": "3"}, {"size": "1"}, {"size": "1"}]}}}, "dtype": {"type": "DT_FLOAT"}}}, {"name": "model_190/tf.nn.convolution_1850/convolution/filter", "op": "Const", "attr": {"value": {"tensor": {"dtype": "DT_FLOAT", "tensorShape": {"dim": [{"size": "3"}, {"size": "3"}, {"size": "1"}, {"size": "1"}]}}}, "dtype": {"type": "DT_FLOAT"}}}, {"name": "model_190/tf.nn.convolution_1851/convolution/filter", "op": "Const", "attr": {"value": {"tensor": {"dtype": "DT_FLOAT", "tensorShape": {"dim": [{"size": "3"}, {"size": "3"}, {"size": "1"}, {"size": "1"}]}}}, "dtype": {"type": "DT_FLOAT"}}}, {"name": "model_190/tf.nn.convolution_1852/convolution/filter", "op": "Const", "attr": {"value": {"tensor": {"dtype": "DT_FLOAT", "tensorShape": {"dim": [{"size": "3"}, {"size": "3"}, {"size": "1"}, {"size": "1"}]}}}, "dtype": {"type": "DT_FLOAT"}}}, {"name": "model_190/tf.nn.convolution_1853/convolution/filter", "op": "Const", "attr": {"value": {"tensor": {"dtype": "DT_FLOAT", "tensorShape": {"dim": [{"size": "3"}, {"size": "3"}, {"size": "1"}, {"size": "1"}]}}}, "dtype": {"type": "DT_FLOAT"}}}, {"name": "model_190/tf.nn.convolution_1854/convolution/filter", "op": "Const", "attr": {"value": {"tensor": {"dtype": "DT_FLOAT", "tensorShape": {"dim": [{"size": "3"}, {"size": "3"}, {"size": "1"}, {"size": "1"}]}}}, "dtype": {"type": "DT_FLOAT"}}}, {"name": "model_190/tf.nn.convolution_1855/convolution/filter", "op": "Const", "attr": {"value": {"tensor": {"dtype": "DT_FLOAT", "tensorShape": {"dim": [{"size": "3"}, {"size": "3"}, {"size": "1"}, {"size": "1"}]}}}, "dtype": {"type": "DT_FLOAT"}}}, {"name": "model_190/tf.nn.convolution_1856/convolution/filter", "op": "Const", "attr": {"value": {"tensor": {"dtype": "DT_FLOAT", "tensorShape": {"dim": [{"size": "3"}, {"size": "3"}, {"size": "1"}, {"size": "1"}]}}}, "dtype": {"type": "DT_FLOAT"}}}, {"name": "model_190/tf.nn.convolution_1857/convolution/filter", "op": "Const", "attr": {"value": {"tensor": {"dtype": "DT_FLOAT", "tensorShape": {"dim": [{"size": "3"}, {"size": "3"}, {"size": "1"}, {"size": "1"}]}}}, "dtype": {"type": "DT_FLOAT"}}}, {"name": "model_190/tf.nn.convolution_1858/convolution/filter", "op": "Const", "attr": {"value": {"tensor": {"dtype": "DT_FLOAT", "tensorShape": {"dim": [{"size": "3"}, {"size": "3"}, {"size": "1"}, {"size": "1"}]}}}, "dtype": {"type": "DT_FLOAT"}}}, {"name": "model_190/tf.nn.convolution_1859/convolution/filter", "op": "Const", "attr": {"value": {"tensor": {"dtype": "DT_FLOAT", "tensorShape": {"dim": [{"size": "3"}, {"size": "3"}, {"size": "1"}, {"size": "1"}]}}}, "dtype": {"type": "DT_FLOAT"}}}, {"name": "model_190/tf.nn.convolution_1860/convolution/filter", "op": "Const", "attr": {"value": {"tensor": {"dtype": "DT_FLOAT", "tensorShape": {"dim": [{"size": "3"}, {"size": "3"}, {"size": "1"}, {"size": "1"}]}}}, "dtype": {"type": "DT_FLOAT"}}}, {"name": "model_190/tf.nn.convolution_1861/convolution/filter", "op": "Const", "attr": {"value": {"tensor": {"dtype": "DT_FLOAT", "tensorShape": {"dim": [{"size": "3"}, {"size": "3"}, {"size": "1"}, {"size": "1"}]}}}, "dtype": {"type": "DT_FLOAT"}}}, {"name": "model_190/tf.nn.convolution_1862/convolution/filter", "op": "Const", "attr": {"value": {"tensor": {"dtype": "DT_FLOAT", "tensorShape": {"dim": [{"size": "3"}, {"size": "3"}, {"size": "1"}, {"size": "1"}]}}}, "dtype": {"type": "DT_FLOAT"}}}, {"name": "model_190/tf.nn.convolution_1863/convolution/filter", "op": "Const", "attr": {"value": {"tensor": {"dtype": "DT_FLOAT", "tensorShape": {"dim": [{"size": "3"}, {"size": "3"}, {"size": "1"}, {"size": "1"}]}}}, "dtype": {"type": "DT_FLOAT"}}}, {"name": "model_190/tf.nn.convolution_1864/convolution/filter", "op": "Const", "attr": {"value": {"tensor": {"dtype": "DT_FLOAT", "tensorShape": {"dim": [{"size": "3"}, {"size": "3"}, {"size": "1"}, {"size": "1"}]}}}, "dtype": {"type": "DT_FLOAT"}}}, {"name": "model_190/tf.nn.convolution_1865/convolution/filter", "op": "Const", "attr": {"value": {"tensor": {"dtype": "DT_FLOAT", "tensorShape": {"dim": [{"size": "3"}, {"size": "3"}, {"size": "1"}, {"size": "1"}]}}}, "dtype": {"type": "DT_FLOAT"}}}, {"name": "model_190/tf.nn.convolution_1866/convolution/filter", "op": "Const", "attr": {"value": {"tensor": {"dtype": "DT_FLOAT", "tensorShape": {"dim": [{"size": "3"}, {"size": "3"}, {"size": "1"}, {"size": "1"}]}}}, "dtype": {"type": "DT_FLOAT"}}}, {"name": "model_190/tf.nn.convolution_1867/convolution/filter", "op": "Const", "attr": {"value": {"tensor": {"dtype": "DT_FLOAT", "tensorShape": {"dim": [{"size": "3"}, {"size": "3"}, {"size": "1"}, {"size": "1"}]}}}, "dtype": {"type": "DT_FLOAT"}}}, {"name": "model_190/tf.nn.convolution_1868/convolution/filter", "op": "Const", "attr": {"value": {"tensor": {"dtype": "DT_FLOAT", "tensorShape": {"dim": [{"size": "3"}, {"size": "3"}, {"size": "1"}, {"size": "1"}]}}}, "dtype": {"type": "DT_FLOAT"}}}, {"name": "model_190/tf.nn.convolution_1869/convolution/filter", "op": "Const", "attr": {"value": {"tensor": {"dtype": "DT_FLOAT", "tensorShape": {"dim": [{"size": "3"}, {"size": "3"}, {"size": "1"}, {"size": "1"}]}}}, "dtype": {"type": "DT_FLOAT"}}}, {"name": "model_190/tf.nn.convolution_1870/convolution/filter", "op": "Const", "attr": {"value": {"tensor": {"dtype": "DT_FLOAT", "tensorShape": {"dim": [{"size": "3"}, {"size": "3"}, {"size": "1"}, {"size": "1"}]}}}, "dtype": {"type": "DT_FLOAT"}}}, {"name": "model_190/tf.nn.convolution_1871/convolution/filter", "op": "Const", "attr": {"value": {"tensor": {"dtype": "DT_FLOAT", "tensorShape": {"dim": [{"size": "3"}, {"size": "3"}, {"size": "1"}, {"size": "1"}]}}}, "dtype": {"type": "DT_FLOAT"}}}, {"name": "model_190/tf.nn.convolution_1872/convolution/filter", "op": "Const", "attr": {"value": {"tensor": {"dtype": "DT_FLOAT", "tensorShape": {"dim": [{"size": "3"}, {"size": "3"}, {"size": "1"}, {"size": "1"}]}}}, "dtype": {"type": "DT_FLOAT"}}}, {"name": "model_190/tf.nn.convolution_1873/convolution/filter", "op": "Const", "attr": {"value": {"tensor": {"dtype": "DT_FLOAT", "tensorShape": {"dim": [{"size": "3"}, {"size": "3"}, {"size": "1"}, {"size": "1"}]}}}, "dtype": {"type": "DT_FLOAT"}}}, {"name": "model_190/tf.nn.convolution_1874/convolution/filter", "op": "Const", "attr": {"value": {"tensor": {"dtype": "DT_FLOAT", "tensorShape": {"dim": [{"size": "3"}, {"size": "3"}, {"size": "1"}, {"size": "1"}]}}}, "dtype": {"type": "DT_FLOAT"}}}, {"name": "model_190/tf.nn.convolution_1875/convolution/filter", "op": "Const", "attr": {"value": {"tensor": {"dtype": "DT_FLOAT", "tensorShape": {"dim": [{"size": "3"}, {"size": "3"}, {"size": "1"}, {"size": "1"}]}}}, "dtype": {"type": "DT_FLOAT"}}}, {"name": "model_190/tf.nn.convolution_1876/convolution/filter", "op": "Const", "attr": {"value": {"tensor": {"dtype": "DT_FLOAT", "tensorShape": {"dim": [{"size": "3"}, {"size": "3"}, {"size": "1"}, {"size": "1"}]}}}, "dtype": {"type": "DT_FLOAT"}}}, {"name": "model_190/tf.nn.convolution_1877/convolution/filter", "op": "Const", "attr": {"value": {"tensor": {"dtype": "DT_FLOAT", "tensorShape": {"dim": [{"size": "3"}, {"size": "3"}, {"size": "1"}, {"size": "1"}]}}}, "dtype": {"type": "DT_FLOAT"}}}, {"name": "model_190/tf.nn.convolution_1878/convolution/filter", "op": "Const", "attr": {"value": {"tensor": {"dtype": "DT_FLOAT", "tensorShape": {"dim": [{"size": "3"}, {"size": "3"}, {"size": "1"}, {"size": "1"}]}}}, "dtype": {"type": "DT_FLOAT"}}}, {"name": "model_190/tf.nn.convolution_1879/convolution/filter", "op": "Const", "attr": {"value": {"tensor": {"dtype": "DT_FLOAT", "tensorShape": {"dim": [{"size": "3"}, {"size": "3"}, {"size": "1"}, {"size": "1"}]}}}, "dtype": {"type": "DT_FLOAT"}}}, {"name": "model_190/tf.nn.convolution_1880/convolution/filter", "op": "Const", "attr": {"value": {"tensor": {"dtype": "DT_FLOAT", "tensorShape": {"dim": [{"size": "3"}, {"size": "3"}, {"size": "1"}, {"size": "1"}]}}}, "dtype": {"type": "DT_FLOAT"}}}, {"name": "model_190/tf.nn.convolution_1881/convolution/filter", "op": "Const", "attr": {"value": {"tensor": {"dtype": "DT_FLOAT", "tensorShape": {"dim": [{"size": "3"}, {"size": "3"}, {"size": "1"}, {"size": "1"}]}}}, "dtype": {"type": "DT_FLOAT"}}}, {"name": "model_190/tf.nn.convolution_1882/convolution/filter", "op": "Const", "attr": {"value": {"tensor": {"dtype": "DT_FLOAT", "tensorShape": {"dim": [{"size": "3"}, {"size": "3"}, {"size": "1"}, {"size": "1"}]}}}, "dtype": {"type": "DT_FLOAT"}}}, {"name": "model_190/tf.nn.convolution_1883/convolution/filter", "op": "Const", "attr": {"value": {"tensor": {"dtype": "DT_FLOAT", "tensorShape": {"dim": [{"size": "3"}, {"size": "3"}, {"size": "1"}, {"size": "1"}]}}}, "dtype": {"type": "DT_FLOAT"}}}, {"name": "model_190/tf.nn.convolution_1884/convolution/filter", "op": "Const", "attr": {"value": {"tensor": {"dtype": "DT_FLOAT", "tensorShape": {"dim": [{"size": "3"}, {"size": "3"}, {"size": "1"}, {"size": "1"}]}}}, "dtype": {"type": "DT_FLOAT"}}}, {"name": "model_190/tf.nn.convolution_1885/convolution/filter", "op": "Const", "attr": {"value": {"tensor": {"dtype": "DT_FLOAT", "tensorShape": {"dim": [{"size": "3"}, {"size": "3"}, {"size": "1"}, {"size": "1"}]}}}, "dtype": {"type": "DT_FLOAT"}}}, {"name": "model_190/tf.nn.convolution_1886/convolution/filter", "op": "Const", "attr": {"value": {"tensor": {"dtype": "DT_FLOAT", "tensorShape": {"dim": [{"size": "3"}, {"size": "3"}, {"size": "1"}, {"size": "1"}]}}}, "dtype": {"type": "DT_FLOAT"}}}, {"name": "model_190/tf.nn.convolution_1887/convolution/filter", "op": "Const", "attr": {"value": {"tensor": {"dtype": "DT_FLOAT", "tensorShape": {"dim": [{"size": "3"}, {"size": "3"}, {"size": "1"}, {"size": "1"}]}}}, "dtype": {"type": "DT_FLOAT"}}}, {"name": "model_190/tf.nn.convolution_1888/convolution/filter", "op": "Const", "attr": {"value": {"tensor": {"dtype": "DT_FLOAT", "tensorShape": {"dim": [{"size": "3"}, {"size": "3"}, {"size": "1"}, {"size": "1"}]}}}, "dtype": {"type": "DT_FLOAT"}}}, {"name": "model_190/tf.nn.convolution_1889/convolution/filter", "op": "Const", "attr": {"value": {"tensor": {"dtype": "DT_FLOAT", "tensorShape": {"dim": [{"size": "3"}, {"size": "3"}, {"size": "1"}, {"size": "1"}]}}}, "dtype": {"type": "DT_FLOAT"}}}, {"name": "model_190/tf.nn.convolution_1890/convolution/filter", "op": "Const", "attr": {"value": {"tensor": {"dtype": "DT_FLOAT", "tensorShape": {"dim": [{"size": "3"}, {"size": "3"}, {"size": "1"}, {"size": "1"}]}}}, "dtype": {"type": "DT_FLOAT"}}}, {"name": "model_190/tf.nn.convolution_1891/convolution/filter", "op": "Const", "attr": {"value": {"tensor": {"dtype": "DT_FLOAT", "tensorShape": {"dim": [{"size": "3"}, {"size": "3"}, {"size": "1"}, {"size": "1"}]}}}, "dtype": {"type": "DT_FLOAT"}}}, {"name": "model_190/tf.nn.convolution_1892/convolution/filter", "op": "Const", "attr": {"value": {"tensor": {"dtype": "DT_FLOAT", "tensorShape": {"dim": [{"size": "3"}, {"size": "3"}, {"size": "1"}, {"size": "1"}]}}}, "dtype": {"type": "DT_FLOAT"}}}, {"name": "model_190/tf.nn.convolution_1893/convolution/filter", "op": "Const", "attr": {"value": {"tensor": {"dtype": "DT_FLOAT", "tensorShape": {"dim": [{"size": "3"}, {"size": "3"}, {"size": "1"}, {"size": "1"}]}}}, "dtype": {"type": "DT_FLOAT"}}}, {"name": "model_190/tf.nn.convolution_1894/convolution/filter", "op": "Const", "attr": {"value": {"tensor": {"dtype": "DT_FLOAT", "tensorShape": {"dim": [{"size": "3"}, {"size": "3"}, {"size": "1"}, {"size": "1"}]}}}, "dtype": {"type": "DT_FLOAT"}}}, {"name": "model_190/tf.nn.convolution_1895/convolution/filter", "op": "Const", "attr": {"value": {"tensor": {"dtype": "DT_FLOAT", "tensorShape": {"dim": [{"size": "3"}, {"size": "3"}, {"size": "1"}, {"size": "1"}]}}}, "dtype": {"type": "DT_FLOAT"}}}, {"name": "model_190/tf.nn.convolution_1896/convolution/filter", "op": "Const", "attr": {"value": {"tensor": {"dtype": "DT_FLOAT", "tensorShape": {"dim": [{"size": "3"}, {"size": "3"}, {"size": "1"}, {"size": "1"}]}}}, "dtype": {"type": "DT_FLOAT"}}}, {"name": "model_190/tf.nn.convolution_1897/convolution/filter", "op": "Const", "attr": {"value": {"tensor": {"dtype": "DT_FLOAT", "tensorShape": {"dim": [{"size": "3"}, {"size": "3"}, {"size": "1"}, {"size": "1"}]}}}, "dtype": {"type": "DT_FLOAT"}}}, {"name": "model_190/tf.nn.convolution_1898/convolution/filter", "op": "Const", "attr": {"value": {"tensor": {"dtype": "DT_FLOAT", "tensorShape": {"dim": [{"size": "3"}, {"size": "3"}, {"size": "1"}, {"size": "1"}]}}}, "dtype": {"type": "DT_FLOAT"}}}, {"name": "model_190/tf.nn.convolution_1899/convolution/filter", "op": "Const", "attr": {"value": {"tensor": {"dtype": "DT_FLOAT", "tensorShape": {"dim": [{"size": "3"}, {"size": "3"}, {"size": "1"}, {"size": "1"}]}}}, "dtype": {"type": "DT_FLOAT"}}}, {"name": "model_190/tf.nn.convolution_1900/convolution/filter", "op": "Const", "attr": {"value": {"tensor": {"dtype": "DT_FLOAT", "tensorShape": {"dim": [{"size": "3"}, {"size": "3"}, {"size": "1"}, {"size": "1"}]}}}, "dtype": {"type": "DT_FLOAT"}}}, {"name": "model_190/tf.nn.convolution_1901/convolution/filter", "op": "Const", "attr": {"value": {"tensor": {"dtype": "DT_FLOAT", "tensorShape": {"dim": [{"size": "3"}, {"size": "3"}, {"size": "1"}, {"size": "1"}]}}}, "dtype": {"type": "DT_FLOAT"}}}, {"name": "model_190/tf.nn.convolution_1902/convolution/filter", "op": "Const", "attr": {"value": {"tensor": {"dtype": "DT_FLOAT", "tensorShape": {"dim": [{"size": "3"}, {"size": "3"}, {"size": "1"}, {"size": "1"}]}}}, "dtype": {"type": "DT_FLOAT"}}}, {"name": "model_190/tf.nn.convolution_1903/convolution/filter", "op": "Const", "attr": {"value": {"tensor": {"dtype": "DT_FLOAT", "tensorShape": {"dim": [{"size": "3"}, {"size": "3"}, {"size": "1"}, {"size": "1"}]}}}, "dtype": {"type": "DT_FLOAT"}}}, {"name": "model_190/tf.nn.convolution_1904/convolution/filter", "op": "Const", "attr": {"value": {"tensor": {"dtype": "DT_FLOAT", "tensorShape": {"dim": [{"size": "3"}, {"size": "3"}, {"size": "1"}, {"size": "1"}]}}}, "dtype": {"type": "DT_FLOAT"}}}, {"name": "model_190/tf.nn.convolution_1905/convolution/filter", "op": "Const", "attr": {"value": {"tensor": {"dtype": "DT_FLOAT", "tensorShape": {"dim": [{"size": "3"}, {"size": "3"}, {"size": "1"}, {"size": "1"}]}}}, "dtype": {"type": "DT_FLOAT"}}}, {"name": "model_190/tf.nn.convolution_1906/convolution/filter", "op": "Const", "attr": {"value": {"tensor": {"dtype": "DT_FLOAT", "tensorShape": {"dim": [{"size": "3"}, {"size": "3"}, {"size": "1"}, {"size": "1"}]}}}, "dtype": {"type": "DT_FLOAT"}}}, {"name": "model_190/tf.nn.convolution_1907/convolution/filter", "op": "Const", "attr": {"value": {"tensor": {"dtype": "DT_FLOAT", "tensorShape": {"dim": [{"size": "3"}, {"size": "3"}, {"size": "1"}, {"size": "1"}]}}}, "dtype": {"type": "DT_FLOAT"}}}, {"name": "model_190/tf.nn.convolution_1908/convolution/filter", "op": "Const", "attr": {"value": {"tensor": {"dtype": "DT_FLOAT", "tensorShape": {"dim": [{"size": "3"}, {"size": "3"}, {"size": "1"}, {"size": "1"}]}}}, "dtype": {"type": "DT_FLOAT"}}}, {"name": "model_190/tf.nn.convolution_1909/convolution/filter", "op": "Const", "attr": {"value": {"tensor": {"dtype": "DT_FLOAT", "tensorShape": {"dim": [{"size": "3"}, {"size": "3"}, {"size": "1"}, {"size": "1"}]}}}, "dtype": {"type": "DT_FLOAT"}}}, {"name": "model_190/tf.nn.convolution_1910/convolution/filter", "op": "Const", "attr": {"value": {"tensor": {"dtype": "DT_FLOAT", "tensorShape": {"dim": [{"size": "3"}, {"size": "3"}, {"size": "1"}, {"size": "1"}]}}}, "dtype": {"type": "DT_FLOAT"}}}, {"name": "model_190/tf.nn.convolution_1911/convolution/filter", "op": "Const", "attr": {"value": {"tensor": {"dtype": "DT_FLOAT", "tensorShape": {"dim": [{"size": "3"}, {"size": "3"}, {"size": "1"}, {"size": "1"}]}}}, "dtype": {"type": "DT_FLOAT"}}}, {"name": "model_190/tf.nn.convolution_1912/convolution/filter", "op": "Const", "attr": {"value": {"tensor": {"dtype": "DT_FLOAT", "tensorShape": {"dim": [{"size": "3"}, {"size": "3"}, {"size": "1"}, {"size": "1"}]}}}, "dtype": {"type": "DT_FLOAT"}}}, {"name": "model_190/tf.nn.convolution_1913/convolution/filter", "op": "Const", "attr": {"value": {"tensor": {"dtype": "DT_FLOAT", "tensorShape": {"dim": [{"size": "3"}, {"size": "3"}, {"size": "1"}, {"size": "1"}]}}}, "dtype": {"type": "DT_FLOAT"}}}, {"name": "model_190/tf.nn.convolution_1914/convolution/filter", "op": "Const", "attr": {"value": {"tensor": {"dtype": "DT_FLOAT", "tensorShape": {"dim": [{"size": "3"}, {"size": "3"}, {"size": "1"}, {"size": "1"}]}}}, "dtype": {"type": "DT_FLOAT"}}}, {"name": "model_190/tf.nn.convolution_1915/convolution/filter", "op": "Const", "attr": {"value": {"tensor": {"dtype": "DT_FLOAT", "tensorShape": {"dim": [{"size": "3"}, {"size": "3"}, {"size": "1"}, {"size": "1"}]}}}, "dtype": {"type": "DT_FLOAT"}}}, {"name": "model_190/tf.nn.convolution_1916/convolution/filter", "op": "Const", "attr": {"value": {"tensor": {"dtype": "DT_FLOAT", "tensorShape": {"dim": [{"size": "3"}, {"size": "3"}, {"size": "1"}, {"size": "1"}]}}}, "dtype": {"type": "DT_FLOAT"}}}, {"name": "model_190/tf.nn.convolution_1917/convolution/filter", "op": "Const", "attr": {"value": {"tensor": {"dtype": "DT_FLOAT", "tensorShape": {"dim": [{"size": "3"}, {"size": "3"}, {"size": "1"}, {"size": "1"}]}}}, "dtype": {"type": "DT_FLOAT"}}}, {"name": "model_190/tf.nn.convolution_1918/convolution/filter", "op": "Const", "attr": {"value": {"tensor": {"dtype": "DT_FLOAT", "tensorShape": {"dim": [{"size": "3"}, {"size": "3"}, {"size": "1"}, {"size": "1"}]}}}, "dtype": {"type": "DT_FLOAT"}}}, {"name": "model_190/tf.nn.convolution_1919/convolution/filter", "op": "Const", "attr": {"value": {"tensor": {"dtype": "DT_FLOAT", "tensorShape": {"dim": [{"size": "3"}, {"size": "3"}, {"size": "1"}, {"size": "1"}]}}}, "dtype": {"type": "DT_FLOAT"}}}, {"name": "model_190/tf.nn.convolution_1920/convolution/filter", "op": "Const", "attr": {"value": {"tensor": {"dtype": "DT_FLOAT", "tensorShape": {"dim": [{"size": "3"}, {"size": "3"}, {"size": "1"}, {"size": "1"}]}}}, "dtype": {"type": "DT_FLOAT"}}}, {"name": "model_190/tf.nn.convolution_1921/convolution/filter", "op": "Const", "attr": {"value": {"tensor": {"dtype": "DT_FLOAT", "tensorShape": {"dim": [{"size": "3"}, {"size": "3"}, {"size": "1"}, {"size": "1"}]}}}, "dtype": {"type": "DT_FLOAT"}}}, {"name": "model_190/tf.nn.convolution_1922/convolution/filter", "op": "Const", "attr": {"value": {"tensor": {"dtype": "DT_FLOAT", "tensorShape": {"dim": [{"size": "3"}, {"size": "3"}, {"size": "1"}, {"size": "1"}]}}}, "dtype": {"type": "DT_FLOAT"}}}, {"name": "model_190/tf.nn.convolution_1923/convolution/filter", "op": "Const", "attr": {"value": {"tensor": {"dtype": "DT_FLOAT", "tensorShape": {"dim": [{"size": "3"}, {"size": "3"}, {"size": "1"}, {"size": "1"}]}}}, "dtype": {"type": "DT_FLOAT"}}}, {"name": "model_190/tf.nn.convolution_1924/convolution/filter", "op": "Const", "attr": {"value": {"tensor": {"dtype": "DT_FLOAT", "tensorShape": {"dim": [{"size": "3"}, {"size": "3"}, {"size": "1"}, {"size": "1"}]}}}, "dtype": {"type": "DT_FLOAT"}}}, {"name": "model_190/tf.nn.convolution_1925/convolution/filter", "op": "Const", "attr": {"value": {"tensor": {"dtype": "DT_FLOAT", "tensorShape": {"dim": [{"size": "3"}, {"size": "3"}, {"size": "1"}, {"size": "1"}]}}}, "dtype": {"type": "DT_FLOAT"}}}, {"name": "model_190/tf.nn.convolution_1926/convolution/filter", "op": "Const", "attr": {"value": {"tensor": {"dtype": "DT_FLOAT", "tensorShape": {"dim": [{"size": "3"}, {"size": "3"}, {"size": "1"}, {"size": "1"}]}}}, "dtype": {"type": "DT_FLOAT"}}}, {"name": "model_190/tf.nn.convolution_1927/convolution/filter", "op": "Const", "attr": {"value": {"tensor": {"dtype": "DT_FLOAT", "tensorShape": {"dim": [{"size": "3"}, {"size": "3"}, {"size": "1"}, {"size": "1"}]}}}, "dtype": {"type": "DT_FLOAT"}}}, {"name": "model_190/tf.nn.convolution_1928/convolution/filter", "op": "Const", "attr": {"value": {"tensor": {"dtype": "DT_FLOAT", "tensorShape": {"dim": [{"size": "3"}, {"size": "3"}, {"size": "1"}, {"size": "1"}]}}}, "dtype": {"type": "DT_FLOAT"}}}, {"name": "model_190/tf.nn.convolution_1929/convolution/filter", "op": "Const", "attr": {"value": {"tensor": {"dtype": "DT_FLOAT", "tensorShape": {"dim": [{"size": "3"}, {"size": "3"}, {"size": "1"}, {"size": "1"}]}}}, "dtype": {"type": "DT_FLOAT"}}}, {"name": "model_190/tf.nn.convolution_1930/convolution/filter", "op": "Const", "attr": {"value": {"tensor": {"dtype": "DT_FLOAT", "tensorShape": {"dim": [{"size": "3"}, {"size": "3"}, {"size": "1"}, {"size": "1"}]}}}, "dtype": {"type": "DT_FLOAT"}}}, {"name": "model_190/tf.nn.convolution_1931/convolution/filter", "op": "Const", "attr": {"value": {"tensor": {"dtype": "DT_FLOAT", "tensorShape": {"dim": [{"size": "3"}, {"size": "3"}, {"size": "1"}, {"size": "1"}]}}}, "dtype": {"type": "DT_FLOAT"}}}, {"name": "model_190/tf.nn.convolution_1932/convolution/filter", "op": "Const", "attr": {"value": {"tensor": {"dtype": "DT_FLOAT", "tensorShape": {"dim": [{"size": "3"}, {"size": "3"}, {"size": "1"}, {"size": "1"}]}}}, "dtype": {"type": "DT_FLOAT"}}}, {"name": "model_190/tf.nn.convolution_1933/convolution/filter", "op": "Const", "attr": {"value": {"tensor": {"dtype": "DT_FLOAT", "tensorShape": {"dim": [{"size": "3"}, {"size": "3"}, {"size": "1"}, {"size": "1"}]}}}, "dtype": {"type": "DT_FLOAT"}}}, {"name": "model_190/tf.nn.convolution_1934/convolution/filter", "op": "Const", "attr": {"value": {"tensor": {"dtype": "DT_FLOAT", "tensorShape": {"dim": [{"size": "3"}, {"size": "3"}, {"size": "1"}, {"size": "1"}]}}}, "dtype": {"type": "DT_FLOAT"}}}, {"name": "model_190/tf.nn.convolution_1935/convolution/filter", "op": "Const", "attr": {"value": {"tensor": {"dtype": "DT_FLOAT", "tensorShape": {"dim": [{"size": "3"}, {"size": "3"}, {"size": "1"}, {"size": "1"}]}}}, "dtype": {"type": "DT_FLOAT"}}}, {"name": "model_190/tf.nn.convolution_1936/convolution/filter", "op": "Const", "attr": {"value": {"tensor": {"dtype": "DT_FLOAT", "tensorShape": {"dim": [{"size": "3"}, {"size": "3"}, {"size": "1"}, {"size": "1"}]}}}, "dtype": {"type": "DT_FLOAT"}}}, {"name": "model_190/tf.nn.convolution_1937/convolution/filter", "op": "Const", "attr": {"value": {"tensor": {"dtype": "DT_FLOAT", "tensorShape": {"dim": [{"size": "3"}, {"size": "3"}, {"size": "1"}, {"size": "1"}]}}}, "dtype": {"type": "DT_FLOAT"}}}, {"name": "model_190/tf.nn.convolution_1938/convolution/filter", "op": "Const", "attr": {"value": {"tensor": {"dtype": "DT_FLOAT", "tensorShape": {"dim": [{"size": "3"}, {"size": "3"}, {"size": "1"}, {"size": "1"}]}}}, "dtype": {"type": "DT_FLOAT"}}}, {"name": "model_190/tf.nn.convolution_1939/convolution/filter", "op": "Const", "attr": {"value": {"tensor": {"dtype": "DT_FLOAT", "tensorShape": {"dim": [{"size": "3"}, {"size": "3"}, {"size": "1"}, {"size": "1"}]}}}, "dtype": {"type": "DT_FLOAT"}}}, {"name": "model_190/tf.nn.convolution_1940/convolution/filter", "op": "Const", "attr": {"value": {"tensor": {"dtype": "DT_FLOAT", "tensorShape": {"dim": [{"size": "3"}, {"size": "3"}, {"size": "1"}, {"size": "1"}]}}}, "dtype": {"type": "DT_FLOAT"}}}, {"name": "model_190/tf.nn.convolution_1941/convolution/filter", "op": "Const", "attr": {"value": {"tensor": {"dtype": "DT_FLOAT", "tensorShape": {"dim": [{"size": "3"}, {"size": "3"}, {"size": "1"}, {"size": "1"}]}}}, "dtype": {"type": "DT_FLOAT"}}}, {"name": "model_190/tf.nn.convolution_1942/convolution/filter", "op": "Const", "attr": {"value": {"tensor": {"dtype": "DT_FLOAT", "tensorShape": {"dim": [{"size": "3"}, {"size": "3"}, {"size": "1"}, {"size": "1"}]}}}, "dtype": {"type": "DT_FLOAT"}}}, {"name": "model_190/tf.nn.convolution_1943/convolution/filter", "op": "Const", "attr": {"value": {"tensor": {"dtype": "DT_FLOAT", "tensorShape": {"dim": [{"size": "3"}, {"size": "3"}, {"size": "1"}, {"size": "1"}]}}}, "dtype": {"type": "DT_FLOAT"}}}, {"name": "model_190/tf.nn.convolution_1944/convolution/filter", "op": "Const", "attr": {"value": {"tensor": {"dtype": "DT_FLOAT", "tensorShape": {"dim": [{"size": "3"}, {"size": "3"}, {"size": "1"}, {"size": "1"}]}}}, "dtype": {"type": "DT_FLOAT"}}}, {"name": "model_190/tf.nn.convolution_1945/convolution/filter", "op": "Const", "attr": {"value": {"tensor": {"dtype": "DT_FLOAT", "tensorShape": {"dim": [{"size": "3"}, {"size": "3"}, {"size": "1"}, {"size": "1"}]}}}, "dtype": {"type": "DT_FLOAT"}}}, {"name": "model_190/tf.nn.convolution_1946/convolution/filter", "op": "Const", "attr": {"value": {"tensor": {"dtype": "DT_FLOAT", "tensorShape": {"dim": [{"size": "3"}, {"size": "3"}, {"size": "1"}, {"size": "1"}]}}}, "dtype": {"type": "DT_FLOAT"}}}, {"name": "model_190/tf.nn.convolution_1947/convolution/filter", "op": "Const", "attr": {"value": {"tensor": {"dtype": "DT_FLOAT", "tensorShape": {"dim": [{"size": "3"}, {"size": "3"}, {"size": "1"}, {"size": "1"}]}}}, "dtype": {"type": "DT_FLOAT"}}}, {"name": "model_190/tf.nn.convolution_1948/convolution/filter", "op": "Const", "attr": {"value": {"tensor": {"dtype": "DT_FLOAT", "tensorShape": {"dim": [{"size": "3"}, {"size": "3"}, {"size": "1"}, {"size": "1"}]}}}, "dtype": {"type": "DT_FLOAT"}}}, {"name": "model_190/tf.nn.convolution_1949/convolution/filter", "op": "Const", "attr": {"value": {"tensor": {"dtype": "DT_FLOAT", "tensorShape": {"dim": [{"size": "3"}, {"size": "3"}, {"size": "1"}, {"size": "1"}]}}}, "dtype": {"type": "DT_FLOAT"}}}, {"name": "model_190/tf.nn.convolution_1950/convolution/filter", "op": "Const", "attr": {"value": {"tensor": {"dtype": "DT_FLOAT", "tensorShape": {"dim": [{"size": "3"}, {"size": "3"}, {"size": "1"}, {"size": "1"}]}}}, "dtype": {"type": "DT_FLOAT"}}}, {"name": "model_190/tf.nn.convolution_1951/convolution/filter", "op": "Const", "attr": {"value": {"tensor": {"dtype": "DT_FLOAT", "tensorShape": {"dim": [{"size": "3"}, {"size": "3"}, {"size": "1"}, {"size": "1"}]}}}, "dtype": {"type": "DT_FLOAT"}}}, {"name": "model_190/tf.nn.convolution_1952/convolution/filter", "op": "Const", "attr": {"value": {"tensor": {"dtype": "DT_FLOAT", "tensorShape": {"dim": [{"size": "3"}, {"size": "3"}, {"size": "1"}, {"size": "1"}]}}}, "dtype": {"type": "DT_FLOAT"}}}, {"name": "model_190/tf.nn.convolution_1953/convolution/filter", "op": "Const", "attr": {"value": {"tensor": {"dtype": "DT_FLOAT", "tensorShape": {"dim": [{"size": "3"}, {"size": "3"}, {"size": "1"}, {"size": "1"}]}}}, "dtype": {"type": "DT_FLOAT"}}}, {"name": "model_190/tf.nn.convolution_1954/convolution/filter", "op": "Const", "attr": {"value": {"tensor": {"dtype": "DT_FLOAT", "tensorShape": {"dim": [{"size": "3"}, {"size": "3"}, {"size": "1"}, {"size": "1"}]}}}, "dtype": {"type": "DT_FLOAT"}}}, {"name": "model_190/tf.nn.convolution_1955/convolution/filter", "op": "Const", "attr": {"value": {"tensor": {"dtype": "DT_FLOAT", "tensorShape": {"dim": [{"size": "3"}, {"size": "3"}, {"size": "1"}, {"size": "1"}]}}}, "dtype": {"type": "DT_FLOAT"}}}, {"name": "model_190/tf.nn.convolution_1956/convolution/filter", "op": "Const", "attr": {"value": {"tensor": {"dtype": "DT_FLOAT", "tensorShape": {"dim": [{"size": "3"}, {"size": "3"}, {"size": "1"}, {"size": "1"}]}}}, "dtype": {"type": "DT_FLOAT"}}}, {"name": "model_190/tf.nn.convolution_1957/convolution/filter", "op": "Const", "attr": {"value": {"tensor": {"dtype": "DT_FLOAT", "tensorShape": {"dim": [{"size": "3"}, {"size": "3"}, {"size": "1"}, {"size": "1"}]}}}, "dtype": {"type": "DT_FLOAT"}}}, {"name": "model_190/tf.nn.convolution_1958/convolution/filter", "op": "Const", "attr": {"value": {"tensor": {"dtype": "DT_FLOAT", "tensorShape": {"dim": [{"size": "3"}, {"size": "3"}, {"size": "1"}, {"size": "1"}]}}}, "dtype": {"type": "DT_FLOAT"}}}, {"name": "model_190/tf.nn.convolution_1959/convolution/filter", "op": "Const", "attr": {"value": {"tensor": {"dtype": "DT_FLOAT", "tensorShape": {"dim": [{"size": "3"}, {"size": "3"}, {"size": "1"}, {"size": "1"}]}}}, "dtype": {"type": "DT_FLOAT"}}}, {"name": "model_190/tf.nn.convolution_1960/convolution/filter", "op": "Const", "attr": {"value": {"tensor": {"dtype": "DT_FLOAT", "tensorShape": {"dim": [{"size": "3"}, {"size": "3"}, {"size": "1"}, {"size": "1"}]}}}, "dtype": {"type": "DT_FLOAT"}}}, {"name": "model_190/tf.nn.convolution_1961/convolution/filter", "op": "Const", "attr": {"value": {"tensor": {"dtype": "DT_FLOAT", "tensorShape": {"dim": [{"size": "3"}, {"size": "3"}, {"size": "1"}, {"size": "1"}]}}}, "dtype": {"type": "DT_FLOAT"}}}, {"name": "model_190/tf.nn.convolution_1962/convolution/filter", "op": "Const", "attr": {"value": {"tensor": {"dtype": "DT_FLOAT", "tensorShape": {"dim": [{"size": "3"}, {"size": "3"}, {"size": "1"}, {"size": "1"}]}}}, "dtype": {"type": "DT_FLOAT"}}}, {"name": "model_190/tf.nn.convolution_1963/convolution/filter", "op": "Const", "attr": {"value": {"tensor": {"dtype": "DT_FLOAT", "tensorShape": {"dim": [{"size": "3"}, {"size": "3"}, {"size": "1"}, {"size": "1"}]}}}, "dtype": {"type": "DT_FLOAT"}}}, {"name": "model_190/tf.nn.convolution_1964/convolution/filter", "op": "Const", "attr": {"value": {"tensor": {"dtype": "DT_FLOAT", "tensorShape": {"dim": [{"size": "3"}, {"size": "3"}, {"size": "1"}, {"size": "1"}]}}}, "dtype": {"type": "DT_FLOAT"}}}, {"name": "model_190/tf.nn.convolution_1965/convolution/filter", "op": "Const", "attr": {"value": {"tensor": {"dtype": "DT_FLOAT", "tensorShape": {"dim": [{"size": "3"}, {"size": "3"}, {"size": "1"}, {"size": "1"}]}}}, "dtype": {"type": "DT_FLOAT"}}}, {"name": "model_190/tf.nn.convolution_1966/convolution/filter", "op": "Const", "attr": {"value": {"tensor": {"dtype": "DT_FLOAT", "tensorShape": {"dim": [{"size": "3"}, {"size": "3"}, {"size": "1"}, {"size": "1"}]}}}, "dtype": {"type": "DT_FLOAT"}}}, {"name": "model_190/tf.nn.convolution_1967/convolution/filter", "op": "Const", "attr": {"value": {"tensor": {"dtype": "DT_FLOAT", "tensorShape": {"dim": [{"size": "3"}, {"size": "3"}, {"size": "1"}, {"size": "1"}]}}}, "dtype": {"type": "DT_FLOAT"}}}, {"name": "model_190/tf.nn.convolution_1968/convolution/filter", "op": "Const", "attr": {"value": {"tensor": {"dtype": "DT_FLOAT", "tensorShape": {"dim": [{"size": "3"}, {"size": "3"}, {"size": "1"}, {"size": "1"}]}}}, "dtype": {"type": "DT_FLOAT"}}}, {"name": "model_190/tf.nn.convolution_1969/convolution/filter", "op": "Const", "attr": {"value": {"tensor": {"dtype": "DT_FLOAT", "tensorShape": {"dim": [{"size": "3"}, {"size": "3"}, {"size": "1"}, {"size": "1"}]}}}, "dtype": {"type": "DT_FLOAT"}}}, {"name": "model_190/tf.nn.convolution_1970/convolution/filter", "op": "Const", "attr": {"value": {"tensor": {"dtype": "DT_FLOAT", "tensorShape": {"dim": [{"size": "3"}, {"size": "3"}, {"size": "1"}, {"size": "1"}]}}}, "dtype": {"type": "DT_FLOAT"}}}, {"name": "model_190/tf.nn.convolution_1971/convolution/filter", "op": "Const", "attr": {"value": {"tensor": {"dtype": "DT_FLOAT", "tensorShape": {"dim": [{"size": "3"}, {"size": "3"}, {"size": "1"}, {"size": "1"}]}}}, "dtype": {"type": "DT_FLOAT"}}}, {"name": "model_190/tf.nn.convolution_1972/convolution/filter", "op": "Const", "attr": {"value": {"tensor": {"dtype": "DT_FLOAT", "tensorShape": {"dim": [{"size": "3"}, {"size": "3"}, {"size": "1"}, {"size": "1"}]}}}, "dtype": {"type": "DT_FLOAT"}}}, {"name": "model_190/tf.nn.convolution_1973/convolution/filter", "op": "Const", "attr": {"value": {"tensor": {"dtype": "DT_FLOAT", "tensorShape": {"dim": [{"size": "3"}, {"size": "3"}, {"size": "1"}, {"size": "1"}]}}}, "dtype": {"type": "DT_FLOAT"}}}, {"name": "model_190/tf.nn.convolution_1974/convolution/filter", "op": "Const", "attr": {"value": {"tensor": {"dtype": "DT_FLOAT", "tensorShape": {"dim": [{"size": "3"}, {"size": "3"}, {"size": "1"}, {"size": "1"}]}}}, "dtype": {"type": "DT_FLOAT"}}}, {"name": "model_190/tf.nn.convolution_1975/convolution/filter", "op": "Const", "attr": {"value": {"tensor": {"dtype": "DT_FLOAT", "tensorShape": {"dim": [{"size": "3"}, {"size": "3"}, {"size": "1"}, {"size": "1"}]}}}, "dtype": {"type": "DT_FLOAT"}}}, {"name": "model_190/tf.nn.convolution_1976/convolution/filter", "op": "Const", "attr": {"value": {"tensor": {"dtype": "DT_FLOAT", "tensorShape": {"dim": [{"size": "3"}, {"size": "3"}, {"size": "1"}, {"size": "1"}]}}}, "dtype": {"type": "DT_FLOAT"}}}, {"name": "model_190/tf.nn.convolution_1977/convolution/filter", "op": "Const", "attr": {"value": {"tensor": {"dtype": "DT_FLOAT", "tensorShape": {"dim": [{"size": "3"}, {"size": "3"}, {"size": "1"}, {"size": "1"}]}}}, "dtype": {"type": "DT_FLOAT"}}}, {"name": "model_190/tf.nn.convolution_1978/convolution/filter", "op": "Const", "attr": {"value": {"tensor": {"dtype": "DT_FLOAT", "tensorShape": {"dim": [{"size": "3"}, {"size": "3"}, {"size": "1"}, {"size": "1"}]}}}, "dtype": {"type": "DT_FLOAT"}}}, {"name": "model_190/tf.nn.convolution_1979/convolution/filter", "op": "Const", "attr": {"value": {"tensor": {"dtype": "DT_FLOAT", "tensorShape": {"dim": [{"size": "3"}, {"size": "3"}, {"size": "1"}, {"size": "1"}]}}}, "dtype": {"type": "DT_FLOAT"}}}, {"name": "model_190/tf.nn.convolution_1980/convolution/filter", "op": "Const", "attr": {"value": {"tensor": {"dtype": "DT_FLOAT", "tensorShape": {"dim": [{"size": "3"}, {"size": "3"}, {"size": "1"}, {"size": "1"}]}}}, "dtype": {"type": "DT_FLOAT"}}}, {"name": "model_190/tf.nn.convolution_1981/convolution/filter", "op": "Const", "attr": {"value": {"tensor": {"dtype": "DT_FLOAT", "tensorShape": {"dim": [{"size": "3"}, {"size": "3"}, {"size": "1"}, {"size": "1"}]}}}, "dtype": {"type": "DT_FLOAT"}}}, {"name": "model_190/tf.nn.convolution_1982/convolution/filter", "op": "Const", "attr": {"value": {"tensor": {"dtype": "DT_FLOAT", "tensorShape": {"dim": [{"size": "3"}, {"size": "3"}, {"size": "1"}, {"size": "1"}]}}}, "dtype": {"type": "DT_FLOAT"}}}, {"name": "model_190/tf.nn.convolution_1983/convolution/filter", "op": "Const", "attr": {"value": {"tensor": {"dtype": "DT_FLOAT", "tensorShape": {"dim": [{"size": "3"}, {"size": "3"}, {"size": "1"}, {"size": "1"}]}}}, "dtype": {"type": "DT_FLOAT"}}}, {"name": "model_190/tf.nn.convolution_1984/convolution/filter", "op": "Const", "attr": {"value": {"tensor": {"dtype": "DT_FLOAT", "tensorShape": {"dim": [{"size": "3"}, {"size": "3"}, {"size": "1"}, {"size": "1"}]}}}, "dtype": {"type": "DT_FLOAT"}}}, {"name": "model_190/tf.nn.convolution_1985/convolution/filter", "op": "Const", "attr": {"value": {"tensor": {"dtype": "DT_FLOAT", "tensorShape": {"dim": [{"size": "3"}, {"size": "3"}, {"size": "1"}, {"size": "1"}]}}}, "dtype": {"type": "DT_FLOAT"}}}, {"name": "model_190/tf.nn.convolution_1986/convolution/filter", "op": "Const", "attr": {"value": {"tensor": {"dtype": "DT_FLOAT", "tensorShape": {"dim": [{"size": "3"}, {"size": "3"}, {"size": "1"}, {"size": "1"}]}}}, "dtype": {"type": "DT_FLOAT"}}}, {"name": "model_190/tf.nn.convolution_1987/convolution/filter", "op": "Const", "attr": {"value": {"tensor": {"dtype": "DT_FLOAT", "tensorShape": {"dim": [{"size": "3"}, {"size": "3"}, {"size": "1"}, {"size": "1"}]}}}, "dtype": {"type": "DT_FLOAT"}}}, {"name": "model_190/tf.nn.convolution_1988/convolution/filter", "op": "Const", "attr": {"value": {"tensor": {"dtype": "DT_FLOAT", "tensorShape": {"dim": [{"size": "3"}, {"size": "3"}, {"size": "1"}, {"size": "1"}]}}}, "dtype": {"type": "DT_FLOAT"}}}, {"name": "model_190/tf.nn.convolution_1989/convolution/filter", "op": "Const", "attr": {"value": {"tensor": {"dtype": "DT_FLOAT", "tensorShape": {"dim": [{"size": "3"}, {"size": "3"}, {"size": "1"}, {"size": "1"}]}}}, "dtype": {"type": "DT_FLOAT"}}}, {"name": "model_190/tf.nn.convolution_1990/convolution/filter", "op": "Const", "attr": {"value": {"tensor": {"dtype": "DT_FLOAT", "tensorShape": {"dim": [{"size": "3"}, {"size": "3"}, {"size": "1"}, {"size": "1"}]}}}, "dtype": {"type": "DT_FLOAT"}}}, {"name": "model_190/tf.nn.convolution_1991/convolution/filter", "op": "Const", "attr": {"value": {"tensor": {"dtype": "DT_FLOAT", "tensorShape": {"dim": [{"size": "3"}, {"size": "3"}, {"size": "1"}, {"size": "1"}]}}}, "dtype": {"type": "DT_FLOAT"}}}, {"name": "model_190/tf.nn.convolution_1992/convolution/filter", "op": "Const", "attr": {"value": {"tensor": {"dtype": "DT_FLOAT", "tensorShape": {"dim": [{"size": "3"}, {"size": "3"}, {"size": "1"}, {"size": "1"}]}}}, "dtype": {"type": "DT_FLOAT"}}}, {"name": "model_190/tf.nn.convolution_1993/convolution/filter", "op": "Const", "attr": {"value": {"tensor": {"dtype": "DT_FLOAT", "tensorShape": {"dim": [{"size": "3"}, {"size": "3"}, {"size": "1"}, {"size": "1"}]}}}, "dtype": {"type": "DT_FLOAT"}}}, {"name": "model_190/tf.nn.convolution_1994/convolution/filter", "op": "Const", "attr": {"value": {"tensor": {"dtype": "DT_FLOAT", "tensorShape": {"dim": [{"size": "3"}, {"size": "3"}, {"size": "1"}, {"size": "1"}]}}}, "dtype": {"type": "DT_FLOAT"}}}, {"name": "model_190/tf.nn.convolution_1995/convolution/filter", "op": "Const", "attr": {"value": {"tensor": {"dtype": "DT_FLOAT", "tensorShape": {"dim": [{"size": "3"}, {"size": "3"}, {"size": "1"}, {"size": "1"}]}}}, "dtype": {"type": "DT_FLOAT"}}}, {"name": "model_190/tf.nn.convolution_1996/convolution/filter", "op": "Const", "attr": {"value": {"tensor": {"dtype": "DT_FLOAT", "tensorShape": {"dim": [{"size": "3"}, {"size": "3"}, {"size": "1"}, {"size": "1"}]}}}, "dtype": {"type": "DT_FLOAT"}}}, {"name": "model_190/tf.nn.convolution_1997/convolution/filter", "op": "Const", "attr": {"value": {"tensor": {"dtype": "DT_FLOAT", "tensorShape": {"dim": [{"size": "3"}, {"size": "3"}, {"size": "1"}, {"size": "1"}]}}}, "dtype": {"type": "DT_FLOAT"}}}, {"name": "model_190/tf.nn.convolution_1998/convolution/filter", "op": "Const", "attr": {"value": {"tensor": {"dtype": "DT_FLOAT", "tensorShape": {"dim": [{"size": "3"}, {"size": "3"}, {"size": "1"}, {"size": "1"}]}}}, "dtype": {"type": "DT_FLOAT"}}}, {"name": "model_190/tf.nn.convolution_1999/convolution/filter", "op": "Const", "attr": {"value": {"tensor": {"dtype": "DT_FLOAT", "tensorShape": {"dim": [{"size": "3"}, {"size": "3"}, {"size": "1"}, {"size": "1"}]}}}, "dtype": {"type": "DT_FLOAT"}}}, {"name": "model_190/tf.nn.convolution_2000/convolution/filter", "op": "Const", "attr": {"value": {"tensor": {"dtype": "DT_FLOAT", "tensorShape": {"dim": [{"size": "3"}, {"size": "3"}, {"size": "1"}, {"size": "1"}]}}}, "dtype": {"type": "DT_FLOAT"}}}, {"name": "model_190/tf.nn.convolution_2001/convolution/filter", "op": "Const", "attr": {"value": {"tensor": {"dtype": "DT_FLOAT", "tensorShape": {"dim": [{"size": "3"}, {"size": "3"}, {"size": "1"}, {"size": "1"}]}}}, "dtype": {"type": "DT_FLOAT"}}}, {"name": "model_190/tf.nn.convolution_2002/convolution/filter", "op": "Const", "attr": {"value": {"tensor": {"dtype": "DT_FLOAT", "tensorShape": {"dim": [{"size": "3"}, {"size": "3"}, {"size": "1"}, {"size": "1"}]}}}, "dtype": {"type": "DT_FLOAT"}}}, {"name": "model_190/tf.nn.convolution_2003/convolution/filter", "op": "Const", "attr": {"value": {"tensor": {"dtype": "DT_FLOAT", "tensorShape": {"dim": [{"size": "3"}, {"size": "3"}, {"size": "1"}, {"size": "1"}]}}}, "dtype": {"type": "DT_FLOAT"}}}, {"name": "model_190/tf.nn.convolution_2004/convolution/filter", "op": "Const", "attr": {"value": {"tensor": {"dtype": "DT_FLOAT", "tensorShape": {"dim": [{"size": "3"}, {"size": "3"}, {"size": "1"}, {"size": "1"}]}}}, "dtype": {"type": "DT_FLOAT"}}}, {"name": "model_190/tf.nn.convolution_2005/convolution/filter", "op": "Const", "attr": {"value": {"tensor": {"dtype": "DT_FLOAT", "tensorShape": {"dim": [{"size": "3"}, {"size": "3"}, {"size": "1"}, {"size": "1"}]}}}, "dtype": {"type": "DT_FLOAT"}}}, {"name": "model_190/tf.nn.convolution_2006/convolution/filter", "op": "Const", "attr": {"value": {"tensor": {"dtype": "DT_FLOAT", "tensorShape": {"dim": [{"size": "3"}, {"size": "3"}, {"size": "1"}, {"size": "1"}]}}}, "dtype": {"type": "DT_FLOAT"}}}, {"name": "model_190/tf.nn.convolution_2007/convolution/filter", "op": "Const", "attr": {"value": {"tensor": {"dtype": "DT_FLOAT", "tensorShape": {"dim": [{"size": "3"}, {"size": "3"}, {"size": "1"}, {"size": "1"}]}}}, "dtype": {"type": "DT_FLOAT"}}}, {"name": "model_190/tf.nn.convolution_2008/convolution/filter", "op": "Const", "attr": {"value": {"tensor": {"dtype": "DT_FLOAT", "tensorShape": {"dim": [{"size": "3"}, {"size": "3"}, {"size": "1"}, {"size": "1"}]}}}, "dtype": {"type": "DT_FLOAT"}}}, {"name": "model_190/tf.nn.convolution_2009/convolution/filter", "op": "Const", "attr": {"value": {"tensor": {"dtype": "DT_FLOAT", "tensorShape": {"dim": [{"size": "3"}, {"size": "3"}, {"size": "1"}, {"size": "1"}]}}}, "dtype": {"type": "DT_FLOAT"}}}, {"name": "model_190/tf.nn.convolution_2010/convolution/filter", "op": "Const", "attr": {"value": {"tensor": {"dtype": "DT_FLOAT", "tensorShape": {"dim": [{"size": "3"}, {"size": "3"}, {"size": "1"}, {"size": "1"}]}}}, "dtype": {"type": "DT_FLOAT"}}}, {"name": "model_190/tf.nn.convolution_2011/convolution/filter", "op": "Const", "attr": {"value": {"tensor": {"dtype": "DT_FLOAT", "tensorShape": {"dim": [{"size": "3"}, {"size": "3"}, {"size": "1"}, {"size": "1"}]}}}, "dtype": {"type": "DT_FLOAT"}}}, {"name": "model_190/tf.nn.convolution_2012/convolution/filter", "op": "Const", "attr": {"value": {"tensor": {"dtype": "DT_FLOAT", "tensorShape": {"dim": [{"size": "3"}, {"size": "3"}, {"size": "1"}, {"size": "1"}]}}}, "dtype": {"type": "DT_FLOAT"}}}, {"name": "model_190/tf.nn.convolution_2013/convolution/filter", "op": "Const", "attr": {"value": {"tensor": {"dtype": "DT_FLOAT", "tensorShape": {"dim": [{"size": "3"}, {"size": "3"}, {"size": "1"}, {"size": "1"}]}}}, "dtype": {"type": "DT_FLOAT"}}}, {"name": "model_190/tf.nn.convolution_2014/convolution/filter", "op": "Const", "attr": {"value": {"tensor": {"dtype": "DT_FLOAT", "tensorShape": {"dim": [{"size": "3"}, {"size": "3"}, {"size": "1"}, {"size": "1"}]}}}, "dtype": {"type": "DT_FLOAT"}}}, {"name": "model_190/tf.nn.convolution_2015/convolution/filter", "op": "Const", "attr": {"value": {"tensor": {"dtype": "DT_FLOAT", "tensorShape": {"dim": [{"size": "3"}, {"size": "3"}, {"size": "1"}, {"size": "1"}]}}}, "dtype": {"type": "DT_FLOAT"}}}, {"name": "model_190/tf.nn.convolution_2016/convolution/filter", "op": "Const", "attr": {"value": {"tensor": {"dtype": "DT_FLOAT", "tensorShape": {"dim": [{"size": "3"}, {"size": "3"}, {"size": "1"}, {"size": "1"}]}}}, "dtype": {"type": "DT_FLOAT"}}}, {"name": "model_190/tf.nn.convolution_2017/convolution/filter", "op": "Const", "attr": {"value": {"tensor": {"dtype": "DT_FLOAT", "tensorShape": {"dim": [{"size": "3"}, {"size": "3"}, {"size": "1"}, {"size": "1"}]}}}, "dtype": {"type": "DT_FLOAT"}}}, {"name": "model_190/tf.nn.convolution_2018/convolution/filter", "op": "Const", "attr": {"value": {"tensor": {"dtype": "DT_FLOAT", "tensorShape": {"dim": [{"size": "3"}, {"size": "3"}, {"size": "1"}, {"size": "1"}]}}}, "dtype": {"type": "DT_FLOAT"}}}, {"name": "model_190/tf.nn.convolution_2019/convolution/filter", "op": "Const", "attr": {"value": {"tensor": {"dtype": "DT_FLOAT", "tensorShape": {"dim": [{"size": "3"}, {"size": "3"}, {"size": "1"}, {"size": "1"}]}}}, "dtype": {"type": "DT_FLOAT"}}}, {"name": "model_190/tf.nn.convolution_2020/convolution/filter", "op": "Const", "attr": {"value": {"tensor": {"dtype": "DT_FLOAT", "tensorShape": {"dim": [{"size": "3"}, {"size": "3"}, {"size": "1"}, {"size": "1"}]}}}, "dtype": {"type": "DT_FLOAT"}}}, {"name": "model_190/tf.nn.convolution_2021/convolution/filter", "op": "Const", "attr": {"value": {"tensor": {"dtype": "DT_FLOAT", "tensorShape": {"dim": [{"size": "3"}, {"size": "3"}, {"size": "1"}, {"size": "1"}]}}}, "dtype": {"type": "DT_FLOAT"}}}, {"name": "model_190/tf.nn.convolution_2022/convolution/filter", "op": "Const", "attr": {"value": {"tensor": {"dtype": "DT_FLOAT", "tensorShape": {"dim": [{"size": "3"}, {"size": "3"}, {"size": "1"}, {"size": "1"}]}}}, "dtype": {"type": "DT_FLOAT"}}}, {"name": "model_190/tf.nn.convolution_2023/convolution/filter", "op": "Const", "attr": {"value": {"tensor": {"dtype": "DT_FLOAT", "tensorShape": {"dim": [{"size": "3"}, {"size": "3"}, {"size": "1"}, {"size": "1"}]}}}, "dtype": {"type": "DT_FLOAT"}}}, {"name": "model_190/tf.nn.convolution_2024/convolution/filter", "op": "Const", "attr": {"value": {"tensor": {"dtype": "DT_FLOAT", "tensorShape": {"dim": [{"size": "3"}, {"size": "3"}, {"size": "1"}, {"size": "1"}]}}}, "dtype": {"type": "DT_FLOAT"}}}, {"name": "model_190/tf.nn.convolution_2025/convolution/filter", "op": "Const", "attr": {"value": {"tensor": {"dtype": "DT_FLOAT", "tensorShape": {"dim": [{"size": "3"}, {"size": "3"}, {"size": "1"}, {"size": "1"}]}}}, "dtype": {"type": "DT_FLOAT"}}}, {"name": "model_190/tf.nn.convolution_2026/convolution/filter", "op": "Const", "attr": {"value": {"tensor": {"dtype": "DT_FLOAT", "tensorShape": {"dim": [{"size": "3"}, {"size": "3"}, {"size": "1"}, {"size": "1"}]}}}, "dtype": {"type": "DT_FLOAT"}}}, {"name": "model_190/tf.nn.convolution_2027/convolution/filter", "op": "Const", "attr": {"value": {"tensor": {"dtype": "DT_FLOAT", "tensorShape": {"dim": [{"size": "3"}, {"size": "3"}, {"size": "1"}, {"size": "1"}]}}}, "dtype": {"type": "DT_FLOAT"}}}, {"name": "model_190/tf.nn.convolution_2028/convolution/filter", "op": "Const", "attr": {"value": {"tensor": {"dtype": "DT_FLOAT", "tensorShape": {"dim": [{"size": "3"}, {"size": "3"}, {"size": "1"}, {"size": "1"}]}}}, "dtype": {"type": "DT_FLOAT"}}}, {"name": "model_190/tf.nn.convolution_2029/convolution/filter", "op": "Const", "attr": {"value": {"tensor": {"dtype": "DT_FLOAT", "tensorShape": {"dim": [{"size": "3"}, {"size": "3"}, {"size": "1"}, {"size": "1"}]}}}, "dtype": {"type": "DT_FLOAT"}}}, {"name": "model_190/tf.nn.convolution_2030/convolution/filter", "op": "Const", "attr": {"value": {"tensor": {"dtype": "DT_FLOAT", "tensorShape": {"dim": [{"size": "3"}, {"size": "3"}, {"size": "1"}, {"size": "1"}]}}}, "dtype": {"type": "DT_FLOAT"}}}, {"name": "model_190/tf.nn.convolution_2031/convolution/filter", "op": "Const", "attr": {"value": {"tensor": {"dtype": "DT_FLOAT", "tensorShape": {"dim": [{"size": "3"}, {"size": "3"}, {"size": "1"}, {"size": "1"}]}}}, "dtype": {"type": "DT_FLOAT"}}}, {"name": "model_190/tf.nn.convolution_2032/convolution/filter", "op": "Const", "attr": {"value": {"tensor": {"dtype": "DT_FLOAT", "tensorShape": {"dim": [{"size": "3"}, {"size": "3"}, {"size": "1"}, {"size": "1"}]}}}, "dtype": {"type": "DT_FLOAT"}}}, {"name": "model_190/tf.nn.convolution_2033/convolution/filter", "op": "Const", "attr": {"value": {"tensor": {"dtype": "DT_FLOAT", "tensorShape": {"dim": [{"size": "3"}, {"size": "3"}, {"size": "1"}, {"size": "1"}]}}}, "dtype": {"type": "DT_FLOAT"}}}, {"name": "model_190/tf.nn.convolution_2034/convolution/filter", "op": "Const", "attr": {"value": {"tensor": {"dtype": "DT_FLOAT", "tensorShape": {"dim": [{"size": "3"}, {"size": "3"}, {"size": "1"}, {"size": "1"}]}}}, "dtype": {"type": "DT_FLOAT"}}}, {"name": "model_190/tf.nn.convolution_2035/convolution/filter", "op": "Const", "attr": {"value": {"tensor": {"dtype": "DT_FLOAT", "tensorShape": {"dim": [{"size": "3"}, {"size": "3"}, {"size": "1"}, {"size": "1"}]}}}, "dtype": {"type": "DT_FLOAT"}}}, {"name": "model_190/tf.nn.convolution_2036/convolution/filter", "op": "Const", "attr": {"value": {"tensor": {"dtype": "DT_FLOAT", "tensorShape": {"dim": [{"size": "3"}, {"size": "3"}, {"size": "1"}, {"size": "1"}]}}}, "dtype": {"type": "DT_FLOAT"}}}, {"name": "model_190/tf.nn.convolution_2037/convolution/filter", "op": "Const", "attr": {"value": {"tensor": {"dtype": "DT_FLOAT", "tensorShape": {"dim": [{"size": "3"}, {"size": "3"}, {"size": "1"}, {"size": "1"}]}}}, "dtype": {"type": "DT_FLOAT"}}}, {"name": "model_190/tf.nn.convolution_2038/convolution/filter", "op": "Const", "attr": {"value": {"tensor": {"dtype": "DT_FLOAT", "tensorShape": {"dim": [{"size": "3"}, {"size": "3"}, {"size": "1"}, {"size": "1"}]}}}, "dtype": {"type": "DT_FLOAT"}}}, {"name": "model_190/tf.nn.convolution_2039/convolution/filter", "op": "Const", "attr": {"value": {"tensor": {"dtype": "DT_FLOAT", "tensorShape": {"dim": [{"size": "3"}, {"size": "3"}, {"size": "1"}, {"size": "1"}]}}}, "dtype": {"type": "DT_FLOAT"}}}, {"name": "model_190/tf.nn.convolution_2040/convolution/filter", "op": "Const", "attr": {"value": {"tensor": {"dtype": "DT_FLOAT", "tensorShape": {"dim": [{"size": "3"}, {"size": "3"}, {"size": "1"}, {"size": "1"}]}}}, "dtype": {"type": "DT_FLOAT"}}}, {"name": "model_190/tf.nn.convolution_2041/convolution/filter", "op": "Const", "attr": {"value": {"tensor": {"dtype": "DT_FLOAT", "tensorShape": {"dim": [{"size": "3"}, {"size": "3"}, {"size": "1"}, {"size": "1"}]}}}, "dtype": {"type": "DT_FLOAT"}}}, {"name": "model_190/tf.nn.convolution_2042/convolution/filter", "op": "Const", "attr": {"value": {"tensor": {"dtype": "DT_FLOAT", "tensorShape": {"dim": [{"size": "3"}, {"size": "3"}, {"size": "1"}, {"size": "1"}]}}}, "dtype": {"type": "DT_FLOAT"}}}, {"name": "model_190/tf.nn.convolution_2043/convolution/filter", "op": "Const", "attr": {"value": {"tensor": {"dtype": "DT_FLOAT", "tensorShape": {"dim": [{"size": "3"}, {"size": "3"}, {"size": "1"}, {"size": "1"}]}}}, "dtype": {"type": "DT_FLOAT"}}}, {"name": "model_190/tf.nn.convolution_2044/convolution/filter", "op": "Const", "attr": {"value": {"tensor": {"dtype": "DT_FLOAT", "tensorShape": {"dim": [{"size": "3"}, {"size": "3"}, {"size": "1"}, {"size": "1"}]}}}, "dtype": {"type": "DT_FLOAT"}}}, {"name": "model_190/tf.nn.convolution_2045/convolution/filter", "op": "Const", "attr": {"value": {"tensor": {"dtype": "DT_FLOAT", "tensorShape": {"dim": [{"size": "3"}, {"size": "3"}, {"size": "1"}, {"size": "1"}]}}}, "dtype": {"type": "DT_FLOAT"}}}, {"name": "model_190/tf.nn.convolution_2046/convolution/filter", "op": "Const", "attr": {"value": {"tensor": {"dtype": "DT_FLOAT", "tensorShape": {"dim": [{"size": "3"}, {"size": "3"}, {"size": "1"}, {"size": "1"}]}}}, "dtype": {"type": "DT_FLOAT"}}}, {"name": "model_190/tf.nn.convolution_2047/convolution/filter", "op": "Const", "attr": {"value": {"tensor": {"dtype": "DT_FLOAT", "tensorShape": {"dim": [{"size": "3"}, {"size": "3"}, {"size": "1"}, {"size": "1"}]}}}, "dtype": {"type": "DT_FLOAT"}}}, {"name": "model_190/tf.nn.convolution_2048/convolution/filter", "op": "Const", "attr": {"value": {"tensor": {"dtype": "DT_FLOAT", "tensorShape": {"dim": [{"size": "3"}, {"size": "3"}, {"size": "1"}, {"size": "1"}]}}}, "dtype": {"type": "DT_FLOAT"}}}, {"name": "model_190/tf.nn.convolution_2049/convolution/filter", "op": "Const", "attr": {"value": {"tensor": {"dtype": "DT_FLOAT", "tensorShape": {"dim": [{"size": "3"}, {"size": "3"}, {"size": "1"}, {"size": "1"}]}}}, "dtype": {"type": "DT_FLOAT"}}}, {"name": "model_190/tf.nn.convolution_2050/convolution/filter", "op": "Const", "attr": {"value": {"tensor": {"dtype": "DT_FLOAT", "tensorShape": {"dim": [{"size": "3"}, {"size": "3"}, {"size": "1"}, {"size": "1"}]}}}, "dtype": {"type": "DT_FLOAT"}}}, {"name": "model_190/tf.nn.convolution_2051/convolution/filter", "op": "Const", "attr": {"value": {"tensor": {"dtype": "DT_FLOAT", "tensorShape": {"dim": [{"size": "3"}, {"size": "3"}, {"size": "1"}, {"size": "1"}]}}}, "dtype": {"type": "DT_FLOAT"}}}, {"name": "model_190/tf.nn.convolution_2052/convolution/filter", "op": "Const", "attr": {"value": {"tensor": {"dtype": "DT_FLOAT", "tensorShape": {"dim": [{"size": "3"}, {"size": "3"}, {"size": "1"}, {"size": "1"}]}}}, "dtype": {"type": "DT_FLOAT"}}}, {"name": "model_190/tf.nn.convolution_2053/convolution/filter", "op": "Const", "attr": {"value": {"tensor": {"dtype": "DT_FLOAT", "tensorShape": {"dim": [{"size": "3"}, {"size": "3"}, {"size": "1"}, {"size": "1"}]}}}, "dtype": {"type": "DT_FLOAT"}}}, {"name": "model_190/tf.nn.convolution_2054/convolution/filter", "op": "Const", "attr": {"value": {"tensor": {"dtype": "DT_FLOAT", "tensorShape": {"dim": [{"size": "3"}, {"size": "3"}, {"size": "1"}, {"size": "1"}]}}}, "dtype": {"type": "DT_FLOAT"}}}, {"name": "model_190/tf.nn.convolution_2055/convolution/filter", "op": "Const", "attr": {"value": {"tensor": {"dtype": "DT_FLOAT", "tensorShape": {"dim": [{"size": "3"}, {"size": "3"}, {"size": "1"}, {"size": "1"}]}}}, "dtype": {"type": "DT_FLOAT"}}}, {"name": "model_190/tf.nn.convolution_2056/convolution/filter", "op": "Const", "attr": {"value": {"tensor": {"dtype": "DT_FLOAT", "tensorShape": {"dim": [{"size": "3"}, {"size": "3"}, {"size": "1"}, {"size": "1"}]}}}, "dtype": {"type": "DT_FLOAT"}}}, {"name": "model_190/tf.nn.convolution_2057/convolution/filter", "op": "Const", "attr": {"value": {"tensor": {"dtype": "DT_FLOAT", "tensorShape": {"dim": [{"size": "3"}, {"size": "3"}, {"size": "1"}, {"size": "1"}]}}}, "dtype": {"type": "DT_FLOAT"}}}, {"name": "model_190/tf.nn.convolution_2058/convolution/filter", "op": "Const", "attr": {"value": {"tensor": {"dtype": "DT_FLOAT", "tensorShape": {"dim": [{"size": "3"}, {"size": "3"}, {"size": "1"}, {"size": "1"}]}}}, "dtype": {"type": "DT_FLOAT"}}}, {"name": "model_190/tf.nn.convolution_2059/convolution/filter", "op": "Const", "attr": {"value": {"tensor": {"dtype": "DT_FLOAT", "tensorShape": {"dim": [{"size": "3"}, {"size": "3"}, {"size": "1"}, {"size": "1"}]}}}, "dtype": {"type": "DT_FLOAT"}}}, {"name": "model_190/tf.nn.convolution_2060/convolution/filter", "op": "Const", "attr": {"value": {"tensor": {"dtype": "DT_FLOAT", "tensorShape": {"dim": [{"size": "3"}, {"size": "3"}, {"size": "1"}, {"size": "1"}]}}}, "dtype": {"type": "DT_FLOAT"}}}, {"name": "model_190/tf.nn.convolution_2061/convolution/filter", "op": "Const", "attr": {"value": {"tensor": {"dtype": "DT_FLOAT", "tensorShape": {"dim": [{"size": "3"}, {"size": "3"}, {"size": "1"}, {"size": "1"}]}}}, "dtype": {"type": "DT_FLOAT"}}}, {"name": "model_190/tf.nn.convolution_2062/convolution/filter", "op": "Const", "attr": {"value": {"tensor": {"dtype": "DT_FLOAT", "tensorShape": {"dim": [{"size": "3"}, {"size": "3"}, {"size": "1"}, {"size": "1"}]}}}, "dtype": {"type": "DT_FLOAT"}}}, {"name": "model_190/tf.nn.convolution_2063/convolution/filter", "op": "Const", "attr": {"value": {"tensor": {"dtype": "DT_FLOAT", "tensorShape": {"dim": [{"size": "3"}, {"size": "3"}, {"size": "1"}, {"size": "1"}]}}}, "dtype": {"type": "DT_FLOAT"}}}, {"name": "model_190/tf.nn.convolution_2064/convolution/filter", "op": "Const", "attr": {"value": {"tensor": {"dtype": "DT_FLOAT", "tensorShape": {"dim": [{"size": "3"}, {"size": "3"}, {"size": "1"}, {"size": "1"}]}}}, "dtype": {"type": "DT_FLOAT"}}}, {"name": "model_190/tf.nn.convolution_2065/convolution/filter", "op": "Const", "attr": {"value": {"tensor": {"dtype": "DT_FLOAT", "tensorShape": {"dim": [{"size": "3"}, {"size": "3"}, {"size": "1"}, {"size": "1"}]}}}, "dtype": {"type": "DT_FLOAT"}}}, {"name": "model_190/tf.nn.convolution_2066/convolution/filter", "op": "Const", "attr": {"value": {"tensor": {"dtype": "DT_FLOAT", "tensorShape": {"dim": [{"size": "3"}, {"size": "3"}, {"size": "1"}, {"size": "1"}]}}}, "dtype": {"type": "DT_FLOAT"}}}, {"name": "model_190/tf.nn.convolution_2067/convolution/filter", "op": "Const", "attr": {"value": {"tensor": {"dtype": "DT_FLOAT", "tensorShape": {"dim": [{"size": "3"}, {"size": "3"}, {"size": "1"}, {"size": "1"}]}}}, "dtype": {"type": "DT_FLOAT"}}}, {"name": "model_190/tf.nn.convolution_2068/convolution/filter", "op": "Const", "attr": {"value": {"tensor": {"dtype": "DT_FLOAT", "tensorShape": {"dim": [{"size": "3"}, {"size": "3"}, {"size": "1"}, {"size": "1"}]}}}, "dtype": {"type": "DT_FLOAT"}}}, {"name": "model_190/tf.nn.convolution_2069/convolution/filter", "op": "Const", "attr": {"value": {"tensor": {"dtype": "DT_FLOAT", "tensorShape": {"dim": [{"size": "3"}, {"size": "3"}, {"size": "1"}, {"size": "1"}]}}}, "dtype": {"type": "DT_FLOAT"}}}, {"name": "model_190/tf.nn.convolution_2070/convolution/filter", "op": "Const", "attr": {"value": {"tensor": {"dtype": "DT_FLOAT", "tensorShape": {"dim": [{"size": "3"}, {"size": "3"}, {"size": "1"}, {"size": "1"}]}}}, "dtype": {"type": "DT_FLOAT"}}}, {"name": "model_190/tf.nn.convolution_2071/convolution/filter", "op": "Const", "attr": {"value": {"tensor": {"dtype": "DT_FLOAT", "tensorShape": {"dim": [{"size": "3"}, {"size": "3"}, {"size": "1"}, {"size": "1"}]}}}, "dtype": {"type": "DT_FLOAT"}}}, {"name": "model_190/tf.nn.convolution_2072/convolution/filter", "op": "Const", "attr": {"value": {"tensor": {"dtype": "DT_FLOAT", "tensorShape": {"dim": [{"size": "3"}, {"size": "3"}, {"size": "1"}, {"size": "1"}]}}}, "dtype": {"type": "DT_FLOAT"}}}, {"name": "model_190/tf.nn.convolution_2073/convolution/filter", "op": "Const", "attr": {"value": {"tensor": {"dtype": "DT_FLOAT", "tensorShape": {"dim": [{"size": "3"}, {"size": "3"}, {"size": "1"}, {"size": "1"}]}}}, "dtype": {"type": "DT_FLOAT"}}}, {"name": "model_190/tf.nn.convolution_2074/convolution/filter", "op": "Const", "attr": {"value": {"tensor": {"dtype": "DT_FLOAT", "tensorShape": {"dim": [{"size": "3"}, {"size": "3"}, {"size": "1"}, {"size": "1"}]}}}, "dtype": {"type": "DT_FLOAT"}}}, {"name": "model_190/tf.nn.convolution_2075/convolution/filter", "op": "Const", "attr": {"value": {"tensor": {"dtype": "DT_FLOAT", "tensorShape": {"dim": [{"size": "3"}, {"size": "3"}, {"size": "1"}, {"size": "1"}]}}}, "dtype": {"type": "DT_FLOAT"}}}, {"name": "model_190/tf.nn.convolution_2076/convolution/filter", "op": "Const", "attr": {"value": {"tensor": {"dtype": "DT_FLOAT", "tensorShape": {"dim": [{"size": "3"}, {"size": "3"}, {"size": "1"}, {"size": "1"}]}}}, "dtype": {"type": "DT_FLOAT"}}}, {"name": "model_190/tf.nn.convolution_2077/convolution/filter", "op": "Const", "attr": {"value": {"tensor": {"dtype": "DT_FLOAT", "tensorShape": {"dim": [{"size": "3"}, {"size": "3"}, {"size": "1"}, {"size": "1"}]}}}, "dtype": {"type": "DT_FLOAT"}}}, {"name": "model_190/tf.nn.convolution_2078/convolution/filter", "op": "Const", "attr": {"value": {"tensor": {"dtype": "DT_FLOAT", "tensorShape": {"dim": [{"size": "3"}, {"size": "3"}, {"size": "1"}, {"size": "1"}]}}}, "dtype": {"type": "DT_FLOAT"}}}, {"name": "model_190/tf.nn.convolution_2079/convolution/filter", "op": "Const", "attr": {"value": {"tensor": {"dtype": "DT_FLOAT", "tensorShape": {"dim": [{"size": "3"}, {"size": "3"}, {"size": "1"}, {"size": "1"}]}}}, "dtype": {"type": "DT_FLOAT"}}}, {"name": "model_190/tf.nn.convolution_2080/convolution/filter", "op": "Const", "attr": {"value": {"tensor": {"dtype": "DT_FLOAT", "tensorShape": {"dim": [{"size": "3"}, {"size": "3"}, {"size": "1"}, {"size": "1"}]}}}, "dtype": {"type": "DT_FLOAT"}}}, {"name": "model_190/tf.nn.convolution_2081/convolution/filter", "op": "Const", "attr": {"value": {"tensor": {"dtype": "DT_FLOAT", "tensorShape": {"dim": [{"size": "3"}, {"size": "3"}, {"size": "1"}, {"size": "1"}]}}}, "dtype": {"type": "DT_FLOAT"}}}, {"name": "model_190/tf.nn.convolution_2082/convolution/filter", "op": "Const", "attr": {"value": {"tensor": {"dtype": "DT_FLOAT", "tensorShape": {"dim": [{"size": "3"}, {"size": "3"}, {"size": "1"}, {"size": "1"}]}}}, "dtype": {"type": "DT_FLOAT"}}}, {"name": "model_190/tf.nn.convolution_2083/convolution/filter", "op": "Const", "attr": {"value": {"tensor": {"dtype": "DT_FLOAT", "tensorShape": {"dim": [{"size": "3"}, {"size": "3"}, {"size": "1"}, {"size": "1"}]}}}, "dtype": {"type": "DT_FLOAT"}}}, {"name": "model_190/tf.nn.convolution_2084/convolution/filter", "op": "Const", "attr": {"value": {"tensor": {"dtype": "DT_FLOAT", "tensorShape": {"dim": [{"size": "3"}, {"size": "3"}, {"size": "1"}, {"size": "1"}]}}}, "dtype": {"type": "DT_FLOAT"}}}, {"name": "model_190/tf.nn.convolution_2085/convolution/filter", "op": "Const", "attr": {"value": {"tensor": {"dtype": "DT_FLOAT", "tensorShape": {"dim": [{"size": "3"}, {"size": "3"}, {"size": "1"}, {"size": "1"}]}}}, "dtype": {"type": "DT_FLOAT"}}}, {"name": "model_190/tf.nn.convolution_2086/convolution/filter", "op": "Const", "attr": {"value": {"tensor": {"dtype": "DT_FLOAT", "tensorShape": {"dim": [{"size": "3"}, {"size": "3"}, {"size": "1"}, {"size": "1"}]}}}, "dtype": {"type": "DT_FLOAT"}}}, {"name": "model_190/tf.nn.convolution_2087/convolution/filter", "op": "Const", "attr": {"value": {"tensor": {"dtype": "DT_FLOAT", "tensorShape": {"dim": [{"size": "3"}, {"size": "3"}, {"size": "1"}, {"size": "1"}]}}}, "dtype": {"type": "DT_FLOAT"}}}, {"name": "model_190/tf.nn.convolution_2088/convolution/filter", "op": "Const", "attr": {"value": {"tensor": {"dtype": "DT_FLOAT", "tensorShape": {"dim": [{"size": "3"}, {"size": "3"}, {"size": "1"}, {"size": "1"}]}}}, "dtype": {"type": "DT_FLOAT"}}}, {"name": "model_190/tf.nn.convolution_2089/convolution/filter", "op": "Const", "attr": {"value": {"tensor": {"dtype": "DT_FLOAT", "tensorShape": {"dim": [{"size": "3"}, {"size": "3"}, {"size": "1"}, {"size": "1"}]}}}, "dtype": {"type": "DT_FLOAT"}}}, {"name": "model_190/tf.nn.convolution_2090/convolution/filter", "op": "Const", "attr": {"value": {"tensor": {"dtype": "DT_FLOAT", "tensorShape": {"dim": [{"size": "3"}, {"size": "3"}, {"size": "1"}, {"size": "1"}]}}}, "dtype": {"type": "DT_FLOAT"}}}, {"name": "model_190/tf.nn.convolution_2091/convolution/filter", "op": "Const", "attr": {"value": {"tensor": {"dtype": "DT_FLOAT", "tensorShape": {"dim": [{"size": "3"}, {"size": "3"}, {"size": "1"}, {"size": "1"}]}}}, "dtype": {"type": "DT_FLOAT"}}}, {"name": "model_190/tf.nn.convolution_2092/convolution/filter", "op": "Const", "attr": {"value": {"tensor": {"dtype": "DT_FLOAT", "tensorShape": {"dim": [{"size": "3"}, {"size": "3"}, {"size": "1"}, {"size": "1"}]}}}, "dtype": {"type": "DT_FLOAT"}}}, {"name": "model_190/tf.nn.convolution_2093/convolution/filter", "op": "Const", "attr": {"value": {"tensor": {"dtype": "DT_FLOAT", "tensorShape": {"dim": [{"size": "3"}, {"size": "3"}, {"size": "1"}, {"size": "1"}]}}}, "dtype": {"type": "DT_FLOAT"}}}, {"name": "model_190/tf.nn.convolution_2094/convolution/filter", "op": "Const", "attr": {"value": {"tensor": {"dtype": "DT_FLOAT", "tensorShape": {"dim": [{"size": "3"}, {"size": "3"}, {"size": "1"}, {"size": "1"}]}}}, "dtype": {"type": "DT_FLOAT"}}}, {"name": "model_190/tf.nn.convolution_2095/convolution/filter", "op": "Const", "attr": {"value": {"tensor": {"dtype": "DT_FLOAT", "tensorShape": {"dim": [{"size": "3"}, {"size": "3"}, {"size": "1"}, {"size": "1"}]}}}, "dtype": {"type": "DT_FLOAT"}}}, {"name": "model_190/tf.nn.convolution_2096/convolution/filter", "op": "Const", "attr": {"value": {"tensor": {"dtype": "DT_FLOAT", "tensorShape": {"dim": [{"size": "3"}, {"size": "3"}, {"size": "1"}, {"size": "1"}]}}}, "dtype": {"type": "DT_FLOAT"}}}, {"name": "model_190/tf.nn.convolution_2097/convolution/filter", "op": "Const", "attr": {"value": {"tensor": {"dtype": "DT_FLOAT", "tensorShape": {"dim": [{"size": "3"}, {"size": "3"}, {"size": "1"}, {"size": "1"}]}}}, "dtype": {"type": "DT_FLOAT"}}}, {"name": "model_190/tf.nn.convolution_2098/convolution/filter", "op": "Const", "attr": {"value": {"tensor": {"dtype": "DT_FLOAT", "tensorShape": {"dim": [{"size": "3"}, {"size": "3"}, {"size": "1"}, {"size": "1"}]}}}, "dtype": {"type": "DT_FLOAT"}}}, {"name": "model_190/tf.nn.convolution_2099/convolution/filter", "op": "Const", "attr": {"value": {"tensor": {"dtype": "DT_FLOAT", "tensorShape": {"dim": [{"size": "3"}, {"size": "3"}, {"size": "1"}, {"size": "1"}]}}}, "dtype": {"type": "DT_FLOAT"}}}, {"name": "model_190/tf.nn.convolution_2100/convolution/filter", "op": "Const", "attr": {"value": {"tensor": {"dtype": "DT_FLOAT", "tensorShape": {"dim": [{"size": "3"}, {"size": "3"}, {"size": "1"}, {"size": "1"}]}}}, "dtype": {"type": "DT_FLOAT"}}}, {"name": "model_190/tf.nn.convolution_2101/convolution/filter", "op": "Const", "attr": {"value": {"tensor": {"dtype": "DT_FLOAT", "tensorShape": {"dim": [{"size": "3"}, {"size": "3"}, {"size": "1"}, {"size": "1"}]}}}, "dtype": {"type": "DT_FLOAT"}}}, {"name": "model_190/tf.nn.convolution_2102/convolution/filter", "op": "Const", "attr": {"value": {"tensor": {"dtype": "DT_FLOAT", "tensorShap…
 1], "dtype": "float32"}, {"name": "model_190/tf.nn.convolution_1492/convolution/filter", "shape": [3, 3, 1, 1], "dtype": "float32"}, {"name": "model_190/tf.nn.convolution_1493/convolution/filter", "shape": [3, 3, 1, 1], "dtype": "float32"}, {"name": "model_190/tf.nn.convolution_1494/convolution/filter", "shape": [3, 3, 1, 1], "dtype": "float32"}, {"name": "model_190/tf.nn.convolution_1495/convolution/filter", "shape": [3, 3, 1, 1], "dtype": "float32"}, {"name": "model_190/tf.nn.convolution_1496/convolution/filter", "shape": [3, 3, 1, 1], "dtype": "float32"}, {"name": "model_190/tf.nn.convolution_1497/convolution/filter", "shape": [3, 3, 1, 1], "dtype": "float32"}, {"name": "model_190/tf.nn.convolution_1498/convolution/filter", "shape": [3, 3, 1, 1], "dtype": "float32"}, {"name": "model_190/tf.nn.convolution_1499/convolution/filter", "shape": [3, 3, 1, 1], "dtype": "float32"}, {"name": "model_190/tf.nn.convolution_1500/convolution/filter", "shape": [3, 3, 1, 1], "dtype": "float32"}, {"name": "model_190/tf.nn.convolution_1501/convolution/filter", "shape": [3, 3, 1, 1], "dtype": "float32"}, {"name": "model_190/tf.nn.convolution_1502/convolution/filter", "shape": [3, 3, 1, 1], "dtype": "float32"}, {"name": "model_190/tf.nn.convolution_1503/convolution/filter", "shape": [3, 3, 1, 1], "dtype": "float32"}, {"name": "model_190/tf.nn.convolution_1504/convolution/filter", "shape": [3, 3, 1, 1], "dtype": "float32"}, {"name": "model_190/tf.nn.convolution_1505/convolution/filter", "shape": [3, 3, 1, 1], "dtype": "float32"}, {"name": "model_190/tf.nn.convolution_1506/convolution/filter", "shape": [3, 3, 1, 1], "dtype": "float32"}, {"name": "model_190/tf.nn.convolution_1507/convolution/filter", "shape": [3, 3, 1, 1], "dtype": "float32"}, {"name": "model_190/tf.nn.convolution_1508/convolution/filter", "shape": [3, 3, 1, 1], "dtype": "float32"}, {"name": "model_190/tf.nn.convolution_1509/convolution/filter", "shape": [3, 3, 1, 1], "dtype": "float32"}, {"name": "model_190/tf.nn.convolution_1510/convolution/filter", "shape": [3, 3, 1, 1], "dtype": "float32"}, {"name": "model_190/tf.nn.convolution_1511/convolution/filter", "shape": [3, 3, 1, 1], "dtype": "float32"}, {"name": "model_190/tf.nn.convolution_1512/convolution/filter", "shape": [3, 3, 1, 1], "dtype": "float32"}, {"name": "model_190/tf.nn.convolution_1513/convolution/filter", "shape": [3, 3, 1, 1], "dtype": "float32"}, {"name": "model_190/tf.nn.convolution_1514/convolution/filter", "shape": [3, 3, 1, 1], "dtype": "float32"}, {"name": "model_190/tf.nn.convolution_1515/convolution/filter", "shape": [3, 3, 1, 1], "dtype": "float32"}, {"name": "model_190/tf.nn.convolution_1516/convolution/filter", "shape": [3, 3, 1, 1], "dtype": "float32"}, {"name": "model_190/tf.nn.convolution_1517/convolution/filter", "shape": [3, 3, 1, 1], "dtype": "float32"}, {"name": "model_190/tf.nn.convolution_1518/convolution/filter", "shape": [3, 3, 1, 1], "dtype": "float32"}, {"name": "model_190/tf.nn.convolution_1519/convolution/filter", "shape": [3, 3, 1, 1], "dtype": "float32"}, {"name": "model_190/tf.nn.convolution_1520/convolution/filter", "shape": [3, 3, 1, 1], "dtype": "float32"}, {"name": "model_190/tf.nn.convolution_1521/convolution/filter", "shape": [3, 3, 1, 1], "dtype": "float32"}, {"name": "model_190/tf.nn.convolution_1522/convolution/filter", "shape": [3, 3, 1, 1], "dtype": "float32"}, {"name": "model_190/tf.nn.convolution_1523/convolution/filter", "shape": [3, 3, 1, 1], "dtype": "float32"}, {"name": "model_190/tf.nn.convolution_1524/convolution/filter", "shape": [3, 3, 1, 1], "dtype": "float32"}, {"name": "model_190/tf.nn.convolution_1525/convolution/filter", "shape": [3, 3, 1, 1], "dtype": "float32"}, {"name": "model_190/tf.nn.convolution_1526/convolution/filter", "shape": [3, 3, 1, 1], "dtype": "float32"}, {"name": "model_190/tf.nn.convolution_1527/convolution/filter", "shape": [3, 3, 1, 1], "dtype": "float32"}, {"name": "model_190/tf.nn.convolution_1528/convolution/filter", "shape": [3, 3, 1, 1], "dtype": "float32"}, {"name": "model_190/tf.nn.convolution_1529/convolution/filter", "shape": [3, 3, 1, 1], "dtype": "float32"}, {"name": "model_190/tf.nn.convolution_1530/convolution/filter", "shape": [3, 3, 1, 1], "dtype": "float32"}, {"name": "model_190/tf.nn.convolution_1531/convolution/filter", "shape": [3, 3, 1, 1], "dtype": "float32"}, {"name": "model_190/tf.nn.convolution_1532/convolution/filter", "shape": [3, 3, 1, 1], "dtype": "float32"}, {"name": "model_190/tf.nn.convolution_1533/convolution/filter", "shape": [3, 3, 1, 1], "dtype": "float32"}, {"name": "model_190/tf.nn.convolution_1534/convolution/filter", "shape": [3, 3, 1, 1], "dtype": "float32"}, {"name": "model_190/tf.nn.convolution_1535/convolution/filter", "shape": [3, 3, 1, 1], "dtype": "float32"}, {"name": "model_190/tf.nn.convolution_1536/convolution/filter", "shape": [3, 3, 1, 1], "dtype": "float32"}, {"name": "model_190/tf.nn.convolution_1537/convolution/filter", "shape": [3, 3, 1, 1], "dtype": "float32"}, {"name": "model_190/tf.nn.convolution_1538/convolution/filter", "shape": [3, 3, 1, 1], "dtype": "float32"}, {"name": "model_190/tf.nn.convolution_1539/convolution/filter", "shape": [3, 3, 1, 1], "dtype": "float32"}, {"name": "model_190/tf.nn.convolution_1540/convolution/filter", "shape": [3, 3, 1, 1], "dtype": "float32"}, {"name": "model_190/tf.nn.convolution_1541/convolution/filter", "shape": [3, 3, 1, 1], "dtype": "float32"}, {"name": "model_190/tf.nn.convolution_1542/convolution/filter", "shape": [3, 3, 1, 1], "dtype": "float32"}, {"name": "model_190/tf.nn.convolution_1543/convolution/filter", "shape": [3, 3, 1, 1], "dtype": "float32"}, {"name": "model_190/tf.nn.convolution_1544/convolution/filter", "shape": [3, 3, 1, 1], "dtype": "float32"}, {"name": "model_190/tf.nn.convolution_1545/convolution/filter", "shape": [3, 3, 1, 1], "dtype": "float32"}, {"name": "model_190/tf.nn.convolution_1546/convolution/filter", "shape": [3, 3, 1, 1], "dtype": "float32"}, {"name": "model_190/tf.nn.convolution_1547/convolution/filter", "shape": [3, 3, 1, 1], "dtype": "float32"}, {"name": "model_190/tf.nn.convolution_1548/convolution/filter", "shape": [3, 3, 1, 1], "dtype": "float32"}, {"name": "model_190/tf.nn.convolution_1549/convolution/filter", "shape": [3, 3, 1, 1], "dtype": "float32"}, {"name": "model_190/tf.nn.convolution_1550/convolution/filter", "shape": [3, 3, 1, 1], "dtype": "float32"}, {"name": "model_190/tf.nn.convolution_1551/convolution/filter", "shape": [3, 3, 1, 1], "dtype": "float32"}, {"name": "model_190/tf.nn.convolution_1552/convolution/filter", "shape": [3, 3, 1, 1], "dtype": "float32"}, {"name": "model_190/tf.nn.convolution_1553/convolution/filter", "shape": [3, 3, 1, 1], "dtype": "float32"}, {"name": "model_190/tf.nn.convolution_1554/convolution/filter", "shape": [3, 3, 1, 1], "dtype": "float32"}, {"name": "model_190/tf.nn.convolution_1555/convolution/filter", "shape": [3, 3, 1, 1], "dtype": "float32"}, {"name": "model_190/tf.nn.convolution_1556/convolution/filter", "shape": [3, 3, 1, 1], "dtype": "float32"}, {"name": "model_190/tf.nn.convolution_1557/convolution/filter", "shape": [3, 3, 1, 1], "dtype": "float32"}, {"name": "model_190/tf.nn.convolution_1558/convolution/filter", "shape": [3, 3, 1, 1], "dtype": "float32"}, {"name": "model_190/tf.nn.convolution_1559/convolution/filter", "shape": [3, 3, 1, 1], "dtype": "float32"}, {"name": "model_190/tf.nn.convolution_1560/convolution/filter", "shape": [3, 3, 1, 1], "dtype": "float32"}, {"name": "model_190/tf.nn.convolution_1561/convolution/filter", "shape": [3, 3, 1, 1], "dtype": "float32"}, {"name": "model_190/tf.nn.convolution_1562/convolution/filter", "shape": [3, 3, 1, 1], "dtype": "float32"}, {"name": "model_190/tf.nn.convolution_1563/convolution/filter", "shape": [3, 3, 1, 1], "dtype": "float32"}, {"name": "model_190/tf.nn.convolution_1564/convolution/filter", "shape": [3, 3, 1, 1], "dtype": "float32"}, {"name": "model_190/tf.nn.convolution_1565/convolution/filter", "shape": [3, 3, 1, 1], "dtype": "float32"}, {"name": "model_190/tf.nn.convolution_1566/convolution/filter", "shape": [3, 3, 1, 1], "dtype": "float32"}, {"name": "model_190/tf.nn.convolution_1567/convolution/filter", "shape": [3, 3, 1, 1], "dtype": "float32"}, {"name": "model_190/tf.nn.convolution_1568/convolution/filter", "shape": [3, 3, 1, 1], "dtype": "float32"}, {"name": "model_190/tf.nn.convolution_1569/convolution/filter", "shape": [3, 3, 1, 1], "dtype": "float32"}, {"name": "model_190/tf.nn.convolution_1570/convolution/filter", "shape": [3, 3, 1, 1], "dtype": "float32"}, {"name": "model_190/tf.nn.convolution_1571/convolution/filter", "shape": [3, 3, 1, 1], "dtype": "float32"}, {"name": "model_190/tf.nn.convolution_1572/convolution/filter", "shape": [3, 3, 1, 1], "dtype": "float32"}, {"name": "model_190/tf.nn.convolution_1573/convolution/filter", "shape": [3, 3, 1, 1], "dtype": "float32"}, {"name": "model_190/tf.nn.convolution_1574/convolution/filter", "shape": [3, 3, 1, 1], "dtype": "float32"}, {"name": "model_190/tf.nn.convolution_1575/convolution/filter", "shape": [3, 3, 1, 1], "dtype": "float32"}, {"name": "model_190/tf.nn.convolution_1576/convolution/filter", "shape": [3, 3, 1, 1], "dtype": "float32"}, {"name": "model_190/tf.nn.convolution_1577/convolution/filter", "shape": [3, 3, 1, 1], "dtype": "float32"}, {"name": "model_190/tf.nn.convolution_1578/convolution/filter", "shape": [3, 3, 1, 1], "dtype": "float32"}, {"name": "model_190/tf.nn.convolution_1579/convolution/filter", "shape": [3, 3, 1, 1], "dtype": "float32"}, {"name": "model_190/tf.nn.convolution_1580/convolution/filter", "shape": [3, 3, 1, 1], "dtype": "float32"}, {"name": "model_190/tf.nn.convolution_1581/convolution/filter", "shape": [3, 3, 1, 1], "dtype": "float32"}, {"name": "model_190/tf.nn.convolution_1582/convolution/filter", "shape": [3, 3, 1, 1], "dtype": "float32"}, {"name": "model_190/tf.nn.convolution_1583/convolution/filter", "shape": [3, 3, 1, 1], "dtype": "float32"}, {"name": "model_190/tf.nn.convolution_1584/convolution/filter", "shape": [3, 3, 1, 1], "dtype": "float32"}, {"name": "model_190/tf.nn.convolution_1585/convolution/filter", "shape": [3, 3, 1, 1], "dtype": "float32"}, {"name": "model_190/tf.nn.convolution_1586/convolution/filter", "shape": [3, 3, 1, 1], "dtype": "float32"}, {"name": "model_190/tf.nn.convolution_1587/convolution/filter", "shape": [3, 3, 1, 1], "dtype": "float32"}, {"name": "model_190/tf.nn.convolution_1588/convolution/filter", "shape": [3, 3, 1, 1], "dtype": "float32"}, {"name": "model_190/tf.nn.convolution_1589/convolution/filter", "shape": [3, 3, 1, 1], "dtype": "float32"}, {"name": "model_190/tf.nn.convolution_1590/convolution/filter", "shape": [3, 3, 1, 1], "dtype": "float32"}, {"name": "model_190/tf.nn.convolution_1591/convolution/filter", "shape": [3, 3, 1, 1], "dtype": "float32"}, {"name": "model_190/tf.nn.convolution_1592/convolution/filter", "shape": [3, 3, 1, 1], "dtype": "float32"}, {"name": "model_190/tf.nn.convolution_1593/convolution/filter", "shape": [3, 3, 1, 1], "dtype": "float32"}, {"name": "model_190/tf.nn.convolution_1594/convolution/filter", "shape": [3, 3, 1, 1], "dtype": "float32"}, {"name": "model_190/tf.nn.convolution_1595/convolution/filter", "shape": [3, 3, 1, 1], "dtype": "float32"}, {"name": "model_190/tf.nn.convolution_1596/convolution/filter", "shape": [3, 3, 1, 1], "dtype": "float32"}, {"name": "model_190/tf.nn.convolution_1597/convolution/filter", "shape": [3, 3, 1, 1], "dtype": "float32"}, {"name": "model_190/tf.nn.convolution_1598/convolution/filter", "shape": [3, 3, 1, 1], "dtype": "float32"}, {"name": "model_190/tf.nn.convolution_1599/convolution/filter", "shape": [3, 3, 1, 1], "dtype": "float32"}, {"name": "model_190/tf.nn.convolution_1600/convolution/filter", "shape": [3, 3, 1, 1], "dtype": "float32"}, {"name": "model_190/tf.nn.convolution_1601/convolution/filter", "shape": [3, 3, 1, 1], "dtype": "float32"}, {"name": "model_190/tf.nn.convolution_1602/convolution/filter", "shape": [3, 3, 1, 1], "dtype": "float32"}, {"name": "model_190/tf.nn.convolution_1603/convolution/filter", "shape": [3, 3, 1, 1], "dtype": "float32"}, {"name": "model_190/tf.nn.convolution_1604/convolution/filter", "shape": [3, 3, 1, 1], "dtype": "float32"}, {"name": "model_190/tf.nn.convolution_1605/convolution/filter", "shape": [3, 3, 1, 1], "dtype": "float32"}, {"name": "model_190/tf.nn.convolution_1606/convolution/filter", "shape": [3, 3, 1, 1], "dtype": "float32"}, {"name": "model_190/tf.nn.convolution_1607/convolution/filter", "shape": [3, 3, 1, 1], "dtype": "float32"}, {"name": "model_190/tf.nn.convolution_1608/convolution/filter", "shape": [3, 3, 1, 1], "dtype": "float32"}, {"name": "model_190/tf.nn.convolution_1609/convolution/filter", "shape": [3, 3, 1, 1], "dtype": "float32"}, {"name": "model_190/tf.nn.convolution_1610/convolution/filter", "shape": [3, 3, 1, 1], "dtype": "float32"}, {"name": "model_190/tf.nn.convolution_1611/convolution/filter", "shape": [3, 3, 1, 1], "dtype": "float32"}, {"name": "model_190/tf.nn.convolution_1612/convolution/filter", "shape": [3, 3, 1, 1], "dtype": "float32"}, {"name": "model_190/tf.nn.convolution_1613/convolution/filter", "shape": [3, 3, 1, 1], "dtype": "float32"}, {"name": "model_190/tf.nn.convolution_1614/convolution/filter", "shape": [3, 3, 1, 1], "dtype": "float32"}, {"name": "model_190/tf.nn.convolution_1615/convolution/filter", "shape": [3, 3, 1, 1], "dtype": "float32"}, {"name": "model_190/tf.nn.convolution_1616/convolution/filter", "shape": [3, 3, 1, 1], "dtype": "float32"}, {"name": "model_190/tf.nn.convolution_1617/convolution/filter", "shape": [3, 3, 1, 1], "dtype": "float32"}, {"name": "model_190/tf.nn.convolution_1618/convolution/filter", "shape": [3, 3, 1, 1], "dtype": "float32"}, {"name": "model_190/tf.nn.convolution_1619/convolution/filter", "shape": [3, 3, 1, 1], "dtype": "float32"}, {"name": "model_190/tf.nn.convolution_1620/convolution/filter", "shape": [3, 3, 1, 1], "dtype": "float32"}, {"name": "model_190/tf.nn.convolution_1621/convolution/filter", "shape": [3, 3, 1, 1], "dtype": "float32"}, {"name": "model_190/tf.nn.convolution_1622/convolution/filter", "shape": [3, 3, 1, 1], "dtype": "float32"}, {"name": "model_190/tf.nn.convolution_1623/convolution/filter", "shape": [3, 3, 1, 1], "dtype": "float32"}, {"name": "model_190/tf.nn.convolution_1624/convolution/filter", "shape": [3, 3, 1, 1], "dtype": "float32"}, {"name": "model_190/tf.nn.convolution_1625/convolution/filter", "shape": [3, 3, 1, 1], "dtype": "float32"}, {"name": "model_190/tf.nn.convolution_1626/convolution/filter", "shape": [3, 3, 1, 1], "dtype": "float32"}, {"name": "model_190/tf.nn.convolution_1627/convolution/filter", "shape": [3, 3, 1, 1], "dtype": "float32"}, {"name": "model_190/tf.nn.convolution_1628/convolution/filter", "shape": [3, 3, 1, 1], "dtype": "float32"}, {"name": "model_190/tf.nn.convolution_1629/convolution/filter", "shape": [3, 3, 1, 1], "dtype": "float32"}, {"name": "model_190/tf.nn.convolution_1630/convolution/filter", "shape": [3, 3, 1, 1], "dtype": "float32"}, {"name": "model_190/tf.nn.convolution_1631/convolution/filter", "shape": [3, 3, 1, 1], "dtype": "float32"}, {"name": "model_190/tf.nn.convolution_1632/convolution/filter", "shape": [3, 3, 1, 1], "dtype": "float32"}, {"name": "model_190/tf.nn.convolution_1633/convolution/filter", "shape": [3, 3, 1, 1], "dtype": "float32"}, {"name": "model_190/tf.nn.convolution_1634/convolution/filter", "shape": [3, 3, 1, 1], "dtype": "float32"}, {"name": "model_190/tf.nn.convolution_1635/convolution/filter", "shape": [3, 3, 1, 1], "dtype": "float32"}, {"name": "model_190/tf.nn.convolution_1636/convolution/filter", "shape": [3, 3, 1, 1], "dtype": "float32"}, {"name": "model_190/tf.nn.convolution_1637/convolution/filter", "shape": [3, 3, 1, 1], "dtype": "float32"}, {"name": "model_190/tf.nn.convolution_1638/convolution/filter", "shape": [3, 3, 1, 1], "dtype": "float32"}, {"name": "model_190/tf.nn.convolution_1639/convolution/filter", "shape": [3, 3, 1, 1], "dtype": "float32"}, {"name": "model_190/tf.nn.convolution_1640/convolution/filter", "shape": [3, 3, 1, 1], "dtype": "float32"}, {"name": "model_190/tf.nn.convolution_1641/convolution/filter", "shape": [3, 3, 1, 1], "dtype": "float32"}, {"name": "model_190/tf.nn.convolution_1642/convolution/filter", "shape": [3, 3, 1, 1], "dtype": "float32"}, {"name": "model_190/tf.nn.convolution_1643/convolution/filter", "shape": [3, 3, 1, 1], "dtype": "float32"}, {"name": "model_190/tf.nn.convolution_1644/convolution/filter", "shape": [3, 3, 1, 1], "dtype": "float32"}, {"name": "model_190/tf.nn.convolution_1645/convolution/filter", "shape": [3, 3, 1, 1], "dtype": "float32"}, {"name": "model_190/tf.nn.convolution_1646/convolution/filter", "shape": [3, 3, 1, 1], "dtype": "float32"}, {"name": "model_190/tf.nn.convolution_1647/convolution/filter", "shape": [3, 3, 1, 1], "dtype": "float32"}, {"name": "model_190/tf.nn.convolution_1648/convolution/filter", "shape": [3, 3, 1, 1], "dtype": "float32"}, {"name": "model_190/tf.nn.convolution_1649/convolution/filter", "shape": [3, 3, 1, 1], "dtype": "float32"}, {"name": "model_190/tf.nn.convolution_1650/convolution/filter", "shape": [3, 3, 1, 1], "dtype": "float32"}, {"name": "model_190/tf.nn.convolution_1651/convolution/filter", "shape": [3, 3, 1, 1], "dtype": "float32"}, {"name": "model_190/tf.nn.convolution_1652/convolution/filter", "shape": [3, 3, 1, 1], "dtype": "float32"}, {"name": "model_190/tf.nn.convolution_1653/convolution/filter", "shape": [3, 3, 1, 1], "dtype": "float32"}, {"name": "model_190/tf.nn.convolution_1654/convolution/filter", "shape": [3, 3, 1, 1], "dtype": "float32"}, {"name": "model_190/tf.nn.convolution_1655/convolution/filter", "shape": [3, 3, 1, 1], "dtype": "float32"}, {"name": "model_190/tf.nn.convolution_1656/convolution/filter", "shape": [3, 3, 1, 1], "dtype": "float32"}, {"name": "model_190/tf.nn.convolution_1657/convolution/filter", "shape": [3, 3, 1, 1], "dtype": "float32"}, {"name": "model_190/tf.nn.convolution_1658/convolution/filter", "shape": [3, 3, 1, 1], "dtype": "float32"}, {"name": "model_190/tf.nn.convolution_1659/convolution/filter", "shape": [3, 3, 1, 1], "dtype": "float32"}, {"name": "model_190/tf.nn.convolution_1660/convolution/filter", "shape": [3, 3, 1, 1], "dtype": "float32"}, {"name": "model_190/tf.nn.convolution_1661/convolution/filter", "shape": [3, 3, 1, 1], "dtype": "float32"}, {"name": "model_190/tf.nn.convolution_1662/convolution/filter", "shape": [3, 3, 1, 1], "dtype": "float32"}, {"name": "model_190/tf.nn.convolution_1663/convolution/filter", "shape": [3, 3, 1, 1], "dtype": "float32"}, {"name": "model_190/tf.nn.convolution_1664/convolution/filter", "shape": [3, 3, 1, 1], "dtype": "float32"}, {"name": "model_190/tf.nn.convolution_1665/convolution/filter", "shape": [3, 3, 1, 1], "dtype": "float32"}, {"name": "model_190/tf.nn.convolution_1666/convolution/filter", "shape": [3, 3, 1, 1], "dtype": "float32"}, {"name": "model_190/tf.nn.convolution_1667/convolution/filter", "shape": [3, 3, 1, 1], "dtype": "float32"}, {"name": "model_190/tf.nn.convolution_1668/convolution/filter", "shape": [3, 3, 1, 1], "dtype": "float32"}, {"name": "model_190/tf.nn.convolution_1669/convolution/filter", "shape": [3, 3, 1, 1], "dtype": "float32"}, {"name": "model_190/tf.nn.convolution_1670/convolution/filter", "shape": [3, 3, 1, 1], "dtype": "float32"}, {"name": "model_190/tf.nn.convolution_1671/convolution/filter", "shape": [3, 3, 1, 1], "dtype": "float32"}, {"name": "model_190/tf.nn.convolution_1672/convolution/filter", "shape": [3, 3, 1, 1], "dtype": "float32"}, {"name": "model_190/tf.nn.convolution_1673/convolution/filter", "shape": [3, 3, 1, 1], "dtype": "float32"}, {"name": "model_190/tf.nn.convolution_1674/convolution/filter", "shape": [3, 3, 1, 1], "dtype": "float32"}, {"name": "model_190/tf.nn.convolution_1675/convolution/filter", "shape": [3, 3, 1, 1], "dtype": "float32"}, {"name": "model_190/tf.nn.convolution_1676/convolution/filter", "shape": [3, 3, 1, 1], "dtype": "float32"}, {"name": "model_190/tf.nn.convolution_1677/convolution/filter", "shape": [3, 3, 1, 1], "dtype": "float32"}, {"name": "model_190/tf.nn.convolution_1678/convolution/filter", "shape": [3, 3, 1, 1], "dtype": "float32"}, {"name": "model_190/tf.nn.convolution_1679/convolution/filter", "shape": [3, 3, 1, 1], "dtype": "float32"}, {"name": "model_190/tf.nn.convolution_1680/convolution/filter", "shape": [3, 3, 1, 1], "dtype": "float32"}, {"name": "model_190/tf.nn.convolution_1681/convolution/filter", "shape": [3, 3, 1, 1], "dtype": "float32"}, {"name": "model_190/tf.nn.convolution_1682/convolution/filter", "shape": [3, 3, 1, 1], "dtype": "float32"}, {"name": "model_190/tf.nn.convolution_1683/convolution/filter", "shape": [3, 3, 1, 1], "dtype": "float32"}, {"name": "model_190/tf.nn.convolution_1684/convolution/filter", "shape": [3, 3, 1, 1], "dtype": "float32"}, {"name": "model_190/tf.nn.convolution_1685/convolution/filter", "shape": [3, 3, 1, 1], "dtype": "float32"}, {"name": "model_190/tf.nn.convolution_1686/convolution/filter", "shape": [3, 3, 1, 1], "dtype": "float32"}, {"name": "model_190/tf.nn.convolution_1687/convolution/filter", "shape": [3, 3, 1, 1], "dtype": "float32"}, {"name": "model_190/tf.nn.convolution_1688/convolution/filter", "shape": [3, 3, 1, 1], "dtype": "float32"}, {"name": "model_190/tf.nn.convolution_1689/convolution/filter", "shape": [3, 3, 1, 1], "dtype": "float32"}, {"name": "model_190/tf.nn.convolution_1690/convolution/filter", "shape": [3, 3, 1, 1], "dtype": "float32"}, {"name": "model_190/tf.nn.convolution_1691/convolution/filter", "shape": [3, 3, 1, 1], "dtype": "float32"}, {"name": "model_190/tf.nn.convolution_1692/convolution/filter", "shape": [3, 3, 1, 1], "dtype": "float32"}, {"name": "model_190/tf.nn.convolution_1693/convolution/filter", "shape": [3, 3, 1, 1], "dtype": "float32"}, {"name": "model_190/tf.nn.convolution_1694/convolution/filter", "shape": [3, 3, 1, 1], "dtype": "float32"}, {"name": "model_190/tf.nn.convolution_1695/convolution/filter", "shape": [3, 3, 1, 1], "dtype": "float32"}, {"name": "model_190/tf.nn.convolution_1696/convolution/filter", "shape": [3, 3, 1, 1], "dtype": "float32"}, {"name": "model_190/tf.nn.convolution_1697/convolution/filter", "shape": [3, 3, 1, 1], "dtype": "float32"}, {"name": "model_190/tf.nn.convolution_1698/convolution/filter", "shape": [3, 3, 1, 1], "dtype": "float32"}, {"name": "model_190/tf.nn.convolution_1699/convolution/filter", "shape": [3, 3, 1, 1], "dtype": "float32"}, {"name": "model_190/tf.nn.convolution_1700/convolution/filter", "shape": [3, 3, 1, 1], "dtype": "float32"}, {"name": "model_190/tf.nn.convolution_1701/convolution/filter", "shape": [3, 3, 1, 1], "dtype": "float32"}, {"name": "model_190/tf.nn.convolution_1702/convolution/filter", "shape": [3, 3, 1, 1], "dtype": "float32"}, {"name": "model_190/tf.nn.convolution_1703/convolution/filter", "shape": [3, 3, 1, 1], "dtype": "float32"}, {"name": "model_190/tf.nn.convolution_1704/convolution/filter", "shape": [3, 3, 1, 1], "dtype": "float32"}, {"name": "model_190/tf.nn.convolution_1705/convolution/filter", "shape": [3, 3, 1, 1], "dtype": "float32"}, {"name": "model_190/tf.nn.convolution_1706/convolution/filter", "shape": [3, 3, 1, 1], "dtype": "float32"}, {"name": "model_190/tf.nn.convolution_1707/convolution/filter", "shape": [3, 3, 1, 1], "dtype": "float32"}, {"name": "model_190/tf.nn.convolution_1708/convolution/filter", "shape": [3, 3, 1, 1], "dtype": "float32"}, {"name": "model_190/tf.nn.convolution_1709/convolution/filter", "shape": [3, 3, 1, 1], "dtype": "float32"}, {"name": "model_190/tf.nn.convolution_1710/convolution/filter", "shape": [3, 3, 1, 1], "dtype": "float32"}, {"name": "model_190/tf.nn.convolution_1711/convolution/filter", "shape": [3, 3, 1, 1], "dtype": "float32"}, {"name": "model_190/tf.nn.convolution_1712/convolution/filter", "shape": [3, 3, 1, 1], "dtype": "float32"}, {"name": "model_190/tf.nn.convolution_1713/convolution/filter", "shape": [3, 3, 1, 1], "dtype": "float32"}, {"name": "model_190/tf.nn.convolution_1714/convolution/filter", "shape": [3, 3, 1, 1], "dtype": "float32"}, {"name": "model_190/tf.nn.convolution_1715/convolution/filter", "shape": [3, 3, 1, 1], "dtype": "float32"}, {"name": "model_190/tf.nn.convolution_1716/convolution/filter", "shape": [3, 3, 1, 1], "dtype": "float32"}, {"name": "model_190/tf.nn.convolution_1717/convolution/filter", "shape": [3, 3, 1, 1], "dtype": "float32"}, {"name": "model_190/tf.nn.convolution_1718/convolution/filter", "shape": [3, 3, 1, 1], "dtype": "float32"}, {"name": "model_190/tf.nn.convolution_1719/convolution/filter", "shape": [3, 3, 1, 1], "dtype": "float32"}, {"name": "model_190/tf.split_4/split/split_dim", "shape": [], "dtype": "int32"}, {"name": "model_190/tf.strided_slice_78/ones_like/tensor", "shape": [4], "dtype": "int32"}, {"name": "model_190/tf.strided_slice_78/StridedSlice/end", "shape": [4], "dtype": "int32"}, {"name": "model_190/tf.strided_slice_78/ones_like", "shape": [4], "dtype": "int32"}, {"name": "model_190/tf.nn.convolution_1325/convolution/filter", "shape": [1, 1, 384, 192], "dtype": "float32"}, {"name": "model_190/tf.math.add_619/Add/y", "shape": [192], "dtype": "float32"}, {"name": "model_190/tf.nn.convolution_1327/convolution/filter", "shape": [3, 3, 192, 192], "dtype": "float32"}, {"name": "model_190/tf.math.add_621/Add/y", "shape": [192], "dtype": "float32"}, {"name": "model_190/tf.nn.convolution_1328/convolution/filter", "shape": [3, 3, 192, 192], "dtype": "float32"}, {"name": "model_190/tf.math.add_622/Add/y", "shape": [192], "dtype": "float32"}, {"name": "model_190/tf.nn.convolution_1329/convolution/filter", "shape": [3, 3, 192, 192], "dtype": "float32"}, {"name": "model_190/tf.math.add_625/Add/y", "shape": [192], "dtype": "float32"}, {"name": "model_190/tf.nn.convolution_1330/convolution/filter", "shape": [3, 3, 192, 192], "dtype": "float32"}, {"name": "model_190/tf.math.add_626/Add/y", "shape": [192], "dtype": "float32"}, {"name": "model_190/tf.nn.convolution_1318/convolution/filter", "shape": [1, 1, 384, 192], "dtype": "float32"}, {"name": "model_190/tf.math.add_608/Add/y", "shape": [192], "dtype": "float32"}, {"name": "model_190/tf.nn.convolution_1320/convolution/filter", "shape": [3, 3, 192, 192], "dtype": "float32"}, {"name": "model_190/tf.math.add_610/Add/y", "shape": [192], "dtype": "float32"}, {"name": "model_190/tf.nn.convolution_1321/convolution/filter", "shape": [3, 3, 192, 192], "dtype": "float32"}, {"name": "model_190/tf.math.add_611/Add/y", "shape": [192], "dtype": "float32"}, {"name": "model_190/tf.nn.convolution_1322/convolution/filter", "shape": [3, 3, 192, 192], "dtype": "float32"}, {"name": "model_190/tf.math.add_614/Add/y", "shape": [192], "dtype": "float32"}, {"name": "model_190/tf.nn.convolution_1323/convolution/filter", "shape": [3, 3, 192, 192], "dtype": "float32"}, {"name": "model_190/tf.math.add_615/Add/y", "shape": [192], "dtype": "float32"}, {"name": "model_190/tf.compat.v1.pad_25/Pad/paddings", "shape": [4, 2], "dtype": "int32"}, {"name": "model_190/tf.nn.convolution_1316/convolution/filter", "shape": [3, 3, 768, 768], "dtype": "float32"}, {"name": "model_190/tf.math.add_606/Add/y", "shape": [768], "dtype": "float32"}, {"name": "model_190/tf.nn.convolution_1317/convolution/filter", "shape": [1, 1, 768, 768], "dtype": "float32"}, {"name": "model_190/tf.math.add_607/Add/y", "shape": [768], "dtype": "float32"}, {"name": "model_190/tf.strided_slice_79/ones_like/tensor", "shape": [4], "dtype": "int32"}, {"name": "model_190/tf.strided_slice_79/StridedSlice/end", "shape": [4], "dtype": "int32"}, {"name": "model_190/tf.strided_slice_79/ones_like", "shape": [4], "dtype": "int32"}, {"name": "model_190/tf.nn.convolution_1319/convolution/filter", "shape": [1, 1, 384, 192], "dtype": "float32"}, {"name": "model_190/tf.math.add_609/Add/y", "shape": [192], "dtype": "float32"}, {"name": "model_190/tf.concat_101/concat/axis", "shape": [], "dtype": "int32"}, {"name": "model_190/tf.nn.convolution_1324/convolution/filter", "shape": [1, 1, 384, 384], "dtype": "float32"}, {"name": "model_190/tf.math.add_618/Add/y", "shape": [384], "dtype": "float32"}, {"name": "model_190/tf.nn.convolution_1326/convolution/filter", "shape": [1, 1, 384, 192], "dtype": "float32"}, {"name": "model_190/tf.math.add_620/Add/y", "shape": [192], "dtype": "float32"}, {"name": "model_190/tf.concat_102/concat/axis", "shape": [], "dtype": "int32"}, {"name": "model_190/tf.nn.convolution_1331/convolution/filter", "shape": [1, 1, 384, 384], "dtype": "float32"}, {"name": "model_190/tf.math.add_629/Add/y", "shape": [384], "dtype": "float32"}, {"name": "model_190/tf.concat_103/concat/axis", "shape": [], "dtype": "int32"}, {"name": "model_190/tf.nn.convolution_1332/convolution/filter", "shape": [1, 1, 1536, 768], "dtype": "float32"}, {"name": "model_190/tf.math.add_630/Add/y", "shape": [768], "dtype": "float32"}, {"name": "model_190/tf.nn.convolution_1333/convolution/filter", "shape": [1, 1, 768, 384], "dtype": "float32"}, {"name": "model_190/tf.math.add_631/Add/y", "shape": [384], "dtype": "float32"}, {"name": "model_190/tf.concat_104/concat/axis", "shape": [], "dtype": "int32"}, {"name": "model_190/tf.nn.convolution_1334/convolution/filter", "shape": [1, 1, 1536, 768], "dtype": "float32"}, {"name": "model_190/tf.math.add_632/Add/y", "shape": [768], "dtype": "float32"}, {"name": "model_190/tf.nn.convolution_1335/convolution/filter", "shape": [1, 1, 768, 768], "dtype": "float32"}, {"name": "model_190/tf.math.add_633/Add/y", "shape": [768], "dtype": "float32"}, {"name": "model_190/tf.strided_slice_81/StridedSlice/begin", "shape": [4], "dtype": "int32"}, {"name": "model_190/tf.strided_slice_81/StridedSlice/end", "shape": [4], "dtype": "int32"}, {"name": "model_190/tf.strided_slice_81/ones_like", "shape": [4], "dtype": "int32"}, {"name": "model_190/tf.nn.convolution_1336/convolution/filter", "shape": [1, 1, 384, 768], "dtype": "float32"}, {"name": "model_190/tf.math.add_634/Add/y", "shape": [768], "dtype": "float32"}, {"name": "model_190/tf.compat.v1.transpose_751/transpose/perm", "shape": [4], "dtype": "int32"}, {"name": "model_190/tf.reshape_137/Reshape/shape", "shape": [4], "dtype": "int32"}, {"name": "model_190/tf.strided_slice_84/StridedSlice/begin", "shape": [4], "dtype": "int32"}, {"name": "model_190/tf.strided_slice_84/StridedSlice/end", "shape": [4], "dtype": "int32"}, {"name": "model_190/tf.strided_slice_84/ones_like", "shape": [4], "dtype": "int32"}, {"name": "model_190/tf.reshape_140/Reshape/shape", "shape": [4], "dtype": "int32"}, {"name": "model_190/tf.compat.v1.transpose_759/transpose/perm", "shape": [4], "dtype": "int32"}, {"name": "model_190/tf.nn.convolution_1720/convolution/filter", "shape": [3, 3, 1, 1], "dtype": "float32"}, {"name": "model_190/tf.concat_105/concat/axis", "shape": [], "dtype": "int32"}, {"name": "model_190/tf.nn.convolution_1721/convolution/filter", "shape": [1, 1, 384, 384], "dtype": "float32"}, {"name": "model_190/tf.math.add_638/Add/y", "shape": [384], "dtype": "float32"}, {"name": "model_190/tf.nn.convolution_1722/convolution/filter", "shape": [1, 1, 384, 768], "dtype": "float32"}, {"name": "model_190/tf.math.add_641/Add/y", "shape": [768], "dtype": "float32"}, {"name": "model_190/tf.nn.convolution_1723/convolution/filter", "shape": [1, 1, 768, 384], "dtype": "float32"}, {"name": "model_190/tf.nn.convolution_1724/convolution/filter", "shape": [1, 1, 384, 768], "dtype": "float32"}, {"name": "model_190/tf.math.add_645/Add/y", "shape": [768], "dtype": "float32"}, {"name": "model_190/tf.compat.v1.transpose_773/transpose/perm", "shape": [4], "dtype": "int32"}, {"name": "model_190/tf.reshape_146/Reshape/shape", "shape": [4], "dtype": "int32"}, {"name": "model_190/tf.strided_slice_87/StridedSlice/begin", "shape": [4], "dtype": "int32"}, {"name": "model_190/tf.strided_slice_87/StridedSlice/end", "shape": [4], "dtype": "int32"}, {"name": "model_190/tf.strided_slice_87/ones_like", "shape": [4], "dtype": "int32"}, {"name": "model_190/tf.reshape_149/Reshape/shape", "shape": [4], "dtype": "int32"}, {"name": "model_190/tf.compat.v1.transpose_781/transpose/perm", "shape": [4], "dtype": "int32"}, {"name": "model_190/tf.nn.convolution_2108/convolution/filter", "shape": [3, 3, 1, 1], "dtype": "float32"}, {"name": "model_190/tf.concat_106/concat/axis", "shape": [], "dtype": "int32"}, {"name": "model_190/tf.nn.convolution_2109/convolution/filter", "shape": [1, 1, 384, 384], "dtype": "float32"}, {"name": "model_190/tf.nn.convolution_2110/convolution/filter", "shape": [1, 1, 384, 768], "dtype": "float32"}, {"name": "model_190/tf.math.add_652/Add/y", "shape": [768], "dtype": "float32"}, {"name": "model_190/tf.nn.convolution_2111/convolution/filter", "shape": [1, 1, 768, 384], "dtype": "float32"}, {"name": "model_190/tf.concat_107/concat/axis", "shape": [], "dtype": "int32"}, {"name": "model_190/tf.nn.convolution_2112/convolution/filter", "shape": [1, 1, 768, 768], "dtype": "float32"}, {"name": "model_190/tf.math.add_656/Add/y", "shape": [768], "dtype": "float32"}, {"name": "model_190/tf.image.resize_6/resize/size", "shape": [2], "dtype": "int32"}, {"name": "model_190/tf.strided_slice_76/ones_like/tensor", "shape": [4], "dtype": "int32"}, {"name": "model_190/tf.strided_slice_76/StridedSlice/end", "shape": [4], "dtype": "int32"}, {"name": "model_190/tf.strided_slice_76/ones_like", "shape": [4], "dtype": "int32"}, {"name": "model_190/tf.nn.convolution_1308/convolution/filter", "shape": [1, 1, 384, 192], "dtype": "float32"}, {"name": "model_190/tf.math.add_594/Add/y", "shape": [192], "dtype": "float32"}, {"name": "model_190/tf.nn.convolution_1310/convolution/filter", "shape": [3, 3, 192, 192], "dtype": "float32"}, {"name": "model_190/tf.math.add_596/Add/y", "shape": [192], "dtype": "float32"}, {"name": "model_190/tf.nn.convolution_1311/convolution/filter", "shape": [3, 3, 192, 192], "dtype": "float32"}, {"name": "model_190/tf.math.add_597/Add/y", "shape": [192], "dtype": "float32"}, {"name": "model_190/tf.nn.convolution_1312/convolution/filter", "shape": [3, 3, 192, 192], "dtype": "float32"}, {"name": "model_190/tf.math.add_600/Add/y", "shape": [192], "dtype": "float32"}, {"name": "model_190/tf.nn.convolution_1313/convolution/filter", "shape": [3, 3, 192, 192], "dtype": "float32"}, {"name": "model_190/tf.math.add_601/Add/y", "shape": [192], "dtype": "float32"}, {"name": "model_190/tf.nn.convolution_1301/convolution/filter", "shape": [1, 1, 384, 192], "dtype": "float32"}, {"name": "model_190/tf.math.add_583/Add/y", "shape": [192], "dtype": "float32"}, {"name": "model_190/tf.nn.convolution_1303/convolution/filter", "shape": [3, 3, 192, 192], "dtype": "float32"}, {"name": "model_190/tf.math.add_585/Add/y", "shape": [192], "dtype": "float32"}, {"name": "model_190/tf.nn.convolution_1304/convolution/filter", "shape": [3, 3, 192, 192], "dtype": "float32"}, {"name": "model_190/tf.math.add_586/Add/y", "shape": [192], "dtype": "float32"}, {"name": "model_190/tf.nn.convolution_1305/convolution/filter", "shape": [3, 3, 192, 192], "dtype": "float32"}, {"name": "model_190/tf.math.add_589/Add/y", "shape": [192], "dtype": "float32"}, {"name": "model_190/tf.nn.convolution_1306/convolution/filter", "shape": [3, 3, 192, 192], "dtype": "float32"}, {"name": "model_190/tf.math.add_590/Add/y", "shape": [192], "dtype": "float32"}, {"name": "model_190/tf.compat.v1.pad_24/Pad/paddings", "shape": [4, 2], "dtype": "int32"}, {"name": "model_190/tf.nn.convolution_1299/convolution/filter", "shape": [3, 3, 768, 768], "dtype": "float32"}, {"name": "model_190/tf.math.add_581/Add/y", "shape": [768], "dtype": "float32"}, {"name": "model_190/tf.nn.convolution_1300/convolution/filter", "shape": [1, 1, 768, 768], "dtype": "float32"}, {"name": "model_190/tf.math.add_582/Add/y", "shape": [768], "dtype": "float32"}, {"name": "model_190/tf.strided_slice_77/ones_like/tensor", "shape": [4], "dtype": "int32"}, {"name": "model_190/tf.strided_slice_77/StridedSlice/end", "shape": [4], "dtype": "int32"}, {"name": "model_190/tf.strided_slice_77/ones_like", "shape": [4], "dtype": "int32"}, {"name": "model_190/tf.nn.convolution_1302/convolution/filter", "shape": [1, 1, 384, 192], "dtype": "float32"}, {"name": "model_190/tf.math.add_584/Add/y", "shape": [192], "dtype": "float32"}, {"name": "model_190/tf.concat_98/concat/axis", "shape": [], "dtype": "int32"}, {"name": "model_190/tf.nn.convolution_1307/convolution/filter", "shape": [1, 1, 384, 384], "dtype": "float32"}, {"name": "model_190/tf.math.add_593/Add/y", "shape": [384], "dtype": "float32"}, {"name": "model_190/tf.nn.convolution_1309/convolution/filter", "shape": [1, 1, 384, 192], "dtype": "float32"}, {"name": "model_190/tf.math.add_595/Add/y", "shape": [192], "dtype": "float32"}, {"name": "model_190/tf.concat_99/concat/axis", "shape": [], "dtype": "int32"}, {"name": "model_190/tf.nn.convolution_1314/convolution/filter", "shape": [1, 1, 384, 384], "dtype": "float32"}, {"name": "model_190/tf.math.add_604/Add/y", "shape": [384], "dtype": "float32"}, {"name": "model_190/tf.concat_100/concat/axis", "shape": [], "dtype": "int32"}, {"name": "model_190/tf.nn.convolution_1315/convolution/filter", "shape": [1, 1, 1536, 768], "dtype": "float32"}, {"name": "model_190/tf.math.add_605/Add/y", "shape": [768], "dtype": "float32"}, {"name": "model_190/tf.concat_108/concat/axis", "shape": [], "dtype": "int32"}, {"name": "model_190/tf.nn.convolution_2113/convolution/filter", "shape": [1, 1, 1536, 768], "dtype": "float32"}, {"name": "model_190/tf.math.add_657/Add/y", "shape": [768], "dtype": "float32"}, {"name": "model_190/tf.strided_slice_89/ones_like/tensor", "shape": [4], "dtype": "int32"}, {"name": "model_190/tf.strided_slice_89/StridedSlice/end", "shape": [4], "dtype": "int32"}, {"name": "model_190/tf.strided_slice_89/ones_like", "shape": [4], "dtype": "int32"}, {"name": "model_190/tf.nn.convolution_2115/convolution/filter", "shape": [1, 1, 384, 192], "dtype": "float32"}, {"name": "model_190/tf.math.add_659/Add/y", "shape": [192], "dtype": "float32"}, {"name": "model_190/tf.concat_109/concat/axis", "shape": [], "dtype": "int32"}, {"name": "model_190/tf.nn.convolution_2120/convolution/filter", "shape": [1, 1, 384, 384], "dtype": "float32"}, {"name": "model_190/tf.math.add_668/Add/y", "shape": [384], "dtype": "float32"}, {"name": "model_190/tf.nn.convolution_2122/convolution/filter", "shape": [1, 1, 384, 192], "dtype": "float32"}, {"name": "model_190/tf.math.add_670/Add/y", "shape": [192], "dtype": "float32"}, {"name": "model_190/tf.concat_110/concat/axis", "shape": [], "dtype": "int32"}, {"name": "model_190/tf.nn.convolution_2127/convolution/filter", "shape": [1, 1, 384, 384], "dtype": "float32"}, {"name": "model_190/tf.math.add_679/Add/y", "shape": [384], "dtype": "float32"}, {"name": "model_190/tf.concat_111/concat/axis", "shape": [], "dtype": "int32"}, {"name": "model_190/tf.nn.convolution_2128/convolution/filter", "shape": [1, 1, 1536, 768], "dtype": "float32"}, {"name": "model_190/tf.math.add_680/Add/y", "shape": [768], "dtype": "float32"}, {"name": "model_190/tf.image.resize_7/resize/size", "shape": [2], "dtype": "int32"}, {"name": "model_190/tf.strided_slice_74/ones_like/tensor", "shape": [4], "dtype": "int32"}, {"name": "model_190/tf.strided_slice_74/StridedSlice/end", "shape": [4], "dtype": "int32"}, {"name": "model_190/tf.strided_slice_74/ones_like", "shape": [4], "dtype": "int32"}, {"name": "model_190/tf.nn.convolution_1291/convolution/filter", "shape": [1, 1, 192, 96], "dtype": "float32"}, {"name": "model_190/tf.math.add_569/Add/y", "shape": [96], "dtype": "float32"}, {"name": "model_190/tf.nn.convolution_1293/convolution/filter", "shape": [3, 3, 96, 96], "dtype": "float32"}, {"name": "model_190/tf.math.add_571/Add/y", "shape": [96], "dtype": "float32"}, {"name": "model_190/tf.nn.convolution_1294/convolution/filter", "shape": [3, 3, 96, 96], "dtype": "float32"}, {"name": "model_190/tf.math.add_572/Add/y", "shape": [96], "dtype": "float32"}, {"name": "model_190/tf.nn.convolution_1295/convolution/filter", "shape": [3, 3, 96, 96], "dtype": "float32"}, {"name": "model_190/tf.math.add_575/Add/y", "shape": [96], "dtype": "float32"}, {"name": "model_190/tf.nn.convolution_1296/convolution/filter", "shape": [3, 3, 96, 96], "dtype": "float32"}, {"name": "model_190/tf.math.add_576/Add/y", "shape": [96], "dtype": "float32"}, {"name": "model_190/tf.nn.convolution_1284/convolution/filter", "shape": [1, 1, 192, 96], "dtype": "float32"}, {"name": "model_190/tf.math.add_558/Add/y", "shape": [96], "dtype": "float32"}, {"name": "model_190/tf.nn.convolution_1286/convolution/filter", "shape": [3, 3, 96, 96], "dtype": "float32"}, {"name": "model_190/tf.math.add_560/Add/y", "shape": [96], "dtype": "float32"}, {"name": "model_190/tf.nn.convolution_1287/convolution/filter", "shape": [3, 3, 96, 96], "dtype": "float32"}, {"name": "model_190/tf.math.add_561/Add/y", "shape": [96], "dtype": "float32"}, {"name": "model_190/tf.nn.convolution_1288/convolution/filter", "shape": [3, 3, 96, 96], "dtype": "float32"}, {"name": "model_190/tf.math.add_564/Add/y", "shape": [96], "dtype": "float32"}, {"name": "model_190/tf.nn.convolution_1289/convolution/filter", "shape": [3, 3, 96, 96], "dtype": "float32"}, {"name": "model_190/tf.math.add_565/Add/y", "shape": [96], "dtype": "float32"}, {"name": "model_190/tf.strided_slice_72/ones_like/tensor", "shape": [4], "dtype": "int32"}, {"name": "model_190/tf.strided_slice_72/StridedSlice/end", "shape": [4], "dtype": "int32"}, {"name": "model_190/tf.strided_slice_72/ones_like", "shape": [4], "dtype": "int32"}, {"name": "model_190/tf.nn.convolution_1274/convolution/filter", "shape": [1, 1, 96, 48], "dtype": "float32"}, {"name": "model_190/tf.math.add_544/Add/y", "shape": [48], "dtype": "float32"}, {"name": "model_190/tf.nn.convolution_1276/convolution/filter", "shape": [3, 3, 48, 48], "dtype": "float32"}, {"name": "model_190/tf.math.add_546/Add/y", "shape": [48], "dtype": "float32"}, {"name": "model_190/tf.nn.convolution_1277/convolution/filter", "shape": [3, 3, 48, 48], "dtype": "float32"}, {"name": "model_190/tf.math.add_547/Add/y", "shape": [48], "dtype": "float32"}, {"name": "model_190/tf.nn.convolution_1278/convolution/filter", "shape": [3, 3, 48, 48], "dtype": "float32"}, {"name": "model_190/tf.math.add_550/Add/y", "shape": [48], "dtype": "float32"}, {"name": "model_190/tf.nn.convolution_1279/convolution/filter", "shape": [3, 3, 48, 48], "dtype": "float32"}, {"name": "model_190/tf.math.add_551/Add/y", "shape": [48], "dtype": "float32"}, {"name": "model_190/tf.nn.convolution_1267/convolution/filter", "shape": [1, 1, 96, 48], "dtype": "float32"}, {"name": "model_190/tf.math.add_533/Add/y", "shape": [48], "dtype": "float32"}, {"name": "model_190/tf.nn.convolution_1269/convolution/filter", "shape": [3, 3, 48, 48], "dtype": "float32"}, {"name": "model_190/tf.math.add_535/Add/y", "shape": [48], "dtype": "float32"}, {"name": "model_190/tf.nn.convolution_1270/convolution/filter", "shape": [3, 3, 48, 48], "dtype": "float32"}, {"name": "model_190/tf.math.add_536/Add/y", "shape": [48], "dtype": "float32"}, {"name": "model_190/tf.nn.convolution_1271/convolution/filter", "shape": [3, 3, 48, 48], "dtype": "float32"}, {"name": "model_190/tf.math.add_539/Add/y", "shape": [48], "dtype": "float32"}, {"name": "model_190/tf.nn.convolution_1272/convolution/filter", "shape": [3, 3, 48, 48], "dtype": "float32"}, {"name": "model_190/tf.math.add_540/Add/y", "shape": [48], "dtype": "float32"}, {"name": "model_190/tf.compat.v1.pad_21/Pad/paddings", "shape": [4, 2], "dtype": "int32"}, {"name": "model_190/tf.nn.convolution_1264/convolution/filter", "shape": [3, 3, 3, 96], "dtype": "float32"}, {"name": "model_190/tf.math.add_530/Add/y", "shape": [96], "dtype": "float32"}, {"name": "model_190/tf.compat.v1.pad_22/Pad/paddings", "shape": [4, 2], "dtype": "int32"}, {"name": "model_190/tf.nn.convolution_1265/convolution/filter", "shape": [3, 3, 96, 192], "dtype": "float32"}, {"name": "model_190/tf.math.add_531/Add/y", "shape": [192], "dtype": "float32"}, {"name": "model_190/tf.nn.convolution_1266/convolution/filter", "shape": [1, 1, 192, 192], "dtype": "float32"}, {"name": "model_190/tf.math.add_532/Add/y", "shape": [192], "dtype": "float32"}, {"name": "model_190/tf.strided_slice_73/ones_like/tensor", "shape": [4], "dtype": "int32"}, {"name": "model_190/tf.strided_slice_73/StridedSlice/end", "shape": [4], "dtype": "int32"}, {"name": "model_190/tf.strided_slice_73/ones_like", "shape": [4], "dtype": "int32"}, {"name": "model_190/tf.nn.convolution_1268/convolution/filter", "shape": [1, 1, 96, 48], "dtype": "float32"}, {"name": "model_190/tf.math.add_534/Add/y", "shape": [48], "dtype": "float32"}, {"name": "model_190/tf.concat_92/concat/axis", "shape": [], "dtype": "int32"}, {"name": "model_190/tf.nn.convolution_1273/convolution/filter", "shape": [1, 1, 96, 96], "dtype": "float32"}, {"name": "model_190/tf.math.add_543/Add/y", "shape": [96], "dtype": "float32"}, {"name": "model_190/tf.nn.convolution_1275/convolution/filter", "shape": [1, 1, 96, 48], "dtype": "float32"}, {"name": "model_190/tf.math.add_545/Add/y", "shape": [48], "dtype": "float32"}, {"name": "model_190/tf.concat_93/concat/axis", "shape": [], "dtype": "int32"}, {"name": "model_190/tf.nn.convolution_1280/convolution/filter", "shape": [1, 1, 96, 96], "dtype": "float32"}, {"name": "model_190/tf.math.add_554/Add/y", "shape": [96], "dtype": "float32"}, {"name": "model_190/tf.concat_94/concat/axis", "shape": [], "dtype": "int32"}, {"name": "model_190/tf.nn.convolution_1281/convolution/filter", "shape": [1, 1, 384, 384], "dtype": "float32"}, {"name": "model_190/tf.math.add_555/Add/y", "shape": [384], "dtype": "float32"}, {"name": "model_190/tf.compat.v1.pad_23/Pad/paddings", "shape": [4, 2], "dtype": "int32"}, {"name": "model_190/tf.nn.convolution_1282/convolution/filter", "shape": [3, 3, 384, 384], "dtype": "float32"}, {"name": "model_190/tf.math.add_556/Add/y", "shape": [384], "dtype": "float32"}, {"name": "model_190/tf.nn.convolution_1283/convolution/filter", "shape": [1, 1, 384, 384], "dtype": "float32"}, {"name": "model_190/tf.math.add_557/Add/y", "shape": [384], "dtype": "float32"}, {"name": "model_190/tf.strided_slice_75/ones_like/tensor", "shape": [4], "dtype": "int32"}, {"name": "model_190/tf.strided_slice_75/StridedSlice/end", "shape": [4], "dtype": "int32"}, {"name": "model_190/tf.strided_slice_75/ones_like", "shape": [4], "dtype": "int32"}, {"name": "model_190/tf.nn.convolution_1285/convolution/filter", "shape": [1, 1, 192, 96], "dtype": "float32"}, {"name": "model_190/tf.math.add_559/Add/y", "shape": [96], "dtype": "float32"}, {"name": "model_190/tf.concat_95/concat/axis", "shape": [], "dtype": "int32"}, {"name": "model_190/tf.nn.convolution_1290/convolution/filter", "shape": [1, 1, 192, 192], "dtype": "float32"}, {"name": "model_190/tf.math.add_568/Add/y", "shape": [192], "dtype": "float32"}, {"name": "model_190/tf.nn.convolution_1292/convolution/filter", "shape": [1, 1, 192, 96], "dtype": "float32"}, {"name": "model_190/tf.math.add_570/Add/y", "shape": [96], "dtype": "float32"}, {"name": "model_190/tf.concat_96/concat/axis", "shape": [], "dtype": "int32"}, {"name": "model_190/tf.nn.convolution_1297/convolution/filter", "shape": [1, 1, 192, 192], "dtype": "float32"}, {"name": "model_190/tf.math.add_579/Add/y", "shape": [192], "dtype": "float32"}, {"name": "model_190/tf.concat_97/concat/axis", "shape": [], "dtype": "int32"}, {"name": "model_190/tf.nn.convolution_1298/convolution/filter", "shape": [1, 1, 768, 768], "dtype": "float32"}, {"name": "model_190/tf.math.add_580/Add/y", "shape": [768], "dtype": "float32"}, {"name": "model_190/tf.concat_112/concat/axis", "shape": [], "dtype": "int32"}, {"name": "model_190/tf.nn.convolution_2129/convolution/filter", "shape": [1, 1, 1536, 384], "dtype": "float32"}, {"name": "model_190/tf.math.add_681/Add/y", "shape": [384], "dtype": "float32"}, {"name": "model_190/tf.strided_slice_91/ones_like/tensor", "shape": [4], "dtype": "int32"}, {"name": "model_190/tf.strided_slice_91/StridedSlice/end", "shape": [4], "dtype": "int32"}, {"name": "model_190/tf.strided_slice_91/ones_like", "shape": [4], "dtype": "int32"}, {"name": "model_190/tf.nn.convolution_2131/convolution/filter", "shape": [1, 1, 192, 96], "dtype": "float32"}, {"name": "model_190/tf.math.add_683/Add/y", "shape": [96], "dtype": "float32"}, {"name": "model_190/tf.concat_113/concat/axis", "shape": [], "dtype": "int32"}, {"name": "model_190/tf.nn.convolution_2136/convolution/filter", "shape": [1, 1, 192, 192], "dtype": "float32"}, {"name": "model_190/tf.math.add_692/Add/y", "shape": [192], "dtype": "float32"}, {"name": "model_190/tf.nn.convolution_2138/convolution/filter", "shape": [1, 1, 192, 96], "dtype": "float32"}, {"name": "model_190/tf.math.add_694/Add/y", "shape": [96], "dtype": "float32"}, {"name": "model_190/tf.concat_114/concat/axis", "shape": [], "dtype": "int32"}, {"name": "model_190/tf.nn.convolution_2143/convolution/filter", "shape": [1, 1, 192, 192], "dtype": "float32"}, {"name": "model_190/tf.math.add_703/Add/y", "shape": [192], "dtype": "float32"}, {"name": "model_190/tf.concat_115/concat/axis", "shape": [], "dtype": "int32"}, {"name": "model_190/tf.nn.convolution_2144/convolution/filter", "shape": [1, 1, 768, 384], "dtype": "float32"}, {"name": "model_190/tf.math.add_704/Add/y", "shape": [384], "dtype": "float32"}, {"name": "model_190/tf.nn.convolution_2148/convolution/filter", "shape": [3, 3, 384, 384], "dtype": "float32"}, {"name": "model_190/tf.math.add_709/Add/y", "shape": [384], "dtype": "float32"}, {"name": "model_190/tf.math.add_713/Add/y", "shape": [384], "dtype": "float32"}, {"name": "model_190/tf.nn.convolution_2153/convolution/filter", "shape": [3, 3, 384, 384], "dtype": "float32"}, {"name": "model_190/tf.math.add_715/Add/y", "shape": [384], "dtype": "float32"}, {"name": "model_190/tf.nn.convolution_2156/convolution/filter", "shape": [1, 1, 384, 32], "dtype": "float32"}, {"name": "model_190/tf.math.add_719/Add/y", "shape": [32], "dtype": "float32"}]}]}