{"format": "graph-model", "generatedBy": "2.19.0", "convertedBy": "TensorFlow.js Converter v4.22.0", "signature": {"outputs": {"Identity:0": {"name": "Identity:0"}, "Identity_1:0": {"name": "Identity_1:0"}}}, "modelTopology": {"node": [{"name": "ConstantFolding/model_86/tf.math.divide_1/truediv_recip", "op": "Const", "attr": {"value": {"tensor": {"dtype": "DT_FLOAT", "tensorShape": {}}}, "dtype": {"type": "DT_FLOAT"}}}, {"name": "model_86/tf.strided_slice_45/ones_like/tensor", "op": "Const", "attr": {"value": {"tensor": {"dtype": "DT_INT64", "tensorShape": {"dim": [{"size": "3"}]}}}, "dtype": {"type": "DT_INT64"}}}, {"name": "model_86/tf.strided_slice_45/StridedSlice/end", "op": "Const", "attr": {"value": {"tensor": {"dtype": "DT_INT64", "tensorShape": {"dim": [{"size": "3"}]}}}, "dtype": {"type": "DT_INT64"}}}, {"name": "model_86/tf.strided_slice_45/ones_like", "op": "Const", "attr": {"value": {"tensor": {"dtype": "DT_INT64", "tensorShape": {"dim": [{"size": "3"}]}}}, "dtype": {"type": "DT_INT64"}}}, {"name": "model_86/tf.math.add_264/Add/y", "op": "Const", "attr": {"value": {"tensor": {"dtype": "DT_FLOAT", "tensorShape": {"dim": [{"size": "1"}, {"size": "2"}, {"size": "8400"}]}}}, "dtype": {"type": "DT_FLOAT"}}}, {"name": "model_86/80391", "op": "Const", "attr": {"value": {"tensor": {"dtype": "DT_FLOAT", "tensorShape": {"dim": [{"size": "1"}, {"size": "2"}, {"size": "8400"}]}}}, "dtype": {"type": "DT_FLOAT"}}}, {"name": "model_86/tf.nn.convolution_525/convolution/filter", "op": "Const", "attr": {"value": {"tensor": {"dtype": "DT_FLOAT", "tensorShape": {"dim": [{"size": "3"}, {"size": "3"}, {"size": "64"}, {"size": "64"}]}}}, "dtype": {"type": "DT_FLOAT"}}}, {"name": "model_86/tf.math.add_201/Add/y", "op": "Const", "attr": {"value": {"tensor": {"dtype": "DT_FLOAT", "tensorShape": {"dim": [{"size": "64"}]}}}, "dtype": {"type": "DT_FLOAT"}}}, {"name": "model_86/tf.nn.convolution_528/convolution/filter", "op": "Const", "attr": {"value": {"tensor": {"dtype": "DT_FLOAT", "tensorShape": {"dim": [{"size": "3"}, {"size": "3"}, {"size": "64"}, {"size": "64"}]}}}, "dtype": {"type": "DT_FLOAT"}}}, {"name": "model_86/tf.math.add_205/Add/y", "op": "Const", "attr": {"value": {"tensor": {"dtype": "DT_FLOAT", "tensorShape": {"dim": [{"size": "64"}]}}}, "dtype": {"type": "DT_FLOAT"}}}, {"name": "model_86/tf.nn.convolution_533/convolution/filter", "op": "Const", "attr": {"value": {"tensor": {"dtype": "DT_FLOAT", "tensorShape": {"dim": [{"size": "1"}, {"size": "1"}, {"size": "64"}, {"size": "64"}]}}}, "dtype": {"type": "DT_FLOAT"}}}, {"name": "model_86/tf.math.add_211/Add/y", "op": "Const", "attr": {"value": {"tensor": {"dtype": "DT_FLOAT", "tensorShape": {"dim": [{"size": "64"}]}}}, "dtype": {"type": "DT_FLOAT"}}}, {"name": "model_86/tf.compat.v1.transpose_264/transpose/perm", "op": "Const", "attr": {"value": {"tensor": {"dtype": "DT_INT32", "tensorShape": {"dim": [{"size": "4"}]}}}, "dtype": {"type": "DT_INT32"}}}, {"name": "model_86/tf.reshape_53/Reshape/shape", "op": "Const", "attr": {"value": {"tensor": {"dtype": "DT_INT32", "tensorShape": {"dim": [{"size": "3"}]}}}, "dtype": {"type": "DT_INT32"}}}, {"name": "model_86/tf.nn.convolution_546/convolution/filter", "op": "Const", "attr": {"value": {"tensor": {"dtype": "DT_FLOAT", "tensorShape": {"dim": [{"size": "3"}, {"size": "3"}, {"size": "128"}, {"size": "64"}]}}}, "dtype": {"type": "DT_FLOAT"}}}, {"name": "model_86/tf.math.add_229/Add/y", "op": "Const", "attr": {"value": {"tensor": {"dtype": "DT_FLOAT", "tensorShape": {"dim": [{"size": "64"}]}}}, "dtype": {"type": "DT_FLOAT"}}}, {"name": "model_86/tf.nn.convolution_548/convolution/filter", "op": "Const", "attr": {"value": {"tensor": {"dtype": "DT_FLOAT", "tensorShape": {"dim": [{"size": "3"}, {"size": "3"}, {"size": "64"}, {"size": "64"}]}}}, "dtype": {"type": "DT_FLOAT"}}}, {"name": "model_86/tf.math.add_232/Add/y", "op": "Const", "attr": {"value": {"tensor": {"dtype": "DT_FLOAT", "tensorShape": {"dim": [{"size": "64"}]}}}, "dtype": {"type": "DT_FLOAT"}}}, {"name": "model_86/tf.nn.convolution_552/convolution/filter", "op": "Const", "attr": {"value": {"tensor": {"dtype": "DT_FLOAT", "tensorShape": {"dim": [{"size": "1"}, {"size": "1"}, {"size": "64"}, {"size": "64"}]}}}, "dtype": {"type": "DT_FLOAT"}}}, {"name": "model_86/tf.math.add_236/Add/y", "op": "Const", "attr": {"value": {"tensor": {"dtype": "DT_FLOAT", "tensorShape": {"dim": [{"size": "64"}]}}}, "dtype": {"type": "DT_FLOAT"}}}, {"name": "model_86/tf.compat.v1.transpose_300/transpose/perm", "op": "Const", "attr": {"value": {"tensor": {"dtype": "DT_INT32", "tensorShape": {"dim": [{"size": "4"}]}}}, "dtype": {"type": "DT_INT32"}}}, {"name": "model_86/tf.reshape_62/Reshape/shape", "op": "Const", "attr": {"value": {"tensor": {"dtype": "DT_INT32", "tensorShape": {"dim": [{"size": "3"}]}}}, "dtype": {"type": "DT_INT32"}}}, {"name": "model_86/tf.nn.convolution_564/convolution/filter", "op": "Const", "attr": {"value": {"tensor": {"dtype": "DT_FLOAT", "tensorShape": {"dim": [{"size": "3"}, {"size": "3"}, {"size": "256"}, {"size": "64"}]}}}, "dtype": {"type": "DT_FLOAT"}}}, {"name": "model_86/tf.math.add_253/Add/y", "op": "Const", "attr": {"value": {"tensor": {"dtype": "DT_FLOAT", "tensorShape": {"dim": [{"size": "64"}]}}}, "dtype": {"type": "DT_FLOAT"}}}, {"name": "model_86/tf.nn.convolution_566/convolution/filter", "op": "Const", "attr": {"value": {"tensor": {"dtype": "DT_FLOAT", "tensorShape": {"dim": [{"size": "3"}, {"size": "3"}, {"size": "64"}, {"size": "64"}]}}}, "dtype": {"type": "DT_FLOAT"}}}, {"name": "model_86/tf.math.add_256/Add/y", "op": "Const", "attr": {"value": {"tensor": {"dtype": "DT_FLOAT", "tensorShape": {"dim": [{"size": "64"}]}}}, "dtype": {"type": "DT_FLOAT"}}}, {"name": "model_86/tf.nn.convolution_569/convolution/filter", "op": "Const", "attr": {"value": {"tensor": {"dtype": "DT_FLOAT", "tensorShape": {"dim": [{"size": "1"}, {"size": "1"}, {"size": "64"}, {"size": "64"}]}}}, "dtype": {"type": "DT_FLOAT"}}}, {"name": "model_86/tf.math.add_259/Add/y", "op": "Const", "attr": {"value": {"tensor": {"dtype": "DT_FLOAT", "tensorShape": {"dim": [{"size": "64"}]}}}, "dtype": {"type": "DT_FLOAT"}}}, {"name": "model_86/tf.compat.v1.transpose_333/transpose/perm", "op": "Const", "attr": {"value": {"tensor": {"dtype": "DT_INT32", "tensorShape": {"dim": [{"size": "4"}]}}}, "dtype": {"type": "DT_INT32"}}}, {"name": "model_86/tf.reshape_71/Reshape/shape", "op": "Const", "attr": {"value": {"tensor": {"dtype": "DT_INT32", "tensorShape": {"dim": [{"size": "3"}]}}}, "dtype": {"type": "DT_INT32"}}}, {"name": "model_86/tf.concat_44/concat/axis", "op": "Const", "attr": {"value": {"tensor": {"dtype": "DT_INT32", "tensorShape": {}}}, "dtype": {"type": "DT_INT32"}}}, {"name": "model_86/tf.reshape_77/Reshape/shape", "op": "Const", "attr": {"value": {"tensor": {"dtype": "DT_INT32", "tensorShape": {"dim": [{"size": "4"}]}}}, "dtype": {"type": "DT_INT32"}}}, {"name": "model_86/tf.compat.v1.transpose_346/transpose/perm", "op": "Const", "attr": {"value": {"tensor": {"dtype": "DT_INT32", "tensorShape": {"dim": [{"size": "4"}]}}}, "dtype": {"type": "DT_INT32"}}}, {"name": "model_86/tf.compat.v1.transpose_348/transpose/perm", "op": "Const", "attr": {"value": {"tensor": {"dtype": "DT_INT32", "tensorShape": {"dim": [{"size": "4"}]}}}, "dtype": {"type": "DT_INT32"}}}, {"name": "model_86/tf.nn.convolution_573/convolution/filter", "op": "Const", "attr": {"value": {"tensor": {"dtype": "DT_FLOAT", "tensorShape": {"dim": [{"size": "1"}, {"size": "1"}, {"size": "16"}, {"size": "1"}]}}}, "dtype": {"type": "DT_FLOAT"}}}, {"name": "model_86/tf.compat.v1.transpose_358/transpose/perm", "op": "Const", "attr": {"value": {"tensor": {"dtype": "DT_INT32", "tensorShape": {"dim": [{"size": "4"}]}}}, "dtype": {"type": "DT_INT32"}}}, {"name": "model_86/tf.reshape_83/Reshape/shape", "op": "Const", "attr": {"value": {"tensor": {"dtype": "DT_INT32", "tensorShape": {"dim": [{"size": "3"}]}}}, "dtype": {"type": "DT_INT32"}}}, {"name": "model_86/tf.strided_slice_44/ones_like/tensor", "op": "Const", "attr": {"value": {"tensor": {"dtype": "DT_INT64", "tensorShape": {"dim": [{"size": "3"}]}}}, "dtype": {"type": "DT_INT64"}}}, {"name": "model_86/tf.strided_slice_44/StridedSlice/end", "op": "Const", "attr": {"value": {"tensor": {"dtype": "DT_INT64", "tensorShape": {"dim": [{"size": "3"}]}}}, "dtype": {"type": "DT_INT64"}}}, {"name": "model_86/tf.strided_slice_44/ones_like", "op": "Const", "attr": {"value": {"tensor": {"dtype": "DT_INT64", "tensorShape": {"dim": [{"size": "3"}]}}}, "dtype": {"type": "DT_INT64"}}}, {"name": "model_86/tf.concat_50/concat/axis", "op": "Const", "attr": {"value": {"tensor": {"dtype": "DT_INT32", "tensorShape": {}}}, "dtype": {"type": "DT_INT32"}}}, {"name": "model_86/tf.math.multiply_775/Mul/y", "op": "Const", "attr": {"value": {"tensor": {"dtype": "DT_FLOAT", "tensorShape": {"dim": [{"size": "1"}, {"size": "1"}, {"size": "8400"}]}}}, "dtype": {"type": "DT_FLOAT"}}}, {"name": "model_86/tf.compat.v1.nn.depthwise_conv2d_6/depthwise/filter_in", "op": "Const", "attr": {"value": {"tensor": {"dtype": "DT_FLOAT", "tensorShape": {"dim": [{"size": "3"}, {"size": "3"}, {"size": "64"}, {"size": "1"}]}}}, "dtype": {"type": "DT_FLOAT"}}}, {"name": "model_86/tf.math.add_202/Add/y", "op": "Const", "attr": {"value": {"tensor": {"dtype": "DT_FLOAT", "tensorShape": {"dim": [{"size": "64"}]}}}, "dtype": {"type": "DT_FLOAT"}}}, {"name": "model_86/tf.nn.convolution_529/convolution/filter", "op": "Const", "attr": {"value": {"tensor": {"dtype": "DT_FLOAT", "tensorShape": {"dim": [{"size": "1"}, {"size": "1"}, {"size": "64"}, {"size": "80"}]}}}, "dtype": {"type": "DT_FLOAT"}}}, {"name": "model_86/tf.math.add_206/Add/y", "op": "Const", "attr": {"value": {"tensor": {"dtype": "DT_FLOAT", "tensorShape": {"dim": [{"size": "80"}]}}}, "dtype": {"type": "DT_FLOAT"}}}, {"name": "model_86/tf.compat.v1.nn.depthwise_conv2d_9/depthwise/filter_in", "op": "Const", "attr": {"value": {"tensor": {"dtype": "DT_FLOAT", "tensorShape": {"dim": [{"size": "3"}, {"size": "3"}, {"size": "80"}, {"size": "1"}]}}}, "dtype": {"type": "DT_FLOAT"}}}, {"name": "model_86/tf.math.add_214/Add/y", "op": "Const", "attr": {"value": {"tensor": {"dtype": "DT_FLOAT", "tensorShape": {"dim": [{"size": "80"}]}}}, "dtype": {"type": "DT_FLOAT"}}}, {"name": "model_86/tf.nn.convolution_539/convolution/filter", "op": "Const", "attr": {"value": {"tensor": {"dtype": "DT_FLOAT", "tensorShape": {"dim": [{"size": "1"}, {"size": "1"}, {"size": "80"}, {"size": "80"}]}}}, "dtype": {"type": "DT_FLOAT"}}}, {"name": "model_86/tf.math.add_220/Add/y", "op": "Const", "attr": {"value": {"tensor": {"dtype": "DT_FLOAT", "tensorShape": {"dim": [{"size": "80"}]}}}, "dtype": {"type": "DT_FLOAT"}}}, {"name": "model_86/tf.nn.convolution_543/convolution/filter", "op": "Const", "attr": {"value": {"tensor": {"dtype": "DT_FLOAT", "tensorShape": {"dim": [{"size": "1"}, {"size": "1"}, {"size": "80"}, {"size": "80"}]}}}, "dtype": {"type": "DT_FLOAT"}}}, {"name": "model_86/tf.math.add_224/Add/y", "op": "Const", "attr": {"value": {"tensor": {"dtype": "DT_FLOAT", "tensorShape": {"dim": [{"size": "80"}]}}}, "dtype": {"type": "DT_FLOAT"}}}, {"name": "model_86/tf.compat.v1.transpose_284/transpose/perm", "op": "Const", "attr": {"value": {"tensor": {"dtype": "DT_INT32", "tensorShape": {"dim": [{"size": "4"}]}}}, "dtype": {"type": "DT_INT32"}}}, {"name": "model_86/tf.reshape_59/Reshape/shape", "op": "Const", "attr": {"value": {"tensor": {"dtype": "DT_INT32", "tensorShape": {"dim": [{"size": "3"}]}}}, "dtype": {"type": "DT_INT32"}}}, {"name": "model_86/tf.compat.v1.nn.depthwise_conv2d_10/depthwise/filter_in", "op": "Const", "attr": {"value": {"tensor": {"dtype": "DT_FLOAT", "tensorShape": {"dim": [{"size": "3"}, {"size": "3"}, {"size": "128"}, {"size": "1"}]}}}, "dtype": {"type": "DT_FLOAT"}}}, {"name": "model_86/tf.math.add_230/Add/y", "op": "Const", "attr": {"value": {"tensor": {"dtype": "DT_FLOAT", "tensorShape": {"dim": [{"size": "128"}]}}}, "dtype": {"type": "DT_FLOAT"}}}, {"name": "model_86/tf.nn.convolution_549/convolution/filter", "op": "Const", "attr": {"value": {"tensor": {"dtype": "DT_FLOAT", "tensorShape": {"dim": [{"size": "1"}, {"size": "1"}, {"size": "128"}, {"size": "80"}]}}}, "dtype": {"type": "DT_FLOAT"}}}, {"name": "model_86/tf.math.add_233/Add/y", "op": "Const", "attr": {"value": {"tensor": {"dtype": "DT_FLOAT", "tensorShape": {"dim": [{"size": "80"}]}}}, "dtype": {"type": "DT_FLOAT"}}}, {"name": "model_86/tf.compat.v1.nn.depthwise_conv2d_11/depthwise/filter_in", "op": "Const", "attr": {"value": {"tensor": {"dtype": "DT_FLOAT", "tensorShape": {"dim": [{"size": "3"}, {"size": "3"}, {"size": "80"}, {"size": "1"}]}}}, "dtype": {"type": "DT_FLOAT"}}}, {"name": "model_86/tf.math.add_237/Add/y", "op": "Const", "attr": {"value": {"tensor": {"dtype": "DT_FLOAT", "tensorShape": {"dim": [{"size": "80"}]}}}, "dtype": {"type": "DT_FLOAT"}}}, {"name": "model_86/tf.nn.convolution_556/convolution/filter", "op": "Const", "attr": {"value": {"tensor": {"dtype": "DT_FLOAT", "tensorShape": {"dim": [{"size": "1"}, {"size": "1"}, {"size": "80"}, {"size": "80"}]}}}, "dtype": {"type": "DT_FLOAT"}}}, {"name": "model_86/tf.math.add_241/Add/y", "op": "Const", "attr": {"value": {"tensor": {"dtype": "DT_FLOAT", "tensorShape": {"dim": [{"size": "80"}]}}}, "dtype": {"type": "DT_FLOAT"}}}, {"name": "model_86/tf.nn.convolution_558/convolution/filter", "op": "Const", "attr": {"value": {"tensor": {"dtype": "DT_FLOAT", "tensorShape": {"dim": [{"size": "1"}, {"size": "1"}, {"size": "80"}, {"size": "80"}]}}}, "dtype": {"type": "DT_FLOAT"}}}, {"name": "model_86/tf.math.add_243/Add/y", "op": "Const", "attr": {"value": {"tensor": {"dtype": "DT_FLOAT", "tensorShape": {"dim": [{"size": "80"}]}}}, "dtype": {"type": "DT_FLOAT"}}}, {"name": "model_86/tf.compat.v1.transpose_314/transpose/perm", "op": "Const", "attr": {"value": {"tensor": {"dtype": "DT_INT32", "tensorShape": {"dim": [{"size": "4"}]}}}, "dtype": {"type": "DT_INT32"}}}, {"name": "model_86/tf.reshape_68/Reshape/shape", "op": "Const", "attr": {"value": {"tensor": {"dtype": "DT_INT32", "tensorShape": {"dim": [{"size": "3"}]}}}, "dtype": {"type": "DT_INT32"}}}, {"name": "model_86/tf.compat.v1.nn.depthwise_conv2d_12/depthwise/filter_in", "op": "Const", "attr": {"value": {"tensor": {"dtype": "DT_FLOAT", "tensorShape": {"dim": [{"size": "3"}, {"size": "3"}, {"size": "256"}, {"size": "1"}]}}}, "dtype": {"type": "DT_FLOAT"}}}, {"name": "model_86/tf.math.add_254/Add/y", "op": "Const", "attr": {"value": {"tensor": {"dtype": "DT_FLOAT", "tensorShape": {"dim": [{"size": "256"}]}}}, "dtype": {"type": "DT_FLOAT"}}}, {"name": "model_86/tf.nn.convolution_567/convolution/filter", "op": "Const", "attr": {"value": {"tensor": {"dtype": "DT_FLOAT", "tensorShape": {"dim": [{"size": "1"}, {"size": "1"}, {"size": "256"}, {"size": "80"}]}}}, "dtype": {"type": "DT_FLOAT"}}}, {"name": "model_86/tf.math.add_257/Add/y", "op": "Const", "attr": {"value": {"tensor": {"dtype": "DT_FLOAT", "tensorShape": {"dim": [{"size": "80"}]}}}, "dtype": {"type": "DT_FLOAT"}}}, {"name": "model_86/tf.compat.v1.nn.depthwise_conv2d_13/depthwise/filter_in", "op": "Const", "attr": {"value": {"tensor": {"dtype": "DT_FLOAT", "tensorShape": {"dim": [{"size": "3"}, {"size": "3"}, {"size": "80"}, {"size": "1"}]}}}, "dtype": {"type": "DT_FLOAT"}}}, {"name": "model_86/tf.math.add_260/Add/y", "op": "Const", "attr": {"value": {"tensor": {"dtype": "DT_FLOAT", "tensorShape": {"dim": [{"size": "80"}]}}}, "dtype": {"type": "DT_FLOAT"}}}, {"name": "model_86/tf.nn.convolution_571/convolution/filter", "op": "Const", "attr": {"value": {"tensor": {"dtype": "DT_FLOAT", "tensorShape": {"dim": [{"size": "1"}, {"size": "1"}, {"size": "80"}, {"size": "80"}]}}}, "dtype": {"type": "DT_FLOAT"}}}, {"name": "model_86/tf.math.add_262/Add/y", "op": "Const", "attr": {"value": {"tensor": {"dtype": "DT_FLOAT", "tensorShape": {"dim": [{"size": "80"}]}}}, "dtype": {"type": "DT_FLOAT"}}}, {"name": "model_86/tf.nn.convolution_572/convolution/filter", "op": "Const", "attr": {"value": {"tensor": {"dtype": "DT_FLOAT", "tensorShape": {"dim": [{"size": "1"}, {"size": "1"}, {"size": "80"}, {"size": "80"}]}}}, "dtype": {"type": "DT_FLOAT"}}}, {"name": "model_86/tf.math.add_263/Add/y", "op": "Const", "attr": {"value": {"tensor": {"dtype": "DT_FLOAT", "tensorShape": {"dim": [{"size": "80"}]}}}, "dtype": {"type": "DT_FLOAT"}}}, {"name": "model_86/tf.compat.v1.transpose_353/transpose/perm", "op": "Const", "attr": {"value": {"tensor": {"dtype": "DT_INT32", "tensorShape": {"dim": [{"size": "4"}]}}}, "dtype": {"type": "DT_INT32"}}}, {"name": "model_86/tf.reshape_80/Reshape/shape", "op": "Const", "attr": {"value": {"tensor": {"dtype": "DT_INT32", "tensorShape": {"dim": [{"size": "3"}]}}}, "dtype": {"type": "DT_INT32"}}}, {"name": "model_86/tf.concat_46/concat/axis", "op": "Const", "attr": {"value": {"tensor": {"dtype": "DT_INT32", "tensorShape": {}}}, "dtype": {"type": "DT_INT32"}}}, {"name": "model_86/tf.nn.convolution_526/convolution/filter", "op": "Const", "attr": {"value": {"tensor": {"dtype": "DT_FLOAT", "tensorShape": {"dim": [{"size": "3"}, {"size": "3"}, {"size": "64"}, {"size": "32"}]}}}, "dtype": {"type": "DT_FLOAT"}}}, {"name": "model_86/tf.math.add_203/Add/y", "op": "Const", "attr": {"value": {"tensor": {"dtype": "DT_FLOAT", "tensorShape": {"dim": [{"size": "32"}]}}}, "dtype": {"type": "DT_FLOAT"}}}, {"name": "model_86/tf.nn.convolution_530/convolution/filter", "op": "Const", "attr": {"value": {"tensor": {"dtype": "DT_FLOAT", "tensorShape": {"dim": [{"size": "3"}, {"size": "3"}, {"size": "32"}, {"size": "32"}]}}}, "dtype": {"type": "DT_FLOAT"}}}, {"name": "model_86/tf.math.add_207/Add/y", "op": "Const", "attr": {"value": {"tensor": {"dtype": "DT_FLOAT", "tensorShape": {"dim": [{"size": "32"}]}}}, "dtype": {"type": "DT_FLOAT"}}}, {"name": "model_86/tf.nn.convolution_534/convolution/filter", "op": "Const", "attr": {"value": {"tensor": {"dtype": "DT_FLOAT", "tensorShape": {"dim": [{"size": "1"}, {"size": "1"}, {"size": "32"}, {"size": "32"}]}}}, "dtype": {"type": "DT_FLOAT"}}}, {"name": "model_86/tf.math.add_215/Add/y", "op": "Const", "attr": {"value": {"tensor": {"dtype": "DT_FLOAT", "tensorShape": {"dim": [{"size": "32"}]}}}, "dtype": {"type": "DT_FLOAT"}}}, {"name": "model_86/tf.compat.v1.transpose_269/transpose/perm", "op": "Const", "attr": {"value": {"tensor": {"dtype": "DT_INT32", "tensorShape": {"dim": [{"size": "4"}]}}}, "dtype": {"type": "DT_INT32"}}}, {"name": "model_86/tf.reshape_56/Reshape/shape", "op": "Const", "attr": {"value": {"tensor": {"dtype": "DT_INT32", "tensorShape": {"dim": [{"size": "3"}]}}}, "dtype": {"type": "DT_INT32"}}}, {"name": "model_86/tf.nn.convolution_547/convolution/filter", "op": "Const", "attr": {"value": {"tensor": {"dtype": "DT_FLOAT", "tensorShape": {"dim": [{"size": "3"}, {"size": "3"}, {"size": "128"}, {"size": "32"}]}}}, "dtype": {"type": "DT_FLOAT"}}}, {"name": "model_86/tf.math.add_231/Add/y", "op": "Const", "attr": {"value": {"tensor": {"dtype": "DT_FLOAT", "tensorShape": {"dim": [{"size": "32"}]}}}, "dtype": {"type": "DT_FLOAT"}}}, {"name": "model_86/tf.nn.convolution_550/convolution/filter", "op": "Const", "attr": {"value": {"tensor": {"dtype": "DT_FLOAT", "tensorShape": {"dim": [{"size": "3"}, {"size": "3"}, {"size": "32"}, {"size": "32"}]}}}, "dtype": {"type": "DT_FLOAT"}}}, {"name": "model_86/tf.math.add_234/Add/y", "op": "Const", "attr": {"value": {"tensor": {"dtype": "DT_FLOAT", "tensorShape": {"dim": [{"size": "32"}]}}}, "dtype": {"type": "DT_FLOAT"}}}, {"name": "model_86/tf.nn.convolution_553/convolution/filter", "op": "Const", "attr": {"value": {"tensor": {"dtype": "DT_FLOAT", "tensorShape": {"dim": [{"size": "1"}, {"size": "1"}, {"size": "32"}, {"size": "32"}]}}}, "dtype": {"type": "DT_FLOAT"}}}, {"name": "model_86/tf.math.add_238/Add/y", "op": "Const", "attr": {"value": {"tensor": {"dtype": "DT_FLOAT", "tensorShape": {"dim": [{"size": "32"}]}}}, "dtype": {"type": "DT_FLOAT"}}}, {"name": "model_86/tf.compat.v1.transpose_305/transpose/perm", "op": "Const", "attr": {"value": {"tensor": {"dtype": "DT_INT32", "tensorShape": {"dim": [{"size": "4"}]}}}, "dtype": {"type": "DT_INT32"}}}, {"name": "model_86/tf.reshape_65/Reshape/shape", "op": "Const", "attr": {"value": {"tensor": {"dtype": "DT_INT32", "tensorShape": {"dim": [{"size": "3"}]}}}, "dtype": {"type": "DT_INT32"}}}, {"name": "model_86/tf.strided_slice_42/ones_like/tensor", "op": "Const", "attr": {"value": {"tensor": {"dtype": "DT_INT64", "tensorShape": {"dim": [{"size": "4"}]}}}, "dtype": {"type": "DT_INT64"}}}, {"name": "model_86/tf.strided_slice_42/StridedSlice/end", "op": "Const", "attr": {"value": {"tensor": {"dtype": "DT_INT64", "tensorShape": {"dim": [{"size": "4"}]}}}, "dtype": {"type": "DT_INT64"}}}, {"name": "model_86/tf.strided_slice_42/ones_like", "op": "Const", "attr": {"value": {"tensor": {"dtype": "DT_INT64", "tensorShape": {"dim": [{"size": "4"}]}}}, "dtype": {"type": "DT_INT64"}}}, {"name": "model_86/tf.nn.convolution_554/convolution/filter", "op": "Const", "attr": {"value": {"tensor": {"dtype": "DT_FLOAT", "tensorShape": {"dim": [{"size": "1"}, {"size": "1"}, {"size": "128"}, {"size": "64"}]}}}, "dtype": {"type": "DT_FLOAT"}}}, {"name": "model_86/tf.math.add_239/Add/y", "op": "Const", "attr": {"value": {"tensor": {"dtype": "DT_FLOAT", "tensorShape": {"dim": [{"size": "64"}]}}}, "dtype": {"type": "DT_FLOAT"}}}, {"name": "model_86/tf.nn.convolution_557/convolution/filter", "op": "Const", "attr": {"value": {"tensor": {"dtype": "DT_FLOAT", "tensorShape": {"dim": [{"size": "3"}, {"size": "3"}, {"size": "64"}, {"size": "64"}]}}}, "dtype": {"type": "DT_FLOAT"}}}, {"name": "model_86/tf.math.add_242/Add/y", "op": "Const", "attr": {"value": {"tensor": {"dtype": "DT_FLOAT", "tensorShape": {"dim": [{"size": "64"}]}}}, "dtype": {"type": "DT_FLOAT"}}}, {"name": "model_86/tf.nn.convolution_559/convolution/filter", "op": "Const", "attr": {"value": {"tensor": {"dtype": "DT_FLOAT", "tensorShape": {"dim": [{"size": "3"}, {"size": "3"}, {"size": "64"}, {"size": "64"}]}}}, "dtype": {"type": "DT_FLOAT"}}}, {"name": "model_86/tf.math.add_244/Add/y", "op": "Const", "attr": {"value": {"tensor": {"dtype": "DT_FLOAT", "tensorShape": {"dim": [{"size": "64"}]}}}, "dtype": {"type": "DT_FLOAT"}}}, {"name": "model_86/tf.nn.convolution_560/convolution/filter", "op": "Const", "attr": {"value": {"tensor": {"dtype": "DT_FLOAT", "tensorShape": {"dim": [{"size": "3"}, {"size": "3"}, {"size": "64"}, {"size": "64"}]}}}, "dtype": {"type": "DT_FLOAT"}}}, {"name": "model_86/tf.math.add_247/Add/y", "op": "Const", "attr": {"value": {"tensor": {"dtype": "DT_FLOAT", "tensorShape": {"dim": [{"size": "64"}]}}}, "dtype": {"type": "DT_FLOAT"}}}, {"name": "model_86/tf.nn.convolution_561/convolution/filter", "op": "Const", "attr": {"value": {"tensor": {"dtype": "DT_FLOAT", "tensorShape": {"dim": [{"size": "3"}, {"size": "3"}, {"size": "64"}, {"size": "64"}]}}}, "dtype": {"type": "DT_FLOAT"}}}, {"name": "model_86/tf.math.add_248/Add/y", "op": "Const", "attr": {"value": {"tensor": {"dtype": "DT_FLOAT", "tensorShape": {"dim": [{"size": "64"}]}}}, "dtype": {"type": "DT_FLOAT"}}}, {"name": "model_86/tf.strided_slice_40/ones_like/tensor", "op": "Const", "attr": {"value": {"tensor": {"dtype": "DT_INT64", "tensorShape": {"dim": [{"size": "4"}]}}}, "dtype": {"type": "DT_INT64"}}}, {"name": "model_86/tf.strided_slice_40/StridedSlice/end", "op": "Const", "attr": {"value": {"tensor": {"dtype": "DT_INT64", "tensorShape": {"dim": [{"size": "4"}]}}}, "dtype": {"type": "DT_INT64"}}}, {"name": "model_86/tf.strided_slice_40/ones_like", "op": "Const", "attr": {"value": {"tensor": {"dtype": "DT_INT64", "tensorShape": {"dim": [{"size": "4"}]}}}, "dtype": {"type": "DT_INT64"}}}, {"name": "model_86/tf.compat.v1.pad_12/Pad/paddings", "op": "Const", "attr": {"value": {"tensor": {"dtype": "DT_INT32", "tensorShape": {"dim": [{"size": "4"}, {"size": "2"}]}}}, "dtype": {"type": "DT_INT32"}}}, {"name": "model_86/tf.nn.convolution_524/convolution/filter", "op": "Const", "attr": {"value": {"tensor": {"dtype": "DT_FLOAT", "tensorShape": {"dim": [{"size": "3"}, {"size": "3"}, {"size": "64"}, {"size": "64"}]}}}, "dtype": {"type": "DT_FLOAT"}}}, {"name": "model_86/tf.math.add_200/Add/y", "op": "Const", "attr": {"value": {"tensor": {"dtype": "DT_FLOAT", "tensorShape": {"dim": [{"size": "64"}]}}}, "dtype": {"type": "DT_FLOAT"}}}, {"name": "model_86/tf.concat_39/concat/axis", "op": "Const", "attr": {"value": {"tensor": {"dtype": "DT_INT32", "tensorShape": {}}}, "dtype": {"type": "DT_INT32"}}}, {"name": "model_86/tf.nn.convolution_531/convolution/filter", "op": "Const", "attr": {"value": {"tensor": {"dtype": "DT_FLOAT", "tensorShape": {"dim": [{"size": "1"}, {"size": "1"}, {"size": "192"}, {"size": "128"}]}}}, "dtype": {"type": "DT_FLOAT"}}}, {"name": "model_86/tf.math.add_209/Add/y", "op": "Const", "attr": {"value": {"tensor": {"dtype": "DT_FLOAT", "tensorShape": {"dim": [{"size": "128"}]}}}, "dtype": {"type": "DT_FLOAT"}}}, {"name": "model_86/tf.strided_slice_41/ones_like/tensor", "op": "Const", "attr": {"value": {"tensor": {"dtype": "DT_INT64", "tensorShape": {"dim": [{"size": "4"}]}}}, "dtype": {"type": "DT_INT64"}}}, {"name": "model_86/tf.strided_slice_41/StridedSlice/end", "op": "Const", "attr": {"value": {"tensor": {"dtype": "DT_INT64", "tensorShape": {"dim": [{"size": "4"}]}}}, "dtype": {"type": "DT_INT64"}}}, {"name": "model_86/tf.strided_slice_41/ones_like", "op": "Const", "attr": {"value": {"tensor": {"dtype": "DT_INT64", "tensorShape": {"dim": [{"size": "4"}]}}}, "dtype": {"type": "DT_INT64"}}}, {"name": "model_86/tf.nn.convolution_536/convolution/filter", "op": "Const", "attr": {"value": {"tensor": {"dtype": "DT_FLOAT", "tensorShape": {"dim": [{"size": "3"}, {"size": "3"}, {"size": "64"}, {"size": "32"}]}}}, "dtype": {"type": "DT_FLOAT"}}}, {"name": "model_86/tf.math.add_217/Add/y", "op": "Const", "attr": {"value": {"tensor": {"dtype": "DT_FLOAT", "tensorShape": {"dim": [{"size": "32"}]}}}, "dtype": {"type": "DT_FLOAT"}}}, {"name": "model_86/tf.nn.convolution_540/convolution/filter", "op": "Const", "attr": {"value": {"tensor": {"dtype": "DT_FLOAT", "tensorShape": {"dim": [{"size": "3"}, {"size": "3"}, {"size": "32"}, {"size": "64"}]}}}, "dtype": {"type": "DT_FLOAT"}}}, {"name": "model_86/tf.math.add_221/Add/y", "op": "Const", "attr": {"value": {"tensor": {"dtype": "DT_FLOAT", "tensorShape": {"dim": [{"size": "64"}]}}}, "dtype": {"type": "DT_FLOAT"}}}, {"name": "model_86/tf.concat_40/concat/axis", "op": "Const", "attr": {"value": {"tensor": {"dtype": "DT_INT32", "tensorShape": {}}}, "dtype": {"type": "DT_INT32"}}}, {"name": "model_86/tf.nn.convolution_544/convolution/filter", "op": "Const", "attr": {"value": {"tensor": {"dtype": "DT_FLOAT", "tensorShape": {"dim": [{"size": "1"}, {"size": "1"}, {"size": "192"}, {"size": "128"}]}}}, "dtype": {"type": "DT_FLOAT"}}}, {"name": "model_86/tf.math.add_227/Add/y", "op": "Const", "attr": {"value": {"tensor": {"dtype": "DT_FLOAT", "tensorShape": {"dim": [{"size": "128"}]}}}, "dtype": {"type": "DT_FLOAT"}}}, {"name": "model_86/tf.compat.v1.pad_13/Pad/paddings", "op": "Const", "attr": {"value": {"tensor": {"dtype": "DT_INT32", "tensorShape": {"dim": [{"size": "4"}, {"size": "2"}]}}}, "dtype": {"type": "DT_INT32"}}}, {"name": "model_86/tf.nn.convolution_545/convolution/filter", "op": "Const", "attr": {"value": {"tensor": {"dtype": "DT_FLOAT", "tensorShape": {"dim": [{"size": "3"}, {"size": "3"}, {"size": "128"}, {"size": "128"}]}}}, "dtype": {"type": "DT_FLOAT"}}}, {"name": "model_86/tf.math.add_228/Add/y", "op": "Const", "attr": {"value": {"tensor": {"dtype": "DT_FLOAT", "tensorShape": {"dim": [{"size": "128"}]}}}, "dtype": {"type": "DT_FLOAT"}}}, {"name": "model_86/tf.concat_41/concat/axis", "op": "Const", "attr": {"value": {"tensor": {"dtype": "DT_INT32", "tensorShape": {}}}, "dtype": {"type": "DT_INT32"}}}, {"name": "model_86/tf.nn.convolution_551/convolution/filter", "op": "Const", "attr": {"value": {"tensor": {"dtype": "DT_FLOAT", "tensorShape": {"dim": [{"size": "1"}, {"size": "1"}, {"size": "384"}, {"size": "256"}]}}}, "dtype": {"type": "DT_FLOAT"}}}, {"name": "model_86/tf.math.add_235/Add/y", "op": "Const", "attr": {"value": {"tensor": {"dtype": "DT_FLOAT", "tensorShape": {"dim": [{"size": "256"}]}}}, "dtype": {"type": "DT_FLOAT"}}}, {"name": "model_86/tf.strided_slice_43/ones_like/tensor", "op": "Const", "attr": {"value": {"tensor": {"dtype": "DT_INT64", "tensorShape": {"dim": [{"size": "4"}]}}}, "dtype": {"type": "DT_INT64"}}}, {"name": "model_86/tf.strided_slice_43/StridedSlice/end", "op": "Const", "attr": {"value": {"tensor": {"dtype": "DT_INT64", "tensorShape": {"dim": [{"size": "4"}]}}}, "dtype": {"type": "DT_INT64"}}}, {"name": "model_86/tf.strided_slice_43/ones_like", "op": "Const", "attr": {"value": {"tensor": {"dtype": "DT_INT64", "tensorShape": {"dim": [{"size": "4"}]}}}, "dtype": {"type": "DT_INT64"}}}, {"name": "model_86/tf.nn.convolution_555/convolution/filter", "op": "Const", "attr": {"value": {"tensor": {"dtype": "DT_FLOAT", "tensorShape": {"dim": [{"size": "1"}, {"size": "1"}, {"size": "128"}, {"size": "64"}]}}}, "dtype": {"type": "DT_FLOAT"}}}, {"name": "model_86/tf.math.add_240/Add/y", "op": "Const", "attr": {"value": {"tensor": {"dtype": "DT_FLOAT", "tensorShape": {"dim": [{"size": "64"}]}}}, "dtype": {"type": "DT_FLOAT"}}}, {"name": "model_86/tf.concat_42/concat/axis", "op": "Const", "attr": {"value": {"tensor": {"dtype": "DT_INT32", "tensorShape": {}}}, "dtype": {"type": "DT_INT32"}}}, {"name": "model_86/tf.nn.convolution_562/convolution/filter", "op": "Const", "attr": {"value": {"tensor": {"dtype": "DT_FLOAT", "tensorShape": {"dim": [{"size": "1"}, {"size": "1"}, {"size": "128"}, {"size": "128"}]}}}, "dtype": {"type": "DT_FLOAT"}}}, {"name": "model_86/tf.math.add_251/Add/y", "op": "Const", "attr": {"value": {"tensor": {"dtype": "DT_FLOAT", "tensorShape": {"dim": [{"size": "128"}]}}}, "dtype": {"type": "DT_FLOAT"}}}, {"name": "model_86/tf.concat_43/concat/axis", "op": "Const", "attr": {"value": {"tensor": {"dtype": "DT_INT32", "tensorShape": {}}}, "dtype": {"type": "DT_INT32"}}}, {"name": "model_86/tf.nn.convolution_563/convolution/filter", "op": "Const", "attr": {"value": {"tensor": {"dtype": "DT_FLOAT", "tensorShape": {"dim": [{"size": "1"}, {"size": "1"}, {"size": "384"}, {"size": "256"}]}}}, "dtype": {"type": "DT_FLOAT"}}}, {"name": "model_86/tf.math.add_252/Add/y", "op": "Const", "attr": {"value": {"tensor": {"dtype": "DT_FLOAT", "tensorShape": {"dim": [{"size": "256"}]}}}, "dtype": {"type": "DT_FLOAT"}}}, {"name": "model_86/tf.nn.convolution_565/convolution/filter", "op": "Const", "attr": {"value": {"tensor": {"dtype": "DT_FLOAT", "tensorShape": {"dim": [{"size": "3"}, {"size": "3"}, {"size": "256"}, {"size": "32"}]}}}, "dtype": {"type": "DT_FLOAT"}}}, {"name": "model_86/tf.math.add_255/Add/y", "op": "Const", "attr": {"value": {"tensor": {"dtype": "DT_FLOAT", "tensorShape": {"dim": [{"size": "32"}]}}}, "dtype": {"type": "DT_FLOAT"}}}, {"name": "model_86/tf.nn.convolution_568/convolution/filter", "op": "Const", "attr": {"value": {"tensor": {"dtype": "DT_FLOAT", "tensorShape": {"dim": [{"size": "3"}, {"size": "3"}, {"size": "32"}, {"size": "32"}]}}}, "dtype": {"type": "DT_FLOAT"}}}, {"name": "model_86/tf.math.add_258/Add/y", "op": "Const", "attr": {"value": {"tensor": {"dtype": "DT_FLOAT", "tensorShape": {"dim": [{"size": "32"}]}}}, "dtype": {"type": "DT_FLOAT"}}}, {"name": "model_86/tf.nn.convolution_570/convolution/filter", "op": "Const", "attr": {"value": {"tensor": {"dtype": "DT_FLOAT", "tensorShape": {"dim": [{"size": "1"}, {"size": "1"}, {"size": "32"}, {"size": "32"}]}}}, "dtype": {"type": "DT_FLOAT"}}}, {"name": "model_86/tf.math.add_261/Add/y", "op": "Const", "attr": {"value": {"tensor": {"dtype": "DT_FLOAT", "tensorShape": {"dim": [{"size": "32"}]}}}, "dtype": {"type": "DT_FLOAT"}}}, {"name": "model_86/tf.compat.v1.transpose_338/transpose/perm", "op": "Const", "attr": {"value": {"tensor": {"dtype": "DT_INT32", "tensorShape": {"dim": [{"size": "4"}]}}}, "dtype": {"type": "DT_INT32"}}}, {"name": "model_86/tf.reshape_74/Reshape/shape", "op": "Const", "attr": {"value": {"tensor": {"dtype": "DT_INT32", "tensorShape": {"dim": [{"size": "3"}]}}}, "dtype": {"type": "DT_INT32"}}}, {"name": "model_86/tf.concat_45/concat/axis", "op": "Const", "attr": {"value": {"tensor": {"dtype": "DT_INT32", "tensorShape": {}}}, "dtype": {"type": "DT_INT32"}}}, {"name": "model_86/output0/concat/axis", "op": "Const", "attr": {"value": {"tensor": {"dtype": "DT_INT32", "tensorShape": {}}}, "dtype": {"type": "DT_INT32"}}}, {"name": "model_86/tf.nn.conv2d_transpose_1/conv2d_transpose/input_sizes", "op": "Const", "attr": {"value": {"tensor": {"dtype": "DT_INT32", "tensorShape": {"dim": [{"size": "4"}]}}}, "dtype": {"type": "DT_INT32"}}}, {"name": "model_86/tf.nn.conv2d_transpose_1/conv2d_transpose/filter", "op": "Const", "attr": {"value": {"tensor": {"dtype": "DT_FLOAT", "tensorShape": {"dim": [{"size": "2"}, {"size": "2"}, {"size": "64"}, {"size": "64"}]}}}, "dtype": {"type": "DT_FLOAT"}}}, {"name": "model_86/tf.strided_slice_38/ones_like/tensor", "op": "Const", "attr": {"value": {"tensor": {"dtype": "DT_INT64", "tensorShape": {"dim": [{"size": "4"}]}}}, "dtype": {"type": "DT_INT64"}}}, {"name": "model_86/tf.strided_slice_38/StridedSlice/end", "op": "Const", "attr": {"value": {"tensor": {"dtype": "DT_INT64", "tensorShape": {"dim": [{"size": "4"}]}}}, "dtype": {"type": "DT_INT64"}}}, {"name": "model_86/tf.strided_slice_38/ones_like", "op": "Const", "attr": {"value": {"tensor": {"dtype": "DT_INT64", "tensorShape": {"dim": [{"size": "4"}]}}}, "dtype": {"type": "DT_INT64"}}}, {"name": "model_86/tf.strided_slice_36/ones_like/tensor", "op": "Const", "attr": {"value": {"tensor": {"dtype": "DT_INT64", "tensorShape": {"dim": [{"size": "4"}]}}}, "dtype": {"type": "DT_INT64"}}}, {"name": "model_86/tf.strided_slice_36/StridedSlice/end", "op": "Const", "attr": {"value": {"tensor": {"dtype": "DT_INT64", "tensorShape": {"dim": [{"size": "4"}]}}}, "dtype": {"type": "DT_INT64"}}}, {"name": "model_86/tf.strided_slice_36/ones_like", "op": "Const", "attr": {"value": {"tensor": {"dtype": "DT_INT64", "tensorShape": {"dim": [{"size": "4"}]}}}, "dtype": {"type": "DT_INT64"}}}, {"name": "model_86/tf.strided_slice_31/StridedSlice/begin", "op": "Const", "attr": {"value": {"tensor": {"dtype": "DT_INT32", "tensorShape": {"dim": [{"size": "4"}]}}}, "dtype": {"type": "DT_INT32"}}}, {"name": "model_86/tf.strided_slice_31/StridedSlice/end", "op": "Const", "attr": {"value": {"tensor": {"dtype": "DT_INT32", "tensorShape": {"dim": [{"size": "4"}]}}}, "dtype": {"type": "DT_INT32"}}}, {"name": "model_86/tf.strided_slice_31/ones_like", "op": "Const", "attr": {"value": {"tensor": {"dtype": "DT_INT32", "tensorShape": {"dim": [{"size": "4"}]}}}, "dtype": {"type": "DT_INT32"}}}, {"name": "model_86/tf.math.add_184/Add/y", "op": "Const", "attr": {"value": {"tensor": {"dtype": "DT_FLOAT", "tensorShape": {"dim": [{"size": "128"}]}}}, "dtype": {"type": "DT_FLOAT"}}}, {"name": "model_86/tf.math.add_177/Add/y", "op": "Const", "attr": {"value": {"tensor": {"dtype": "DT_FLOAT", "tensorShape": {"dim": [{"size": "128"}]}}}, "dtype": {"type": "DT_FLOAT"}}}, {"name": "model_86/tf.strided_slice_33/StridedSlice/begin", "op": "Const", "attr": {"value": {"tensor": {"dtype": "DT_INT32", "tensorShape": {"dim": [{"size": "4"}]}}}, "dtype": {"type": "DT_INT32"}}}, {"name": "model_86/tf.strided_slice_33/StridedSlice/end", "op": "Const", "attr": {"value": {"tensor": {"dtype": "DT_INT32", "tensorShape": {"dim": [{"size": "4"}]}}}, "dtype": {"type": "DT_INT32"}}}, {"name": "model_86/tf.strided_slice_33/ones_like", "op": "Const", "attr": {"value": {"tensor": {"dtype": "DT_INT32", "tensorShape": {"dim": [{"size": "4"}]}}}, "dtype": {"type": "DT_INT32"}}}, {"name": "model_86/tf.strided_slice_34/StridedSlice/begin", "op": "Const", "attr": {"value": {"tensor": {"dtype": "DT_INT32", "tensorShape": {"dim": [{"size": "4"}]}}}, "dtype": {"type": "DT_INT32"}}}, {"name": "model_86/tf.strided_slice_34/StridedSlice/end", "op": "Const", "attr": {"value": {"tensor": {"dtype": "DT_INT32", "tensorShape": {"dim": [{"size": "4"}]}}}, "dtype": {"type": "DT_INT32"}}}, {"name": "model_86/tf.strided_slice_34/ones_like", "op": "Const", "attr": {"value": {"tensor": {"dtype": "DT_INT32", "tensorShape": {"dim": [{"size": "4"}]}}}, "dtype": {"type": "DT_INT32"}}}, {"name": "model_86/tf.math.multiply_538/Mul/y", "op": "Const", "attr": {"value": {"tensor": {"dtype": "DT_FLOAT", "tensorShape": {}}}, "dtype": {"type": "DT_FLOAT"}}}, {"name": "model_86/tf.reshape_50/Reshape/shape", "op": "Const", "attr": {"value": {"tensor": {"dtype": "DT_INT32", "tensorShape": {"dim": [{"size": "4"}]}}}, "dtype": {"type": "DT_INT32"}}}, {"name": "model_86/tf.compat.v1.transpose_233/transpose/perm", "op": "Const", "attr": {"value": {"tensor": {"dtype": "DT_INT32", "tensorShape": {"dim": [{"size": "4"}]}}}, "dtype": {"type": "DT_INT32"}}}, {"name": "model_86/tf.nn.convolution_384/convolution/filter", "op": "Const", "attr": {"value": {"tensor": {"dtype": "DT_FLOAT", "tensorShape": {"dim": [{"size": "3"}, {"size": "3"}, {"size": "1"}, {"size": "1"}]}}}, "dtype": {"type": "DT_FLOAT"}}}, {"name": "model_86/tf.nn.convolution_385/convolution/filter", "op": "Const", "attr": {"value": {"tensor": {"dtype": "DT_FLOAT", "tensorShape": {"dim": [{"size": "3"}, {"size": "3"}, {"size": "1"}, {"size": "1"}]}}}, "dtype": {"type": "DT_FLOAT"}}}, {"name": "model_86/tf.nn.convolution_386/convolution/filter", "op": "Const", "attr": {"value": {"tensor": {"dtype": "DT_FLOAT", "tensorShape": {"dim": [{"size": "3"}, {"size": "3"}, {"size": "1"}, {"size": "1"}]}}}, "dtype": {"type": "DT_FLOAT"}}}, {"name": "model_86/tf.nn.convolution_387/convolution/filter", "op": "Const", "attr": {"value": {"tensor": {"dtype": "DT_FLOAT", "tensorShape": {"dim": [{"size": "3"}, {"size": "3"}, {"size": "1"}, {"size": "1"}]}}}, "dtype": {"type": "DT_FLOAT"}}}, {"name": "model_86/tf.nn.convolution_388/convolution/filter", "op": "Const", "attr": {"value": {"tensor": {"dtype": "DT_FLOAT", "tensorShape": {"dim": [{"size": "3"}, {"size": "3"}, {"size": "1"}, {"size": "1"}]}}}, "dtype": {"type": "DT_FLOAT"}}}, {"name": "model_86/tf.nn.convolution_389/convolution/filter", "op": "Const", "attr": {"value": {"tensor": {"dtype": "DT_FLOAT", "tensorShape": {"dim": [{"size": "3"}, {"size": "3"}, {"size": "1"}, {"size": "1"}]}}}, "dtype": {"type": "DT_FLOAT"}}}, {"name": "model_86/tf.nn.convolution_390/convolution/filter", "op": "Const", "attr": {"value": {"tensor": {"dtype": "DT_FLOAT", "tensorShape": {"dim": [{"size": "3"}, {"size": "3"}, {"size": "1"}, {"size": "1"}]}}}, "dtype": {"type": "DT_FLOAT"}}}, {"name": "model_86/tf.nn.convolution_391/convolution/filter", "op": "Const", "attr": {"value": {"tensor": {"dtype": "DT_FLOAT", "tensorShape": {"dim": [{"size": "3"}, {"size": "3"}, {"size": "1"}, {"size": "1"}]}}}, "dtype": {"type": "DT_FLOAT"}}}, {"name": "model_86/tf.nn.convolution_392/convolution/filter", "op": "Const", "attr": {"value": {"tensor": {"dtype": "DT_FLOAT", "tensorShape": {"dim": [{"size": "3"}, {"size": "3"}, {"size": "1"}, {"size": "1"}]}}}, "dtype": {"type": "DT_FLOAT"}}}, {"name": "model_86/tf.nn.convolution_393/convolution/filter", "op": "Const", "attr": {"value": {"tensor": {"dtype": "DT_FLOAT", "tensorShape": {"dim": [{"size": "3"}, {"size": "3"}, {"size": "1"}, {"size": "1"}]}}}, "dtype": {"type": "DT_FLOAT"}}}, {"name": "model_86/tf.nn.convolution_394/convolution/filter", "op": "Const", "attr": {"value": {"tensor": {"dtype": "DT_FLOAT", "tensorShape": {"dim": [{"size": "3"}, {"size": "3"}, {"size": "1"}, {"size": "1"}]}}}, "dtype": {"type": "DT_FLOAT"}}}, {"name": "model_86/tf.nn.convolution_395/convolution/filter", "op": "Const", "attr": {"value": {"tensor": {"dtype": "DT_FLOAT", "tensorShape": {"dim": [{"size": "3"}, {"size": "3"}, {"size": "1"}, {"size": "1"}]}}}, "dtype": {"type": "DT_FLOAT"}}}, {"name": "model_86/tf.nn.convolution_396/convolution/filter", "op": "Const", "attr": {"value": {"tensor": {"dtype": "DT_FLOAT", "tensorShape": {"dim": [{"size": "3"}, {"size": "3"}, {"size": "1"}, {"size": "1"}]}}}, "dtype": {"type": "DT_FLOAT"}}}, {"name": "model_86/tf.nn.convolution_397/convolution/filter", "op": "Const", "attr": {"value": {"tensor": {"dtype": "DT_FLOAT", "tensorShape": {"dim": [{"size": "3"}, {"size": "3"}, {"size": "1"}, {"size": "1"}]}}}, "dtype": {"type": "DT_FLOAT"}}}, {"name": "model_86/tf.nn.convolution_398/convolution/filter", "op": "Const", "attr": {"value": {"tensor": {"dtype": "DT_FLOAT", "tensorShape": {"dim": [{"size": "3"}, {"size": "3"}, {"size": "1"}, {"size": "1"}]}}}, "dtype": {"type": "DT_FLOAT"}}}, {"name": "model_86/tf.nn.convolution_399/convolution/filter", "op": "Const", "attr": {"value": {"tensor": {"dtype": "DT_FLOAT", "tensorShape": {"dim": [{"size": "3"}, {"size": "3"}, {"size": "1"}, {"size": "1"}]}}}, "dtype": {"type": "DT_FLOAT"}}}, {"name": "model_86/tf.nn.convolution_400/convolution/filter", "op": "Const", "attr": {"value": {"tensor": {"dtype": "DT_FLOAT", "tensorShape": {"dim": [{"size": "3"}, {"size": "3"}, {"size": "1"}, {"size": "1"}]}}}, "dtype": {"type": "DT_FLOAT"}}}, {"name": "model_86/tf.nn.convolution_401/convolution/filter", "op": "Const", "attr": {"value": {"tensor": {"dtype": "DT_FLOAT", "tensorShape": {"dim": [{"size": "3"}, {"size": "3"}, {"size": "1"}, {"size": "1"}]}}}, "dtype": {"type": "DT_FLOAT"}}}, {"name": "model_86/tf.nn.convolution_402/convolution/filter", "op": "Const", "attr": {"value": {"tensor": {"dtype": "DT_FLOAT", "tensorShape": {"dim": [{"size": "3"}, {"size": "3"}, {"size": "1"}, {"size": "1"}]}}}, "dtype": {"type": "DT_FLOAT"}}}, {"name": "model_86/tf.nn.convolution_403/convolution/filter", "op": "Const", "attr": {"value": {"tensor": {"dtype": "DT_FLOAT", "tensorShape": {"dim": [{"size": "3"}, {"size": "3"}, {"size": "1"}, {"size": "1"}]}}}, "dtype": {"type": "DT_FLOAT"}}}, {"name": "model_86/tf.nn.convolution_404/convolution/filter", "op": "Const", "attr": {"value": {"tensor": {"dtype": "DT_FLOAT", "tensorShape": {"dim": [{"size": "3"}, {"size": "3"}, {"size": "1"}, {"size": "1"}]}}}, "dtype": {"type": "DT_FLOAT"}}}, {"name": "model_86/tf.nn.convolution_405/convolution/filter", "op": "Const", "attr": {"value": {"tensor": {"dtype": "DT_FLOAT", "tensorShape": {"dim": [{"size": "3"}, {"size": "3"}, {"size": "1"}, {"size": "1"}]}}}, "dtype": {"type": "DT_FLOAT"}}}, {"name": "model_86/tf.nn.convolution_406/convolution/filter", "op": "Const", "attr": {"value": {"tensor": {"dtype": "DT_FLOAT", "tensorShape": {"dim": [{"size": "3"}, {"size": "3"}, {"size": "1"}, {"size": "1"}]}}}, "dtype": {"type": "DT_FLOAT"}}}, {"name": "model_86/tf.nn.convolution_407/convolution/filter", "op": "Const", "attr": {"value": {"tensor": {"dtype": "DT_FLOAT", "tensorShape": {"dim": [{"size": "3"}, {"size": "3"}, {"size": "1"}, {"size": "1"}]}}}, "dtype": {"type": "DT_FLOAT"}}}, {"name": "model_86/tf.nn.convolution_408/convolution/filter", "op": "Const", "attr": {"value": {"tensor": {"dtype": "DT_FLOAT", "tensorShape": {"dim": [{"size": "3"}, {"size": "3"}, {"size": "1"}, {"size": "1"}]}}}, "dtype": {"type": "DT_FLOAT"}}}, {"name": "model_86/tf.nn.convolution_409/convolution/filter", "op": "Const", "attr": {"value": {"tensor": {"dtype": "DT_FLOAT", "tensorShape": {"dim": [{"size": "3"}, {"size": "3"}, {"size": "1"}, {"size": "1"}]}}}, "dtype": {"type": "DT_FLOAT"}}}, {"name": "model_86/tf.nn.convolution_410/convolution/filter", "op": "Const", "attr": {"value": {"tensor": {"dtype": "DT_FLOAT", "tensorShape": {"dim": [{"size": "3"}, {"size": "3"}, {"size": "1"}, {"size": "1"}]}}}, "dtype": {"type": "DT_FLOAT"}}}, {"name": "model_86/tf.nn.convolution_411/convolution/filter", "op": "Const", "attr": {"value": {"tensor": {"dtype": "DT_FLOAT", "tensorShape": {"dim": [{"size": "3"}, {"size": "3"}, {"size": "1"}, {"size": "1"}]}}}, "dtype": {"type": "DT_FLOAT"}}}, {"name": "model_86/tf.nn.convolution_412/convolution/filter", "op": "Const", "attr": {"value": {"tensor": {"dtype": "DT_FLOAT", "tensorShape": {"dim": [{"size": "3"}, {"size": "3"}, {"size": "1"}, {"size": "1"}]}}}, "dtype": {"type": "DT_FLOAT"}}}, {"name": "model_86/tf.nn.convolution_413/convolution/filter", "op": "Const", "attr": {"value": {"tensor": {"dtype": "DT_FLOAT", "tensorShape": {"dim": [{"size": "3"}, {"size": "3"}, {"size": "1"}, {"size": "1"}]}}}, "dtype": {"type": "DT_FLOAT"}}}, {"name": "model_86/tf.nn.convolution_414/convolution/filter", "op": "Const", "attr": {"value": {"tensor": {"dtype": "DT_FLOAT", "tensorShape": {"dim": [{"size": "3"}, {"size": "3"}, {"size": "1"}, {"size": "1"}]}}}, "dtype": {"type": "DT_FLOAT"}}}, {"name": "model_86/tf.nn.convolution_415/convolution/filter", "op": "Const", "attr": {"value": {"tensor": {"dtype": "DT_FLOAT", "tensorShape": {"dim": [{"size": "3"}, {"size": "3"}, {"size": "1"}, {"size": "1"}]}}}, "dtype": {"type": "DT_FLOAT"}}}, {"name": "model_86/tf.nn.convolution_416/convolution/filter", "op": "Const", "attr": {"value": {"tensor": {"dtype": "DT_FLOAT", "tensorShape": {"dim": [{"size": "3"}, {"size": "3"}, {"size": "1"}, {"size": "1"}]}}}, "dtype": {"type": "DT_FLOAT"}}}, {"name": "model_86/tf.nn.convolution_417/convolution/filter", "op": "Const", "attr": {"value": {"tensor": {"dtype": "DT_FLOAT", "tensorShape": {"dim": [{"size": "3"}, {"size": "3"}, {"size": "1"}, {"size": "1"}]}}}, "dtype": {"type": "DT_FLOAT"}}}, {"name": "model_86/tf.nn.convolution_418/convolution/filter", "op": "Const", "attr": {"value": {"tensor": {"dtype": "DT_FLOAT", "tensorShape": {"dim": [{"size": "3"}, {"size": "3"}, {"size": "1"}, {"size": "1"}]}}}, "dtype": {"type": "DT_FLOAT"}}}, {"name": "model_86/tf.nn.convolution_419/convolution/filter", "op": "Const", "attr": {"value": {"tensor": {"dtype": "DT_FLOAT", "tensorShape": {"dim": [{"size": "3"}, {"size": "3"}, {"size": "1"}, {"size": "1"}]}}}, "dtype": {"type": "DT_FLOAT"}}}, {"name": "model_86/tf.nn.convolution_420/convolution/filter", "op": "Const", "attr": {"value": {"tensor": {"dtype": "DT_FLOAT", "tensorShape": {"dim": [{"size": "3"}, {"size": "3"}, {"size": "1"}, {"size": "1"}]}}}, "dtype": {"type": "DT_FLOAT"}}}, {"name": "model_86/tf.nn.convolution_421/convolution/filter", "op": "Const", "attr": {"value": {"tensor": {"dtype": "DT_FLOAT", "tensorShape": {"dim": [{"size": "3"}, {"size": "3"}, {"size": "1"}, {"size": "1"}]}}}, "dtype": {"type": "DT_FLOAT"}}}, {"name": "model_86/tf.nn.convolution_422/convolution/filter", "op": "Const", "attr": {"value": {"tensor": {"dtype": "DT_FLOAT", "tensorShape": {"dim": [{"size": "3"}, {"size": "3"}, {"size": "1"}, {"size": "1"}]}}}, "dtype": {"type": "DT_FLOAT"}}}, {"name": "model_86/tf.nn.convolution_423/convolution/filter", "op": "Const", "attr": {"value": {"tensor": {"dtype": "DT_FLOAT", "tensorShape": {"dim": [{"size": "3"}, {"size": "3"}, {"size": "1"}, {"size": "1"}]}}}, "dtype": {"type": "DT_FLOAT"}}}, {"name": "model_86/tf.nn.convolution_424/convolution/filter", "op": "Const", "attr": {"value": {"tensor": {"dtype": "DT_FLOAT", "tensorShape": {"dim": [{"size": "3"}, {"size": "3"}, {"size": "1"}, {"size": "1"}]}}}, "dtype": {"type": "DT_FLOAT"}}}, {"name": "model_86/tf.nn.convolution_425/convolution/filter", "op": "Const", "attr": {"value": {"tensor": {"dtype": "DT_FLOAT", "tensorShape": {"dim": [{"size": "3"}, {"size": "3"}, {"size": "1"}, {"size": "1"}]}}}, "dtype": {"type": "DT_FLOAT"}}}, {"name": "model_86/tf.nn.convolution_426/convolution/filter", "op": "Const", "attr": {"value": {"tensor": {"dtype": "DT_FLOAT", "tensorShape": {"dim": [{"size": "3"}, {"size": "3"}, {"size": "1"}, {"size": "1"}]}}}, "dtype": {"type": "DT_FLOAT"}}}, {"name": "model_86/tf.nn.convolution_427/convolution/filter", "op": "Const", "attr": {"value": {"tensor": {"dtype": "DT_FLOAT", "tensorShape": {"dim": [{"size": "3"}, {"size": "3"}, {"size": "1"}, {"size": "1"}]}}}, "dtype": {"type": "DT_FLOAT"}}}, {"name": "model_86/tf.nn.convolution_428/convolution/filter", "op": "Const", "attr": {"value": {"tensor": {"dtype": "DT_FLOAT", "tensorShape": {"dim": [{"size": "3"}, {"size": "3"}, {"size": "1"}, {"size": "1"}]}}}, "dtype": {"type": "DT_FLOAT"}}}, {"name": "model_86/tf.nn.convolution_429/convolution/filter", "op": "Const", "attr": {"value": {"tensor": {"dtype": "DT_FLOAT", "tensorShape": {"dim": [{"size": "3"}, {"size": "3"}, {"size": "1"}, {"size": "1"}]}}}, "dtype": {"type": "DT_FLOAT"}}}, {"name": "model_86/tf.nn.convolution_430/convolution/filter", "op": "Const", "attr": {"value": {"tensor": {"dtype": "DT_FLOAT", "tensorShape": {"dim": [{"size": "3"}, {"size": "3"}, {"size": "1"}, {"size": "1"}]}}}, "dtype": {"type": "DT_FLOAT"}}}, {"name": "model_86/tf.nn.convolution_431/convolution/filter", "op": "Const", "attr": {"value": {"tensor": {"dtype": "DT_FLOAT", "tensorShape": {"dim": [{"size": "3"}, {"size": "3"}, {"size": "1"}, {"size": "1"}]}}}, "dtype": {"type": "DT_FLOAT"}}}, {"name": "model_86/tf.nn.convolution_432/convolution/filter", "op": "Const", "attr": {"value": {"tensor": {"dtype": "DT_FLOAT", "tensorShape": {"dim": [{"size": "3"}, {"size": "3"}, {"size": "1"}, {"size": "1"}]}}}, "dtype": {"type": "DT_FLOAT"}}}, {"name": "model_86/tf.nn.convolution_433/convolution/filter", "op": "Const", "attr": {"value": {"tensor": {"dtype": "DT_FLOAT", "tensorShape": {"dim": [{"size": "3"}, {"size": "3"}, {"size": "1"}, {"size": "1"}]}}}, "dtype": {"type": "DT_FLOAT"}}}, {"name": "model_86/tf.nn.convolution_434/convolution/filter", "op": "Const", "attr": {"value": {"tensor": {"dtype": "DT_FLOAT", "tensorShape": {"dim": [{"size": "3"}, {"size": "3"}, {"size": "1"}, {"size": "1"}]}}}, "dtype": {"type": "DT_FLOAT"}}}, {"name": "model_86/tf.nn.convolution_435/convolution/filter", "op": "Const", "attr": {"value": {"tensor": {"dtype": "DT_FLOAT", "tensorShape": {"dim": [{"size": "3"}, {"size": "3"}, {"size": "1"}, {"size": "1"}]}}}, "dtype": {"type": "DT_FLOAT"}}}, {"name": "model_86/tf.nn.convolution_436/convolution/filter", "op": "Const", "attr": {"value": {"tensor": {"dtype": "DT_FLOAT", "tensorShape": {"dim": [{"size": "3"}, {"size": "3"}, {"size": "1"}, {"size": "1"}]}}}, "dtype": {"type": "DT_FLOAT"}}}, {"name": "model_86/tf.nn.convolution_437/convolution/filter", "op": "Const", "attr": {"value": {"tensor": {"dtype": "DT_FLOAT", "tensorShape": {"dim": [{"size": "3"}, {"size": "3"}, {"size": "1"}, {"size": "1"}]}}}, "dtype": {"type": "DT_FLOAT"}}}, {"name": "model_86/tf.nn.convolution_438/convolution/filter", "op": "Const", "attr": {"value": {"tensor": {"dtype": "DT_FLOAT", "tensorShape": {"dim": [{"size": "3"}, {"size": "3"}, {"size": "1"}, {"size": "1"}]}}}, "dtype": {"type": "DT_FLOAT"}}}, {"name": "model_86/tf.nn.convolution_439/convolution/filter", "op": "Const", "attr": {"value": {"tensor": {"dtype": "DT_FLOAT", "tensorShape": {"dim": [{"size": "3"}, {"size": "3"}, {"size": "1"}, {"size": "1"}]}}}, "dtype": {"type": "DT_FLOAT"}}}, {"name": "model_86/tf.nn.convolution_440/convolution/filter", "op": "Const", "attr": {"value": {"tensor": {"dtype": "DT_FLOAT", "tensorShape": {"dim": [{"size": "3"}, {"size": "3"}, {"size": "1"}, {"size": "1"}]}}}, "dtype": {"type": "DT_FLOAT"}}}, {"name": "model_86/tf.nn.convolution_441/convolution/filter", "op": "Const", "attr": {"value": {"tensor": {"dtype": "DT_FLOAT", "tensorShape": {"dim": [{"size": "3"}, {"size": "3"}, {"size": "1"}, {"size": "1"}]}}}, "dtype": {"type": "DT_FLOAT"}}}, {"name": "model_86/tf.nn.convolution_442/convolution/filter", "op": "Const", "attr": {"value": {"tensor": {"dtype": "DT_FLOAT", "tensorShape": {"dim": [{"size": "3"}, {"size": "3"}, {"size": "1"}, {"size": "1"}]}}}, "dtype": {"type": "DT_FLOAT"}}}, {"name": "model_86/tf.nn.convolution_443/convolution/filter", "op": "Const", "attr": {"value": {"tensor": {"dtype": "DT_FLOAT", "tensorShape": {"dim": [{"size": "3"}, {"size": "3"}, {"size": "1"}, {"size": "1"}]}}}, "dtype": {"type": "DT_FLOAT"}}}, {"name": "model_86/tf.nn.convolution_444/convolution/filter", "op": "Const", "attr": {"value": {"tensor": {"dtype": "DT_FLOAT", "tensorShape": {"dim": [{"size": "3"}, {"size": "3"}, {"size": "1"}, {"size": "1"}]}}}, "dtype": {"type": "DT_FLOAT"}}}, {"name": "model_86/tf.nn.convolution_445/convolution/filter", "op": "Const", "attr": {"value": {"tensor": {"dtype": "DT_FLOAT", "tensorShape": {"dim": [{"size": "3"}, {"size": "3"}, {"size": "1"}, {"size": "1"}]}}}, "dtype": {"type": "DT_FLOAT"}}}, {"name": "model_86/tf.nn.convolution_446/convolution/filter", "op": "Const", "attr": {"value": {"tensor": {"dtype": "DT_FLOAT", "tensorShape": {"dim": [{"size": "3"}, {"size": "3"}, {"size": "1"}, {"size": "1"}]}}}, "dtype": {"type": "DT_FLOAT"}}}, {"name": "model_86/tf.nn.convolution_447/convolution/filter", "op": "Const", "attr": {"value": {"tensor": {"dtype": "DT_FLOAT", "tensorShape": {"dim": [{"size": "3"}, {"size": "3"}, {"size": "1"}, {"size": "1"}]}}}, "dtype": {"type": "DT_FLOAT"}}}, {"name": "model_86/tf.nn.convolution_448/convolution/filter", "op": "Const", "attr": {"value": {"tensor": {"dtype": "DT_FLOAT", "tensorShape": {"dim": [{"size": "3"}, {"size": "3"}, {"size": "1"}, {"size": "1"}]}}}, "dtype": {"type": "DT_FLOAT"}}}, {"name": "model_86/tf.nn.convolution_449/convolution/filter", "op": "Const", "attr": {"value": {"tensor": {"dtype": "DT_FLOAT", "tensorShape": {"dim": [{"size": "3"}, {"size": "3"}, {"size": "1"}, {"size": "1"}]}}}, "dtype": {"type": "DT_FLOAT"}}}, {"name": "model_86/tf.nn.convolution_450/convolution/filter", "op": "Const", "attr": {"value": {"tensor": {"dtype": "DT_FLOAT", "tensorShape": {"dim": [{"size": "3"}, {"size": "3"}, {"size": "1"}, {"size": "1"}]}}}, "dtype": {"type": "DT_FLOAT"}}}, {"name": "model_86/tf.nn.convolution_451/convolution/filter", "op": "Const", "attr": {"value": {"tensor": {"dtype": "DT_FLOAT", "tensorShape": {"dim": [{"size": "3"}, {"size": "3"}, {"size": "1"}, {"size": "1"}]}}}, "dtype": {"type": "DT_FLOAT"}}}, {"name": "model_86/tf.nn.convolution_452/convolution/filter", "op": "Const", "attr": {"value": {"tensor": {"dtype": "DT_FLOAT", "tensorShape": {"dim": [{"size": "3"}, {"size": "3"}, {"size": "1"}, {"size": "1"}]}}}, "dtype": {"type": "DT_FLOAT"}}}, {"name": "model_86/tf.nn.convolution_453/convolution/filter", "op": "Const", "attr": {"value": {"tensor": {"dtype": "DT_FLOAT", "tensorShape": {"dim": [{"size": "3"}, {"size": "3"}, {"size": "1"}, {"size": "1"}]}}}, "dtype": {"type": "DT_FLOAT"}}}, {"name": "model_86/tf.nn.convolution_454/convolution/filter", "op": "Const", "attr": {"value": {"tensor": {"dtype": "DT_FLOAT", "tensorShape": {"dim": [{"size": "3"}, {"size": "3"}, {"size": "1"}, {"size": "1"}]}}}, "dtype": {"type": "DT_FLOAT"}}}, {"name": "model_86/tf.nn.convolution_455/convolution/filter", "op": "Const", "attr": {"value": {"tensor": {"dtype": "DT_FLOAT", "tensorShape": {"dim": [{"size": "3"}, {"size": "3"}, {"size": "1"}, {"size": "1"}]}}}, "dtype": {"type": "DT_FLOAT"}}}, {"name": "model_86/tf.nn.convolution_456/convolution/filter", "op": "Const", "attr": {"value": {"tensor": {"dtype": "DT_FLOAT", "tensorShape": {"dim": [{"size": "3"}, {"size": "3"}, {"size": "1"}, {"size": "1"}]}}}, "dtype": {"type": "DT_FLOAT"}}}, {"name": "model_86/tf.nn.convolution_457/convolution/filter", "op": "Const", "attr": {"value": {"tensor": {"dtype": "DT_FLOAT", "tensorShape": {"dim": [{"size": "3"}, {"size": "3"}, {"size": "1"}, {"size": "1"}]}}}, "dtype": {"type": "DT_FLOAT"}}}, {"name": "model_86/tf.nn.convolution_458/convolution/filter", "op": "Const", "attr": {"value": {"tensor": {"dtype": "DT_FLOAT", "tensorShape": {"dim": [{"size": "3"}, {"size": "3"}, {"size": "1"}, {"size": "1"}]}}}, "dtype": {"type": "DT_FLOAT"}}}, {"name": "model_86/tf.nn.convolution_459/convolution/filter", "op": "Const", "attr": {"value": {"tensor": {"dtype": "DT_FLOAT", "tensorShape": {"dim": [{"size": "3"}, {"size": "3"}, {"size": "1"}, {"size": "1"}]}}}, "dtype": {"type": "DT_FLOAT"}}}, {"name": "model_86/tf.nn.convolution_460/convolution/filter", "op": "Const", "attr": {"value": {"tensor": {"dtype": "DT_FLOAT", "tensorShape": {"dim": [{"size": "3"}, {"size": "3"}, {"size": "1"}, {"size": "1"}]}}}, "dtype": {"type": "DT_FLOAT"}}}, {"name": "model_86/tf.nn.convolution_461/convolution/filter", "op": "Const", "attr": {"value": {"tensor": {"dtype": "DT_FLOAT", "tensorShape": {"dim": [{"size": "3"}, {"size": "3"}, {"size": "1"}, {"size": "1"}]}}}, "dtype": {"type": "DT_FLOAT"}}}, {"name": "model_86/tf.nn.convolution_462/convolution/filter", "op": "Const", "attr": {"value": {"tensor": {"dtype": "DT_FLOAT", "tensorShape": {"dim": [{"size": "3"}, {"size": "3"}, {"size": "1"}, {"size": "1"}]}}}, "dtype": {"type": "DT_FLOAT"}}}, {"name": "model_86/tf.nn.convolution_463/convolution/filter", "op": "Const", "attr": {"value": {"tensor": {"dtype": "DT_FLOAT", "tensorShape": {"dim": [{"size": "3"}, {"size": "3"}, {"size": "1"}, {"size": "1"}]}}}, "dtype": {"type": "DT_FLOAT"}}}, {"name": "model_86/tf.nn.convolution_464/convolution/filter", "op": "Const", "attr": {"value": {"tensor": {"dtype": "DT_FLOAT", "tensorShape": {"dim": [{"size": "3"}, {"size": "3"}, {"size": "1"}, {"size": "1"}]}}}, "dtype": {"type": "DT_FLOAT"}}}, {"name": "model_86/tf.nn.convolution_465/convolution/filter", "op": "Const", "attr": {"value": {"tensor": {"dtype": "DT_FLOAT", "tensorShape": {"dim": [{"size": "3"}, {"size": "3"}, {"size": "1"}, {"size": "1"}]}}}, "dtype": {"type": "DT_FLOAT"}}}, {"name": "model_86/tf.nn.convolution_466/convolution/filter", "op": "Const", "attr": {"value": {"tensor": {"dtype": "DT_FLOAT", "tensorShape": {"dim": [{"size": "3"}, {"size": "3"}, {"size": "1"}, {"size": "1"}]}}}, "dtype": {"type": "DT_FLOAT"}}}, {"name": "model_86/tf.nn.convolution_467/convolution/filter", "op": "Const", "attr": {"value": {"tensor": {"dtype": "DT_FLOAT", "tensorShape": {"dim": [{"size": "3"}, {"size": "3"}, {"size": "1"}, {"size": "1"}]}}}, "dtype": {"type": "DT_FLOAT"}}}, {"name": "model_86/tf.nn.convolution_468/convolution/filter", "op": "Const", "attr": {"value": {"tensor": {"dtype": "DT_FLOAT", "tensorShape": {"dim": [{"size": "3"}, {"size": "3"}, {"size": "1"}, {"size": "1"}]}}}, "dtype": {"type": "DT_FLOAT"}}}, {"name": "model_86/tf.nn.convolution_469/convolution/filter", "op": "Const", "attr": {"value": {"tensor": {"dtype": "DT_FLOAT", "tensorShape": {"dim": [{"size": "3"}, {"size": "3"}, {"size": "1"}, {"size": "1"}]}}}, "dtype": {"type": "DT_FLOAT"}}}, {"name": "model_86/tf.nn.convolution_470/convolution/filter", "op": "Const", "attr": {"value": {"tensor": {"dtype": "DT_FLOAT", "tensorShape": {"dim": [{"size": "3"}, {"size": "3"}, {"size": "1"}, {"size": "1"}]}}}, "dtype": {"type": "DT_FLOAT"}}}, {"name": "model_86/tf.nn.convolution_471/convolution/filter", "op": "Const", "attr": {"value": {"tensor": {"dtype": "DT_FLOAT", "tensorShape": {"dim": [{"size": "3"}, {"size": "3"}, {"size": "1"}, {"size": "1"}]}}}, "dtype": {"type": "DT_FLOAT"}}}, {"name": "model_86/tf.nn.convolution_472/convolution/filter", "op": "Const", "attr": {"value": {"tensor": {"dtype": "DT_FLOAT", "tensorShape": {"dim": [{"size": "3"}, {"size": "3"}, {"size": "1"}, {"size": "1"}]}}}, "dtype": {"type": "DT_FLOAT"}}}, {"name": "model_86/tf.nn.convolution_473/convolution/filter", "op": "Const", "attr": {"value": {"tensor": {"dtype": "DT_FLOAT", "tensorShape": {"dim": [{"size": "3"}, {"size": "3"}, {"size": "1"}, {"size": "1"}]}}}, "dtype": {"type": "DT_FLOAT"}}}, {"name": "model_86/tf.nn.convolution_474/convolution/filter", "op": "Const", "attr": {"value": {"tensor": {"dtype": "DT_FLOAT", "tensorShape": {"dim": [{"size": "3"}, {"size": "3"}, {"size": "1"}, {"size": "1"}]}}}, "dtype": {"type": "DT_FLOAT"}}}, {"name": "model_86/tf.nn.convolution_475/convolution/filter", "op": "Const", "attr": {"value": {"tensor": {"dtype": "DT_FLOAT", "tensorShape": {"dim": [{"size": "3"}, {"size": "3"}, {"size": "1"}, {"size": "1"}]}}}, "dtype": {"type": "DT_FLOAT"}}}, {"name": "model_86/tf.nn.convolution_476/convolution/filter", "op": "Const", "attr": {"value": {"tensor": {"dtype": "DT_FLOAT", "tensorShape": {"dim": [{"size": "3"}, {"size": "3"}, {"size": "1"}, {"size": "1"}]}}}, "dtype": {"type": "DT_FLOAT"}}}, {"name": "model_86/tf.nn.convolution_477/convolution/filter", "op": "Const", "attr": {"value": {"tensor": {"dtype": "DT_FLOAT", "tensorShape": {"dim": [{"size": "3"}, {"size": "3"}, {"size": "1"}, {"size": "1"}]}}}, "dtype": {"type": "DT_FLOAT"}}}, {"name": "model_86/tf.nn.convolution_478/convolution/filter", "op": "Const", "attr": {"value": {"tensor": {"dtype": "DT_FLOAT", "tensorShape": {"dim": [{"size": "3"}, {"size": "3"}, {"size": "1"}, {"size": "1"}]}}}, "dtype": {"type": "DT_FLOAT"}}}, {"name": "model_86/tf.nn.convolution_479/convolution/filter", "op": "Const", "attr": {"value": {"tensor": {"dtype": "DT_FLOAT", "tensorShape": {"dim": [{"size": "3"}, {"size": "3"}, {"size": "1"}, {"size": "1"}]}}}, "dtype": {"type": "DT_FLOAT"}}}, {"name": "model_86/tf.nn.convolution_480/convolution/filter", "op": "Const", "attr": {"value": {"tensor": {"dtype": "DT_FLOAT", "tensorShape": {"dim": [{"size": "3"}, {"size": "3"}, {"size": "1"}, {"size": "1"}]}}}, "dtype": {"type": "DT_FLOAT"}}}, {"name": "model_86/tf.nn.convolution_481/convolution/filter", "op": "Const", "attr": {"value": {"tensor": {"dtype": "DT_FLOAT", "tensorShape": {"dim": [{"size": "3"}, {"size": "3"}, {"size": "1"}, {"size": "1"}]}}}, "dtype": {"type": "DT_FLOAT"}}}, {"name": "model_86/tf.nn.convolution_482/convolution/filter", "op": "Const", "attr": {"value": {"tensor": {"dtype": "DT_FLOAT", "tensorShape": {"dim": [{"size": "3"}, {"size": "3"}, {"size": "1"}, {"size": "1"}]}}}, "dtype": {"type": "DT_FLOAT"}}}, {"name": "model_86/tf.nn.convolution_483/convolution/filter", "op": "Const", "attr": {"value": {"tensor": {"dtype": "DT_FLOAT", "tensorShape": {"dim": [{"size": "3"}, {"size": "3"}, {"size": "1"}, {"size": "1"}]}}}, "dtype": {"type": "DT_FLOAT"}}}, {"name": "model_86/tf.nn.convolution_484/convolution/filter", "op": "Const", "attr": {"value": {"tensor": {"dtype": "DT_FLOAT", "tensorShape": {"dim": [{"size": "3"}, {"size": "3"}, {"size": "1"}, {"size": "1"}]}}}, "dtype": {"type": "DT_FLOAT"}}}, {"name": "model_86/tf.nn.convolution_485/convolution/filter", "op": "Const", "attr": {"value": {"tensor": {"dtype": "DT_FLOAT", "tensorShape": {"dim": [{"size": "3"}, {"size": "3"}, {"size": "1"}, {"size": "1"}]}}}, "dtype": {"type": "DT_FLOAT"}}}, {"name": "model_86/tf.nn.convolution_486/convolution/filter", "op": "Const", "attr": {"value": {"tensor": {"dtype": "DT_FLOAT", "tensorShape": {"dim": [{"size": "3"}, {"size": "3"}, {"size": "1"}, {"size": "1"}]}}}, "dtype": {"type": "DT_FLOAT"}}}, {"name": "model_86/tf.nn.convolution_487/convolution/filter", "op": "Const", "attr": {"value": {"tensor": {"dtype": "DT_FLOAT", "tensorShape": {"dim": [{"size": "3"}, {"size": "3"}, {"size": "1"}, {"size": "1"}]}}}, "dtype": {"type": "DT_FLOAT"}}}, {"name": "model_86/tf.nn.convolution_488/convolution/filter", "op": "Const", "attr": {"value": {"tensor": {"dtype": "DT_FLOAT", "tensorShape": {"dim": [{"size": "3"}, {"size": "3"}, {"size": "1"}, {"size": "1"}]}}}, "dtype": {"type": "DT_FLOAT"}}}, {"name": "model_86/tf.nn.convolution_489/convolution/filter", "op": "Const", "attr": {"value": {"tensor": {"dtype": "DT_FLOAT", "tensorShape": {"dim": [{"size": "3"}, {"size": "3"}, {"size": "1"}, {"size": "1"}]}}}, "dtype": {"type": "DT_FLOAT"}}}, {"name": "model_86/tf.nn.convolution_490/convolution/filter", "op": "Const", "attr": {"value": {"tensor": {"dtype": "DT_FLOAT", "tensorShape": {"dim": [{"size": "3"}, {"size": "3"}, {"size": "1"}, {"size": "1"}]}}}, "dtype": {"type": "DT_FLOAT"}}}, {"name": "model_86/tf.nn.convolution_491/convolution/filter", "op": "Const", "attr": {"value": {"tensor": {"dtype": "DT_FLOAT", "tensorShape": {"dim": [{"size": "3"}, {"size": "3"}, {"size": "1"}, {"size": "1"}]}}}, "dtype": {"type": "DT_FLOAT"}}}, {"name": "model_86/tf.nn.convolution_492/convolution/filter", "op": "Const", "attr": {"value": {"tensor": {"dtype": "DT_FLOAT", "tensorShape": {"dim": [{"size": "3"}, {"size": "3"}, {"size": "1"}, {"size": "1"}]}}}, "dtype": {"type": "DT_FLOAT"}}}, {"name": "model_86/tf.nn.convolution_493/convolution/filter", "op": "Const", "attr": {"value": {"tensor": {"dtype": "DT_FLOAT", "tensorShape": {"dim": [{"size": "3"}, {"size": "3"}, {"size": "1"}, {"size": "1"}]}}}, "dtype": {"type": "DT_FLOAT"}}}, {"name": "model_86/tf.nn.convolution_494/convolution/filter", "op": "Const", "attr": {"value": {"tensor": {"dtype": "DT_FLOAT", "tensorShape": {"dim": [{"size": "3"}, {"size": "3"}, {"size": "1"}, {"size": "1"}]}}}, "dtype": {"type": "DT_FLOAT"}}}, {"name": "model_86/tf.nn.convolution_495/convolution/filter", "op": "Const", "attr": {"value": {"tensor": {"dtype": "DT_FLOAT", "tensorShape": {"dim": [{"size": "3"}, {"size": "3"}, {"size": "1"}, {"size": "1"}]}}}, "dtype": {"type": "DT_FLOAT"}}}, {"name": "model_86/tf.nn.convolution_496/convolution/filter", "op": "Const", "attr": {"value": {"tensor": {"dtype": "DT_FLOAT", "tensorShape": {"dim": [{"size": "3"}, {"size": "3"}, {"size": "1"}, {"size": "1"}]}}}, "dtype": {"type": "DT_FLOAT"}}}, {"name": "model_86/tf.nn.convolution_497/convolution/filter", "op": "Const", "attr": {"value": {"tensor": {"dtype": "DT_FLOAT", "tensorShape": {"dim": [{"size": "3"}, {"size": "3"}, {"size": "1"}, {"size": "1"}]}}}, "dtype": {"type": "DT_FLOAT"}}}, {"name": "model_86/tf.nn.convolution_498/convolution/filter", "op": "Const", "attr": {"value": {"tensor": {"dtype": "DT_FLOAT", "tensorShape": {"dim": [{"size": "3"}, {"size": "3"}, {"size": "1"}, {"size": "1"}]}}}, "dtype": {"type": "DT_FLOAT"}}}, {"name": "model_86/tf.nn.convolution_499/convolution/filter", "op": "Const", "attr": {"value": {"tensor": {"dtype": "DT_FLOAT", "tensorShape": {"dim": [{"size": "3"}, {"size": "3"}, {"size": "1"}, {"size": "1"}]}}}, "dtype": {"type": "DT_FLOAT"}}}, {"name": "model_86/tf.nn.convolution_500/convolution/filter", "op": "Const", "attr": {"value": {"tensor": {"dtype": "DT_FLOAT", "tensorShape": {"dim": [{"size": "3"}, {"size": "3"}, {"size": "1"}, {"size": "1"}]}}}, "dtype": {"type": "DT_FLOAT"}}}, {"name": "model_86/tf.nn.convolution_501/convolution/filter", "op": "Const", "attr": {"value": {"tensor": {"dtype": "DT_FLOAT", "tensorShape": {"dim": [{"size": "3"}, {"size": "3"}, {"size": "1"}, {"size": "1"}]}}}, "dtype": {"type": "DT_FLOAT"}}}, {"name": "model_86/tf.nn.convolution_502/convolution/filter", "op": "Const", "attr": {"value": {"tensor": {"dtype": "DT_FLOAT", "tensorShape": {"dim": [{"size": "3"}, {"size": "3"}, {"size": "1"}, {"size": "1"}]}}}, "dtype": {"type": "DT_FLOAT"}}}, {"name": "model_86/tf.nn.convolution_503/convolution/filter", "op": "Const", "attr": {"value": {"tensor": {"dtype": "DT_FLOAT", "tensorShape": {"dim": [{"size": "3"}, {"size": "3"}, {"size": "1"}, {"size": "1"}]}}}, "dtype": {"type": "DT_FLOAT"}}}, {"name": "model_86/tf.nn.convolution_504/convolution/filter", "op": "Const", "attr": {"value": {"tensor": {"dtype": "DT_FLOAT", "tensorShape": {"dim": [{"size": "3"}, {"size": "3"}, {"size": "1"}, {"size": "1"}]}}}, "dtype": {"type": "DT_FLOAT"}}}, {"name": "model_86/tf.nn.convolution_505/convolution/filter", "op": "Const", "attr": {"value": {"tensor": {"dtype": "DT_FLOAT", "tensorShape": {"dim": [{"size": "3"}, {"size": "3"}, {"size": "1"}, {"size": "1"}]}}}, "dtype": {"type": "DT_FLOAT"}}}, {"name": "model_86/tf.nn.convolution_506/convolution/filter", "op": "Const", "attr": {"value": {"tensor": {"dtype": "DT_FLOAT", "tensorShape": {"dim": [{"size": "3"}, {"size": "3"}, {"size": "1"}, {"size": "1"}]}}}, "dtype": {"type": "DT_FLOAT"}}}, {"name": "model_86/tf.nn.convolution_507/convolution/filter", "op": "Const", "attr": {"value": {"tensor": {"dtype": "DT_FLOAT", "tensorShape": {"dim": [{"size": "3"}, {"size": "3"}, {"size": "1"}, {"size": "1"}]}}}, "dtype": {"type": "DT_FLOAT"}}}, {"name": "model_86/tf.nn.convolution_508/convolution/filter", "op": "Const", "attr": {"value": {"tensor": {"dtype": "DT_FLOAT", "tensorShape": {"dim": [{"size": "3"}, {"size": "3"}, {"size": "1"}, {"size": "1"}]}}}, "dtype": {"type": "DT_FLOAT"}}}, {"name": "model_86/tf.nn.convolution_509/convolution/filter", "op": "Const", "attr": {"value": {"tensor": {"dtype": "DT_FLOAT", "tensorShape": {"dim": [{"size": "3"}, {"size": "3"}, {"size": "1"}, {"size": "1"}]}}}, "dtype": {"type": "DT_FLOAT"}}}, {"name": "model_86/tf.nn.convolution_510/convolution/filter", "op": "Const", "attr": {"value": {"tensor": {"dtype": "DT_FLOAT", "tensorShape": {"dim": [{"size": "3"}, {"size": "3"}, {"size": "1"}, {"size": "1"}]}}}, "dtype": {"type": "DT_FLOAT"}}}, {"name": "model_86/tf.split_1/split/split_dim", "op": "Const", "attr": {"value": {"tensor": {"dtype": "DT_INT32", "tensorShape": {}}}, "dtype": {"type": "DT_INT32"}}}, {"name": "model_86/tf.strided_slice_29/ones_like/tensor", "op": "Const", "attr": {"value": {"tensor": {"dtype": "DT_INT64", "tensorShape": {"dim": [{"size": "4"}]}}}, "dtype": {"type": "DT_INT64"}}}, {"name": "model_86/tf.strided_slice_29/StridedSlice/end", "op": "Const", "attr": {"value": {"tensor": {"dtype": "DT_INT64", "tensorShape": {"dim": [{"size": "4"}]}}}, "dtype": {"type": "DT_INT64"}}}, {"name": "model_86/tf.strided_slice_29/ones_like", "op": "Const", "attr": {"value": {"tensor": {"dtype": "DT_INT64", "tensorShape": {"dim": [{"size": "4"}]}}}, "dtype": {"type": "DT_INT64"}}}, {"name": "model_86/tf.nn.convolution_372/convolution/filter", "op": "Const", "attr": {"value": {"tensor": {"dtype": "DT_FLOAT", "tensorShape": {"dim": [{"size": "1"}, {"size": "1"}, {"size": "128"}, {"size": "64"}]}}}, "dtype": {"type": "DT_FLOAT"}}}, {"name": "model_86/tf.math.add_161/Add/y", "op": "Const", "attr": {"value": {"tensor": {"dtype": "DT_FLOAT", "tensorShape": {"dim": [{"size": "64"}]}}}, "dtype": {"type": "DT_FLOAT"}}}, {"name": "model_86/tf.nn.convolution_374/convolution/filter", "op": "Const", "attr": {"value": {"tensor": {"dtype": "DT_FLOAT", "tensorShape": {"dim": [{"size": "3"}, {"size": "3"}, {"size": "64"}, {"size": "64"}]}}}, "dtype": {"type": "DT_FLOAT"}}}, {"name": "model_86/tf.math.add_163/Add/y", "op": "Const", "attr": {"value": {"tensor": {"dtype": "DT_FLOAT", "tensorShape": {"dim": [{"size": "64"}]}}}, "dtype": {"type": "DT_FLOAT"}}}, {"name": "model_86/tf.nn.convolution_375/convolution/filter", "op": "Const", "attr": {"value": {"tensor": {"dtype": "DT_FLOAT", "tensorShape": {"dim": [{"size": "3"}, {"size": "3"}, {"size": "64"}, {"size": "64"}]}}}, "dtype": {"type": "DT_FLOAT"}}}, {"name": "model_86/tf.math.add_164/Add/y", "op": "Const", "attr": {"value": {"tensor": {"dtype": "DT_FLOAT", "tensorShape": {"dim": [{"size": "64"}]}}}, "dtype": {"type": "DT_FLOAT"}}}, {"name": "model_86/tf.nn.convolution_376/convolution/filter", "op": "Const", "attr": {"value": {"tensor": {"dtype": "DT_FLOAT", "tensorShape": {"dim": [{"size": "3"}, {"size": "3"}, {"size": "64"}, {"size": "64"}]}}}, "dtype": {"type": "DT_FLOAT"}}}, {"name": "model_86/tf.math.add_167/Add/y", "op": "Const", "attr": {"value": {"tensor": {"dtype": "DT_FLOAT", "tensorShape": {"dim": [{"size": "64"}]}}}, "dtype": {"type": "DT_FLOAT"}}}, {"name": "model_86/tf.nn.convolution_377/convolution/filter", "op": "Const", "attr": {"value": {"tensor": {"dtype": "DT_FLOAT", "tensorShape": {"dim": [{"size": "3"}, {"size": "3"}, {"size": "64"}, {"size": "64"}]}}}, "dtype": {"type": "DT_FLOAT"}}}, {"name": "model_86/tf.math.add_168/Add/y", "op": "Const", "attr": {"value": {"tensor": {"dtype": "DT_FLOAT", "tensorShape": {"dim": [{"size": "64"}]}}}, "dtype": {"type": "DT_FLOAT"}}}, {"name": "model_86/tf.compat.v1.pad_11/Pad/paddings", "op": "Const", "attr": {"value": {"tensor": {"dtype": "DT_INT32", "tensorShape": {"dim": [{"size": "4"}, {"size": "2"}]}}}, "dtype": {"type": "DT_INT32"}}}, {"name": "model_86/tf.nn.convolution_370/convolution/filter", "op": "Const", "attr": {"value": {"tensor": {"dtype": "DT_FLOAT", "tensorShape": {"dim": [{"size": "3"}, {"size": "3"}, {"size": "128"}, {"size": "256"}]}}}, "dtype": {"type": "DT_FLOAT"}}}, {"name": "model_86/tf.math.add_159/Add/y", "op": "Const", "attr": {"value": {"tensor": {"dtype": "DT_FLOAT", "tensorShape": {"dim": [{"size": "256"}]}}}, "dtype": {"type": "DT_FLOAT"}}}, {"name": "model_86/tf.nn.convolution_371/convolution/filter", "op": "Const", "attr": {"value": {"tensor": {"dtype": "DT_FLOAT", "tensorShape": {"dim": [{"size": "1"}, {"size": "1"}, {"size": "256"}, {"size": "256"}]}}}, "dtype": {"type": "DT_FLOAT"}}}, {"name": "model_86/tf.math.add_160/Add/y", "op": "Const", "attr": {"value": {"tensor": {"dtype": "DT_FLOAT", "tensorShape": {"dim": [{"size": "256"}]}}}, "dtype": {"type": "DT_FLOAT"}}}, {"name": "model_86/tf.strided_slice_30/ones_like/tensor", "op": "Const", "attr": {"value": {"tensor": {"dtype": "DT_INT64", "tensorShape": {"dim": [{"size": "4"}]}}}, "dtype": {"type": "DT_INT64"}}}, {"name": "model_86/tf.strided_slice_30/StridedSlice/end", "op": "Const", "attr": {"value": {"tensor": {"dtype": "DT_INT64", "tensorShape": {"dim": [{"size": "4"}]}}}, "dtype": {"type": "DT_INT64"}}}, {"name": "model_86/tf.strided_slice_30/ones_like", "op": "Const", "attr": {"value": {"tensor": {"dtype": "DT_INT64", "tensorShape": {"dim": [{"size": "4"}]}}}, "dtype": {"type": "DT_INT64"}}}, {"name": "model_86/tf.nn.convolution_373/convolution/filter", "op": "Const", "attr": {"value": {"tensor": {"dtype": "DT_FLOAT", "tensorShape": {"dim": [{"size": "1"}, {"size": "1"}, {"size": "128"}, {"size": "64"}]}}}, "dtype": {"type": "DT_FLOAT"}}}, {"name": "model_86/tf.math.add_162/Add/y", "op": "Const", "attr": {"value": {"tensor": {"dtype": "DT_FLOAT", "tensorShape": {"dim": [{"size": "64"}]}}}, "dtype": {"type": "DT_FLOAT"}}}, {"name": "model_86/tf.concat_30/concat/axis", "op": "Const", "attr": {"value": {"tensor": {"dtype": "DT_INT32", "tensorShape": {}}}, "dtype": {"type": "DT_INT32"}}}, {"name": "model_86/tf.nn.convolution_378/convolution/filter", "op": "Const", "attr": {"value": {"tensor": {"dtype": "DT_FLOAT", "tensorShape": {"dim": [{"size": "1"}, {"size": "1"}, {"size": "128"}, {"size": "128"}]}}}, "dtype": {"type": "DT_FLOAT"}}}, {"name": "model_86/tf.math.add_171/Add/y", "op": "Const", "attr": {"value": {"tensor": {"dtype": "DT_FLOAT", "tensorShape": {"dim": [{"size": "128"}]}}}, "dtype": {"type": "DT_FLOAT"}}}, {"name": "model_86/tf.concat_31/concat/axis", "op": "Const", "attr": {"value": {"tensor": {"dtype": "DT_INT32", "tensorShape": {}}}, "dtype": {"type": "DT_INT32"}}}, {"name": "model_86/tf.nn.convolution_379/convolution/filter", "op": "Const", "attr": {"value": {"tensor": {"dtype": "DT_FLOAT", "tensorShape": {"dim": [{"size": "1"}, {"size": "1"}, {"size": "384"}, {"size": "256"}]}}}, "dtype": {"type": "DT_FLOAT"}}}, {"name": "model_86/tf.math.add_172/Add/y", "op": "Const", "attr": {"value": {"tensor": {"dtype": "DT_FLOAT", "tensorShape": {"dim": [{"size": "256"}]}}}, "dtype": {"type": "DT_FLOAT"}}}, {"name": "model_86/tf.nn.convolution_380/convolution/filter", "op": "Const", "attr": {"value": {"tensor": {"dtype": "DT_FLOAT", "tensorShape": {"dim": [{"size": "1"}, {"size": "1"}, {"size": "256"}, {"size": "128"}]}}}, "dtype": {"type": "DT_FLOAT"}}}, {"name": "model_86/tf.math.add_173/Add/y", "op": "Const", "attr": {"value": {"tensor": {"dtype": "DT_FLOAT", "tensorShape": {"dim": [{"size": "128"}]}}}, "dtype": {"type": "DT_FLOAT"}}}, {"name": "model_86/tf.concat_32/concat/axis", "op": "Const", "attr": {"value": {"tensor": {"dtype": "DT_INT32", "tensorShape": {}}}, "dtype": {"type": "DT_INT32"}}}, {"name": "model_86/tf.nn.convolution_381/convolution/filter", "op": "Const", "attr": {"value": {"tensor": {"dtype": "DT_FLOAT", "tensorShape": {"dim": [{"size": "1"}, {"size": "1"}, {"size": "512"}, {"size": "256"}]}}}, "dtype": {"type": "DT_FLOAT"}}}, {"name": "model_86/tf.math.add_174/Add/y", "op": "Const", "attr": {"value": {"tensor": {"dtype": "DT_FLOAT", "tensorShape": {"dim": [{"size": "256"}]}}}, "dtype": {"type": "DT_FLOAT"}}}, {"name": "model_86/tf.nn.convolution_382/convolution/filter", "op": "Const", "attr": {"value": {"tensor": {"dtype": "DT_FLOAT", "tensorShape": {"dim": [{"size": "1"}, {"size": "1"}, {"size": "256"}, {"size": "256"}]}}}, "dtype": {"type": "DT_FLOAT"}}}, {"name": "model_86/tf.math.add_175/Add/y", "op": "Const", "attr": {"value": {"tensor": {"dtype": "DT_FLOAT", "tensorShape": {"dim": [{"size": "256"}]}}}, "dtype": {"type": "DT_FLOAT"}}}, {"name": "model_86/tf.strided_slice_32/StridedSlice/begin", "op": "Const", "attr": {"value": {"tensor": {"dtype": "DT_INT32", "tensorShape": {"dim": [{"size": "4"}]}}}, "dtype": {"type": "DT_INT32"}}}, {"name": "model_86/tf.strided_slice_32/StridedSlice/end", "op": "Const", "attr": {"value": {"tensor": {"dtype": "DT_INT32", "tensorShape": {"dim": [{"size": "4"}]}}}, "dtype": {"type": "DT_INT32"}}}, {"name": "model_86/tf.strided_slice_32/ones_like", "op": "Const", "attr": {"value": {"tensor": {"dtype": "DT_INT32", "tensorShape": {"dim": [{"size": "4"}]}}}, "dtype": {"type": "DT_INT32"}}}, {"name": "model_86/tf.nn.convolution_383/convolution/filter", "op": "Const", "attr": {"value": {"tensor": {"dtype": "DT_FLOAT", "tensorShape": {"dim": [{"size": "1"}, {"size": "1"}, {"size": "128"}, {"size": "256"}]}}}, "dtype": {"type": "DT_FLOAT"}}}, {"name": "model_86/tf.math.add_176/Add/y", "op": "Const", "attr": {"value": {"tensor": {"dtype": "DT_FLOAT", "tensorShape": {"dim": [{"size": "256"}]}}}, "dtype": {"type": "DT_FLOAT"}}}, {"name": "model_86/tf.compat.v1.transpose_218/transpose/perm", "op": "Const", "attr": {"value": {"tensor": {"dtype": "DT_INT32", "tensorShape": {"dim": [{"size": "4"}]}}}, "dtype": {"type": "DT_INT32"}}}, {"name": "model_86/tf.reshape_44/Reshape/shape", "op": "Const", "attr": {"value": {"tensor": {"dtype": "DT_INT32", "tensorShape": {"dim": [{"size": "4"}]}}}, "dtype": {"type": "DT_INT32"}}}, {"name": "model_86/tf.strided_slice_35/StridedSlice/begin", "op": "Const", "attr": {"value": {"tensor": {"dtype": "DT_INT32", "tensorShape": {"dim": [{"size": "4"}]}}}, "dtype": {"type": "DT_INT32"}}}, {"name": "model_86/tf.strided_slice_35/StridedSlice/end", "op": "Const", "attr": {"value": {"tensor": {"dtype": "DT_INT32", "tensorShape": {"dim": [{"size": "4"}]}}}, "dtype": {"type": "DT_INT32"}}}, {"name": "model_86/tf.strided_slice_35/ones_like", "op": "Const", "attr": {"value": {"tensor": {"dtype": "DT_INT32", "tensorShape": {"dim": [{"size": "4"}]}}}, "dtype": {"type": "DT_INT32"}}}, {"name": "model_86/tf.reshape_47/Reshape/shape", "op": "Const", "attr": {"value": {"tensor": {"dtype": "DT_INT32", "tensorShape": {"dim": [{"size": "4"}]}}}, "dtype": {"type": "DT_INT32"}}}, {"name": "model_86/tf.compat.v1.transpose_226/transpose/perm", "op": "Const", "attr": {"value": {"tensor": {"dtype": "DT_INT32", "tensorShape": {"dim": [{"size": "4"}]}}}, "dtype": {"type": "DT_INT32"}}}, {"name": "model_86/tf.nn.convolution_511/convolution/filter", "op": "Const", "attr": {"value": {"tensor": {"dtype": "DT_FLOAT", "tensorShape": {"dim": [{"size": "3"}, {"size": "3"}, {"size": "1"}, {"size": "1"}]}}}, "dtype": {"type": "DT_FLOAT"}}}, {"name": "model_86/tf.concat_33/concat/axis", "op": "Const", "attr": {"value": {"tensor": {"dtype": "DT_INT32", "tensorShape": {}}}, "dtype": {"type": "DT_INT32"}}}, {"name": "model_86/tf.nn.convolution_512/convolution/filter", "op": "Const", "attr": {"value": {"tensor": {"dtype": "DT_FLOAT", "tensorShape": {"dim": [{"size": "1"}, {"size": "1"}, {"size": "128"}, {"size": "128"}]}}}, "dtype": {"type": "DT_FLOAT"}}}, {"name": "model_86/tf.math.add_180/Add/y", "op": "Const", "attr": {"value": {"tensor": {"dtype": "DT_FLOAT", "tensorShape": {"dim": [{"size": "128"}]}}}, "dtype": {"type": "DT_FLOAT"}}}, {"name": "model_86/tf.nn.convolution_513/convolution/filter", "op": "Const", "attr": {"value": {"tensor": {"dtype": "DT_FLOAT", "tensorShape": {"dim": [{"size": "1"}, {"size": "1"}, {"size": "128"}, {"size": "256"}]}}}, "dtype": {"type": "DT_FLOAT"}}}, {"name": "model_86/tf.math.add_183/Add/y", "op": "Const", "attr": {"value": {"tensor": {"dtype": "DT_FLOAT", "tensorShape": {"dim": [{"size": "256"}]}}}, "dtype": {"type": "DT_FLOAT"}}}, {"name": "model_86/tf.nn.convolution_514/convolution/filter", "op": "Const", "attr": {"value": {"tensor": {"dtype": "DT_FLOAT", "tensorShape": {"dim": [{"size": "1"}, {"size": "1"}, {"size": "256"}, {"size": "128"}]}}}, "dtype": {"type": "DT_FLOAT"}}}, {"name": "model_86/tf.concat_34/concat/axis", "op": "Const", "attr": {"value": {"tensor": {"dtype": "DT_INT32", "tensorShape": {}}}, "dtype": {"type": "DT_INT32"}}}, {"name": "model_86/tf.nn.convolution_515/convolution/filter", "op": "Const", "attr": {"value": {"tensor": {"dtype": "DT_FLOAT", "tensorShape": {"dim": [{"size": "1"}, {"size": "1"}, {"size": "256"}, {"size": "256"}]}}}, "dtype": {"type": "DT_FLOAT"}}}, {"name": "model_86/tf.math.add_187/Add/y", "op": "Const", "attr": {"value": {"tensor": {"dtype": "DT_FLOAT", "tensorShape": {"dim": [{"size": "256"}]}}}, "dtype": {"type": "DT_FLOAT"}}}, {"name": "model_86/tf.image.resize_2/resize/size", "op": "Const", "attr": {"value": {"tensor": {"dtype": "DT_INT32", "tensorShape": {"dim": [{"size": "2"}]}}}, "dtype": {"type": "DT_INT32"}}}, {"name": "model_86/tf.strided_slice_27/ones_like/tensor", "op": "Const", "attr": {"value": {"tensor": {"dtype": "DT_INT64", "tensorShape": {"dim": [{"size": "4"}]}}}, "dtype": {"type": "DT_INT64"}}}, {"name": "model_86/tf.strided_slice_27/StridedSlice/end", "op": "Const", "attr": {"value": {"tensor": {"dtype": "DT_INT64", "tensorShape": {"dim": [{"size": "4"}]}}}, "dtype": {"type": "DT_INT64"}}}, {"name": "model_86/tf.strided_slice_27/ones_like", "op": "Const", "attr": {"value": {"tensor": {"dtype": "DT_INT64", "tensorShape": {"dim": [{"size": "4"}]}}}, "dtype": {"type": "DT_INT64"}}}, {"name": "model_86/tf.nn.convolution_362/convolution/filter", "op": "Const", "attr": {"value": {"tensor": {"dtype": "DT_FLOAT", "tensorShape": {"dim": [{"size": "1"}, {"size": "1"}, {"size": "64"}, {"size": "32"}]}}}, "dtype": {"type": "DT_FLOAT"}}}, {"name": "model_86/tf.math.add_147/Add/y", "op": "Const", "attr": {"value": {"tensor": {"dtype": "DT_FLOAT", "tensorShape": {"dim": [{"size": "32"}]}}}, "dtype": {"type": "DT_FLOAT"}}}, {"name": "model_86/tf.nn.convolution_364/convolution/filter", "op": "Const", "attr": {"value": {"tensor": {"dtype": "DT_FLOAT", "tensorShape": {"dim": [{"size": "3"}, {"size": "3"}, {"size": "32"}, {"size": "32"}]}}}, "dtype": {"type": "DT_FLOAT"}}}, {"name": "model_86/tf.math.add_149/Add/y", "op": "Const", "attr": {"value": {"tensor": {"dtype": "DT_FLOAT", "tensorShape": {"dim": [{"size": "32"}]}}}, "dtype": {"type": "DT_FLOAT"}}}, {"name": "model_86/tf.nn.convolution_365/convolution/filter", "op": "Const", "attr": {"value": {"tensor": {"dtype": "DT_FLOAT", "tensorShape": {"dim": [{"size": "3"}, {"size": "3"}, {"size": "32"}, {"size": "32"}]}}}, "dtype": {"type": "DT_FLOAT"}}}, {"name": "model_86/tf.math.add_150/Add/y", "op": "Const", "attr": {"value": {"tensor": {"dtype": "DT_FLOAT", "tensorShape": {"dim": [{"size": "32"}]}}}, "dtype": {"type": "DT_FLOAT"}}}, {"name": "model_86/tf.nn.convolution_366/convolution/filter", "op": "Const", "attr": {"value": {"tensor": {"dtype": "DT_FLOAT", "tensorShape": {"dim": [{"size": "3"}, {"size": "3"}, {"size": "32"}, {"size": "32"}]}}}, "dtype": {"type": "DT_FLOAT"}}}, {"name": "model_86/tf.math.add_153/Add/y", "op": "Const", "attr": {"value": {"tensor": {"dtype": "DT_FLOAT", "tensorShape": {"dim": [{"size": "32"}]}}}, "dtype": {"type": "DT_FLOAT"}}}, {"name": "model_86/tf.nn.convolution_367/convolution/filter", "op": "Const", "attr": {"value": {"tensor": {"dtype": "DT_FLOAT", "tensorShape": {"dim": [{"size": "3"}, {"size": "3"}, {"size": "32"}, {"size": "32"}]}}}, "dtype": {"type": "DT_FLOAT"}}}, {"name": "model_86/tf.math.add_154/Add/y", "op": "Const", "attr": {"value": {"tensor": {"dtype": "DT_FLOAT", "tensorShape": {"dim": [{"size": "32"}]}}}, "dtype": {"type": "DT_FLOAT"}}}, {"name": "model_86/tf.compat.v1.pad_10/Pad/paddings", "op": "Const", "attr": {"value": {"tensor": {"dtype": "DT_INT32", "tensorShape": {"dim": [{"size": "4"}, {"size": "2"}]}}}, "dtype": {"type": "DT_INT32"}}}, {"name": "model_86/tf.nn.convolution_360/convolution/filter", "op": "Const", "attr": {"value": {"tensor": {"dtype": "DT_FLOAT", "tensorShape": {"dim": [{"size": "3"}, {"size": "3"}, {"size": "128"}, {"size": "128"}]}}}, "dtype": {"type": "DT_FLOAT"}}}, {"name": "model_86/tf.math.add_145/Add/y", "op": "Const", "attr": {"value": {"tensor": {"dtype": "DT_FLOAT", "tensorShape": {"dim": [{"size": "128"}]}}}, "dtype": {"type": "DT_FLOAT"}}}, {"name": "model_86/tf.nn.convolution_361/convolution/filter", "op": "Const", "attr": {"value": {"tensor": {"dtype": "DT_FLOAT", "tensorShape": {"dim": [{"size": "1"}, {"size": "1"}, {"size": "128"}, {"size": "128"}]}}}, "dtype": {"type": "DT_FLOAT"}}}, {"name": "model_86/tf.math.add_146/Add/y", "op": "Const", "attr": {"value": {"tensor": {"dtype": "DT_FLOAT", "tensorShape": {"dim": [{"size": "128"}]}}}, "dtype": {"type": "DT_FLOAT"}}}, {"name": "model_86/tf.strided_slice_28/ones_like/tensor", "op": "Const", "attr": {"value": {"tensor": {"dtype": "DT_INT64", "tensorShape": {"dim": [{"size": "4"}]}}}, "dtype": {"type": "DT_INT64"}}}, {"name": "model_86/tf.strided_slice_28/StridedSlice/end", "op": "Const", "attr": {"value": {"tensor": {"dtype": "DT_INT64", "tensorShape": {"dim": [{"size": "4"}]}}}, "dtype": {"type": "DT_INT64"}}}, {"name": "model_86/tf.strided_slice_28/ones_like", "op": "Const", "attr": {"value": {"tensor": {"dtype": "DT_INT64", "tensorShape": {"dim": [{"size": "4"}]}}}, "dtype": {"type": "DT_INT64"}}}, {"name": "model_86/tf.nn.convolution_363/convolution/filter", "op": "Const", "attr": {"value": {"tensor": {"dtype": "DT_FLOAT", "tensorShape": {"dim": [{"size": "1"}, {"size": "1"}, {"size": "64"}, {"size": "32"}]}}}, "dtype": {"type": "DT_FLOAT"}}}, {"name": "model_86/tf.math.add_148/Add/y", "op": "Const", "attr": {"value": {"tensor": {"dtype": "DT_FLOAT", "tensorShape": {"dim": [{"size": "32"}]}}}, "dtype": {"type": "DT_FLOAT"}}}, {"name": "model_86/tf.concat_28/concat/axis", "op": "Const", "attr": {"value": {"tensor": {"dtype": "DT_INT32", "tensorShape": {}}}, "dtype": {"type": "DT_INT32"}}}, {"name": "model_86/tf.nn.convolution_368/convolution/filter", "op": "Const", "attr": {"value": {"tensor": {"dtype": "DT_FLOAT", "tensorShape": {"dim": [{"size": "1"}, {"size": "1"}, {"size": "64"}, {"size": "64"}]}}}, "dtype": {"type": "DT_FLOAT"}}}, {"name": "model_86/tf.math.add_157/Add/y", "op": "Const", "attr": {"value": {"tensor": {"dtype": "DT_FLOAT", "tensorShape": {"dim": [{"size": "64"}]}}}, "dtype": {"type": "DT_FLOAT"}}}, {"name": "model_86/tf.concat_29/concat/axis", "op": "Const", "attr": {"value": {"tensor": {"dtype": "DT_INT32", "tensorShape": {}}}, "dtype": {"type": "DT_INT32"}}}, {"name": "model_86/tf.nn.convolution_369/convolution/filter", "op": "Const", "attr": {"value": {"tensor": {"dtype": "DT_FLOAT", "tensorShape": {"dim": [{"size": "1"}, {"size": "1"}, {"size": "192"}, {"size": "128"}]}}}, "dtype": {"type": "DT_FLOAT"}}}, {"name": "model_86/tf.math.add_158/Add/y", "op": "Const", "attr": {"value": {"tensor": {"dtype": "DT_FLOAT", "tensorShape": {"dim": [{"size": "128"}]}}}, "dtype": {"type": "DT_FLOAT"}}}, {"name": "model_86/tf.concat_35/concat/axis", "op": "Const", "attr": {"value": {"tensor": {"dtype": "DT_INT32", "tensorShape": {}}}, "dtype": {"type": "DT_INT32"}}}, {"name": "model_86/tf.nn.convolution_516/convolution/filter", "op": "Const", "attr": {"value": {"tensor": {"dtype": "DT_FLOAT", "tensorShape": {"dim": [{"size": "1"}, {"size": "1"}, {"size": "384"}, {"size": "128"}]}}}, "dtype": {"type": "DT_FLOAT"}}}, {"name": "model_86/tf.math.add_188/Add/y", "op": "Const", "attr": {"value": {"tensor": {"dtype": "DT_FLOAT", "tensorShape": {"dim": [{"size": "128"}]}}}, "dtype": {"type": "DT_FLOAT"}}}, {"name": "model_86/tf.strided_slice_37/ones_like/tensor", "op": "Const", "attr": {"value": {"tensor": {"dtype": "DT_INT64", "tensorShape": {"dim": [{"size": "4"}]}}}, "dtype": {"type": "DT_INT64"}}}, {"name": "model_86/tf.strided_slice_37/StridedSlice/end", "op": "Const", "attr": {"value": {"tensor": {"dtype": "DT_INT64", "tensorShape": {"dim": [{"size": "4"}]}}}, "dtype": {"type": "DT_INT64"}}}, {"name": "model_86/tf.strided_slice_37/ones_like", "op": "Const", "attr": {"value": {"tensor": {"dtype": "DT_INT64", "tensorShape": {"dim": [{"size": "4"}]}}}, "dtype": {"type": "DT_INT64"}}}, {"name": "model_86/tf.nn.convolution_517/convolution/filter", "op": "Const", "attr": {"value": {"tensor": {"dtype": "DT_FLOAT", "tensorShape": {"dim": [{"size": "3"}, {"size": "3"}, {"size": "64"}, {"size": "32"}]}}}, "dtype": {"type": "DT_FLOAT"}}}, {"name": "model_86/tf.math.add_189/Add/y", "op": "Const", "attr": {"value": {"tensor": {"dtype": "DT_FLOAT", "tensorShape": {"dim": [{"size": "32"}]}}}, "dtype": {"type": "DT_FLOAT"}}}, {"name": "model_86/tf.nn.convolution_518/convolution/filter", "op": "Const", "attr": {"value": {"tensor": {"dtype": "DT_FLOAT", "tensorShape": {"dim": [{"size": "3"}, {"size": "3"}, {"size": "32"}, {"size": "64"}]}}}, "dtype": {"type": "DT_FLOAT"}}}, {"name": "model_86/tf.math.add_190/Add/y", "op": "Const", "attr": {"value": {"tensor": {"dtype": "DT_FLOAT", "tensorShape": {"dim": [{"size": "64"}]}}}, "dtype": {"type": "DT_FLOAT"}}}, {"name": "model_86/tf.concat_36/concat/axis", "op": "Const", "attr": {"value": {"tensor": {"dtype": "DT_INT32", "tensorShape": {}}}, "dtype": {"type": "DT_INT32"}}}, {"name": "model_86/tf.nn.convolution_519/convolution/filter", "op": "Const", "attr": {"value": {"tensor": {"dtype": "DT_FLOAT", "tensorShape": {"dim": [{"size": "1"}, {"size": "1"}, {"size": "192"}, {"size": "128"}]}}}, "dtype": {"type": "DT_FLOAT"}}}, {"name": "model_86/tf.math.add_193/Add/y", "op": "Const", "attr": {"value": {"tensor": {"dtype": "DT_FLOAT", "tensorShape": {"dim": [{"size": "128"}]}}}, "dtype": {"type": "DT_FLOAT"}}}, {"name": "model_86/tf.image.resize_3/resize/size", "op": "Const", "attr": {"value": {"tensor": {"dtype": "DT_INT32", "tensorShape": {"dim": [{"size": "2"}]}}}, "dtype": {"type": "DT_INT32"}}}, {"name": "model_86/tf.strided_slice_25/ones_like/tensor", "op": "Const", "attr": {"value": {"tensor": {"dtype": "DT_INT64", "tensorShape": {"dim": [{"size": "4"}]}}}, "dtype": {"type": "DT_INT64"}}}, {"name": "model_86/tf.strided_slice_25/StridedSlice/end", "op": "Const", "attr": {"value": {"tensor": {"dtype": "DT_INT64", "tensorShape": {"dim": [{"size": "4"}]}}}, "dtype": {"type": "DT_INT64"}}}, {"name": "model_86/tf.strided_slice_25/ones_like", "op": "Const", "attr": {"value": {"tensor": {"dtype": "DT_INT64", "tensorShape": {"dim": [{"size": "4"}]}}}, "dtype": {"type": "DT_INT64"}}}, {"name": "model_86/tf.strided_slice_23/ones_like/tensor", "op": "Const", "attr": {"value": {"tensor": {"dtype": "DT_INT64", "tensorShape": {"dim": [{"size": "4"}]}}}, "dtype": {"type": "DT_INT64"}}}, {"name": "model_86/tf.strided_slice_23/StridedSlice/end", "op": "Const", "attr": {"value": {"tensor": {"dtype": "DT_INT64", "tensorShape": {"dim": [{"size": "4"}]}}}, "dtype": {"type": "DT_INT64"}}}, {"name": "model_86/tf.strided_slice_23/ones_like", "op": "Const", "attr": {"value": {"tensor": {"dtype": "DT_INT64", "tensorShape": {"dim": [{"size": "4"}]}}}, "dtype": {"type": "DT_INT64"}}}, {"name": "model_86/tf.compat.v1.pad_7/Pad/paddings", "op": "Const", "attr": {"value": {"tensor": {"dtype": "DT_INT32", "tensorShape": {"dim": [{"size": "4"}, {"size": "2"}]}}}, "dtype": {"type": "DT_INT32"}}}, {"name": "model_86/tf.nn.convolution_349/convolution/filter", "op": "Const", "attr": {"value": {"tensor": {"dtype": "DT_FLOAT", "tensorShape": {"dim": [{"size": "3"}, {"size": "3"}, {"size": "3"}, {"size": "16"}]}}}, "dtype": {"type": "DT_FLOAT"}}}, {"name": "model_86/tf.math.add_130/Add/y", "op": "Const", "attr": {"value": {"tensor": {"dtype": "DT_FLOAT", "tensorShape": {"dim": [{"size": "16"}]}}}, "dtype": {"type": "DT_FLOAT"}}}, {"name": "model_86/tf.compat.v1.pad_8/Pad/paddings", "op": "Const", "attr": {"value": {"tensor": {"dtype": "DT_INT32", "tensorShape": {"dim": [{"size": "4"}, {"size": "2"}]}}}, "dtype": {"type": "DT_INT32"}}}, {"name": "model_86/tf.nn.convolution_350/convolution/filter", "op": "Const", "attr": {"value": {"tensor": {"dtype": "DT_FLOAT", "tensorShape": {"dim": [{"size": "3"}, {"size": "3"}, {"size": "16"}, {"size": "32"}]}}}, "dtype": {"type": "DT_FLOAT"}}}, {"name": "model_86/tf.math.add_131/Add/y", "op": "Const", "attr": {"value": {"tensor": {"dtype": "DT_FLOAT", "tensorShape": {"dim": [{"size": "32"}]}}}, "dtype": {"type": "DT_FLOAT"}}}, {"name": "model_86/tf.nn.convolution_351/convolution/filter", "op": "Const", "attr": {"value": {"tensor": {"dtype": "DT_FLOAT", "tensorShape": {"dim": [{"size": "1"}, {"size": "1"}, {"size": "32"}, {"size": "32"}]}}}, "dtype": {"type": "DT_FLOAT"}}}, {"name": "model_86/tf.math.add_132/Add/y", "op": "Const", "attr": {"value": {"tensor": {"dtype": "DT_FLOAT", "tensorShape": {"dim": [{"size": "32"}]}}}, "dtype": {"type": "DT_FLOAT"}}}, {"name": "model_86/tf.strided_slice_24/ones_like/tensor", "op": "Const", "attr": {"value": {"tensor": {"dtype": "DT_INT64", "tensorShape": {"dim": [{"size": "4"}]}}}, "dtype": {"type": "DT_INT64"}}}, {"name": "model_86/tf.strided_slice_24/StridedSlice/end", "op": "Const", "attr": {"value": {"tensor": {"dtype": "DT_INT64", "tensorShape": {"dim": [{"size": "4"}]}}}, "dtype": {"type": "DT_INT64"}}}, {"name": "model_86/tf.strided_slice_24/ones_like", "op": "Const", "attr": {"value": {"tensor": {"dtype": "DT_INT64", "tensorShape": {"dim": [{"size": "4"}]}}}, "dtype": {"type": "DT_INT64"}}}, {"name": "model_86/tf.nn.convolution_352/convolution/filter", "op": "Const", "attr": {"value": {"tensor": {"dtype": "DT_FLOAT", "tensorShape": {"dim": [{"size": "3"}, {"size": "3"}, {"size": "16"}, {"size": "8"}]}}}, "dtype": {"type": "DT_FLOAT"}}}, {"name": "model_86/tf.math.add_133/Add/y", "op": "Const", "attr": {"value": {"tensor": {"dtype": "DT_FLOAT", "tensorShape": {"dim": [{"size": "8"}]}}}, "dtype": {"type": "DT_FLOAT"}}}, {"name": "model_86/tf.nn.convolution_353/convolution/filter", "op": "Const", "attr": {"value": {"tensor": {"dtype": "DT_FLOAT", "tensorShape": {"dim": [{"size": "3"}, {"size": "3"}, {"size": "8"}, {"size": "16"}]}}}, "dtype": {"type": "DT_FLOAT"}}}, {"name": "model_86/tf.math.add_134/Add/y", "op": "Const", "attr": {"value": {"tensor": {"dtype": "DT_FLOAT", "tensorShape": {"dim": [{"size": "16"}]}}}, "dtype": {"type": "DT_FLOAT"}}}, {"name": "model_86/tf.concat_26/concat/axis", "op": "Const", "attr": {"value": {"tensor": {"dtype": "DT_INT32", "tensorShape": {}}}, "dtype": {"type": "DT_INT32"}}}, {"name": "model_86/tf.nn.convolution_354/convolution/filter", "op": "Const", "attr": {"value": {"tensor": {"dtype": "DT_FLOAT", "tensorShape": {"dim": [{"size": "1"}, {"size": "1"}, {"size": "48"}, {"size": "64"}]}}}, "dtype": {"type": "DT_FLOAT"}}}, {"name": "model_86/tf.math.add_137/Add/y", "op": "Const", "attr": {"value": {"tensor": {"dtype": "DT_FLOAT", "tensorShape": {"dim": [{"size": "64"}]}}}, "dtype": {"type": "DT_FLOAT"}}}, {"name": "model_86/tf.compat.v1.pad_9/Pad/paddings", "op": "Const", "attr": {"value": {"tensor": {"dtype": "DT_INT32", "tensorShape": {"dim": [{"size": "4"}, {"size": "2"}]}}}, "dtype": {"type": "DT_INT32"}}}, {"name": "model_86/tf.nn.convolution_355/convolution/filter", "op": "Const", "attr": {"value": {"tensor": {"dtype": "DT_FLOAT", "tensorShape": {"dim": [{"size": "3"}, {"size": "3"}, {"size": "64"}, {"size": "64"}]}}}, "dtype": {"type": "DT_FLOAT"}}}, {"name": "model_86/tf.math.add_138/Add/y", "op": "Const", "attr": {"value": {"tensor": {"dtype": "DT_FLOAT", "tensorShape": {"dim": [{"size": "64"}]}}}, "dtype": {"type": "DT_FLOAT"}}}, {"name": "model_86/tf.nn.convolution_356/convolution/filter", "op": "Const", "attr": {"value": {"tensor": {"dtype": "DT_FLOAT", "tensorShape": {"dim": [{"size": "1"}, {"size": "1"}, {"size": "64"}, {"size": "64"}]}}}, "dtype": {"type": "DT_FLOAT"}}}, {"name": "model_86/tf.math.add_139/Add/y", "op": "Const", "attr": {"value": {"tensor": {"dtype": "DT_FLOAT", "tensorShape": {"dim": [{"size": "64"}]}}}, "dtype": {"type": "DT_FLOAT"}}}, {"name": "model_86/tf.strided_slice_26/ones_like/tensor", "op": "Const", "attr": {"value": {"tensor": {"dtype": "DT_INT64", "tensorShape": {"dim": [{"size": "4"}]}}}, "dtype": {"type": "DT_INT64"}}}, {"name": "model_86/tf.strided_slice_26/StridedSlice/end", "op": "Const", "attr": {"value": {"tensor": {"dtype": "DT_INT64", "tensorShape": {"dim": [{"size": "4"}]}}}, "dtype": {"type": "DT_INT64"}}}, {"name": "model_86/tf.strided_slice_26/ones_like", "op": "Const", "attr": {"value": {"tensor": {"dtype": "DT_INT64", "tensorShape": {"dim": [{"size": "4"}]}}}, "dtype": {"type": "DT_INT64"}}}, {"name": "model_86/tf.nn.convolution_357/convolution/filter", "op": "Const", "attr": {"value": {"tensor": {"dtype": "DT_FLOAT", "tensorShape": {"dim": [{"size": "3"}, {"size": "3"}, {"size": "32"}, {"size": "16"}]}}}, "dtype": {"type": "DT_FLOAT"}}}, {"name": "model_86/tf.math.add_140/Add/y", "op": "Const", "attr": {"value": {"tensor": {"dtype": "DT_FLOAT", "tensorShape": {"dim": [{"size": "16"}]}}}, "dtype": {"type": "DT_FLOAT"}}}, {"name": "model_86/tf.nn.convolution_358/convolution/filter", "op": "Const", "attr": {"value": {"tensor": {"dtype": "DT_FLOAT", "tensorShape": {"dim": [{"size": "3"}, {"size": "3"}, {"size": "16"}, {"size": "32"}]}}}, "dtype": {"type": "DT_FLOAT"}}}, {"name": "model_86/tf.math.add_141/Add/y", "op": "Const", "attr": {"value": {"tensor": {"dtype": "DT_FLOAT", "tensorShape": {"dim": [{"size": "32"}]}}}, "dtype": {"type": "DT_FLOAT"}}}, {"name": "model_86/tf.concat_27/concat/axis", "op": "Const", "attr": {"value": {"tensor": {"dtype": "DT_INT32", "tensorShape": {}}}, "dtype": {"type": "DT_INT32"}}}, {"name": "model_86/tf.nn.convolution_359/convolution/filter", "op": "Const", "attr": {"value": {"tensor": {"dtype": "DT_FLOAT", "tensorShape": {"dim": [{"size": "1"}, {"size": "1"}, {"size": "96"}, {"size": "128"}]}}}, "dtype": {"type": "DT_FLOAT"}}}, {"name": "model_86/tf.math.add_144/Add/y", "op": "Const", "attr": {"value": {"tensor": {"dtype": "DT_FLOAT", "tensorShape": {"dim": [{"size": "128"}]}}}, "dtype": {"type": "DT_FLOAT"}}}, {"name": "model_86/tf.concat_37/concat/axis", "op": "Const", "attr": {"value": {"tensor": {"dtype": "DT_INT32", "tensorShape": {}}}, "dtype": {"type": "DT_INT32"}}}, {"name": "model_86/tf.nn.convolution_520/convolution/filter", "op": "Const", "attr": {"value": {"tensor": {"dtype": "DT_FLOAT", "tensorShape": {"dim": [{"size": "1"}, {"size": "1"}, {"size": "256"}, {"size": "64"}]}}}, "dtype": {"type": "DT_FLOAT"}}}, {"name": "model_86/tf.math.add_194/Add/y", "op": "Const", "attr": {"value": {"tensor": {"dtype": "DT_FLOAT", "tensorShape": {"dim": [{"size": "64"}]}}}, "dtype": {"type": "DT_FLOAT"}}}, {"name": "model_86/tf.strided_slice_39/ones_like/tensor", "op": "Const", "attr": {"value": {"tensor": {"dtype": "DT_INT64", "tensorShape": {"dim": [{"size": "4"}]}}}, "dtype": {"type": "DT_INT64"}}}, {"name": "model_86/tf.strided_slice_39/StridedSlice/end", "op": "Const", "attr": {"value": {"tensor": {"dtype": "DT_INT64", "tensorShape": {"dim": [{"size": "4"}]}}}, "dtype": {"type": "DT_INT64"}}}, {"name": "model_86/tf.strided_slice_39/ones_like", "op": "Const", "attr": {"value": {"tensor": {"dtype": "DT_INT64", "tensorShape": {"dim": [{"size": "4"}]}}}, "dtype": {"type": "DT_INT64"}}}, {"name": "model_86/tf.nn.convolution_521/convolution/filter", "op": "Const", "attr": {"value": {"tensor": {"dtype": "DT_FLOAT", "tensorShape": {"dim": [{"size": "3"}, {"size": "3"}, {"size": "32"}, {"size": "16"}]}}}, "dtype": {"type": "DT_FLOAT"}}}, {"name": "model_86/tf.math.add_195/Add/y", "op": "Const", "attr": {"value": {"tensor": {"dtype": "DT_FLOAT", "tensorShape": {"dim": [{"size": "16"}]}}}, "dtype": {"type": "DT_FLOAT"}}}, {"name": "model_86/tf.nn.convolution_522/convolution/filter", "op": "Const", "attr": {"value": {"tensor": {"dtype": "DT_FLOAT", "tensorShape": {"dim": [{"size": "3"}, {"size": "3"}, {"size": "16"}, {"size": "32"}]}}}, "dtype": {"type": "DT_FLOAT"}}}, {"name": "model_86/tf.math.add_196/Add/y", "op": "Const", "attr": {"value": {"tensor": {"dtype": "DT_FLOAT", "tensorShape": {"dim": [{"size": "32"}]}}}, "dtype": {"type": "DT_FLOAT"}}}, {"name": "model_86/tf.concat_38/concat/axis", "op": "Const", "attr": {"value": {"tensor": {"dtype": "DT_INT32", "tensorShape": {}}}, "dtype": {"type": "DT_INT32"}}}, {"name": "model_86/tf.nn.convolution_523/convolution/filter", "op": "Const", "attr": {"value": {"tensor": {"dtype": "DT_FLOAT", "tensorShape": {"dim": [{"size": "1"}, {"size": "1"}, {"size": "96"}, {"size": "64"}]}}}, "dtype": {"type": "DT_FLOAT"}}}, {"name": "model_86/tf.math.add_199/Add/y", "op": "Const", "attr": {"value": {"tensor": {"dtype": "DT_FLOAT", "tensorShape": {"dim": [{"size": "64"}]}}}, "dtype": {"type": "DT_FLOAT"}}}, {"name": "model_86/tf.nn.convolution_527/convolution/filter", "op": "Const", "attr": {"value": {"tensor": {"dtype": "DT_FLOAT", "tensorShape": {"dim": [{"size": "3"}, {"size": "3"}, {"size": "64"}, {"size": "64"}]}}}, "dtype": {"type": "DT_FLOAT"}}}, {"name": "model_86/tf.math.add_204/Add/y", "op": "Const", "attr": {"value": {"tensor": {"dtype": "DT_FLOAT", "tensorShape": {"dim": [{"size": "64"}]}}}, "dtype": {"type": "DT_FLOAT"}}}, {"name": "model_86/tf.math.add_208/Add/y", "op": "Const", "attr": {"value": {"tensor": {"dtype": "DT_FLOAT", "tensorShape": {"dim": [{"size": "64"}]}}}, "dtype": {"type": "DT_FLOAT"}}}, {"name": "model_86/tf.nn.convolution_532/convolution/filter", "op": "Const", "attr": {"value": {"tensor": {"dtype": "DT_FLOAT", "tensorShape": {"dim": [{"size": "3"}, {"size": "3"}, {"size": "64"}, {"size": "64"}]}}}, "dtype": {"type": "DT_FLOAT"}}}, {"name": "model_86/tf.math.add_210/Add/y", "op": "Const", "attr": {"value": {"tensor": {"dtype": "DT_FLOAT", "tensorShape": {"dim": [{"size": "64"}]}}}, "dtype": {"type": "DT_FLOAT"}}}, {"name": "model_86/tf.nn.convolution_535/convolution/filter", "op": "Const", "attr": {"value": {"tensor": {"dtype": "DT_FLOAT", "tensorShape": {"dim": [{"size": "1"}, {"size": "1"}, {"size": "64"}, {"size": "32"}]}}}, "dtype": {"type": "DT_FLOAT"}}}, {"name": "model_86/tf.math.add_216/Add/y", "op": "Const", "attr": {"value": {"tensor": {"dtype": "DT_FLOAT", "tensorShape": {"dim": [{"size": "32"}]}}}, "dtype": {"type": "DT_FLOAT"}}}, {"name": "x", "op": "Placeholder", "attr": {"shape": {"shape": {"dim": [{"size": "1"}, {"size": "640"}, {"size": "640"}, {"size": "3"}]}}, "dtype": {"type": "DT_FLOAT"}}}, {"name": "model_86/tf.compat.v1.pad_7/Pad", "op": "Pad", "input": ["x", "model_86/tf.compat.v1.pad_7/Pad/paddings"], "attr": {"Tpaddings": {"type": "DT_INT32"}, "T": {"type": "DT_FLOAT"}}}, {"name": "model_86/tf.math.add_130/Add", "op": "_FusedConv2D", "input": ["model_86/tf.compat.v1.pad_7/Pad", "model_86/tf.nn.convolution_349/convolution/filter", "model_86/tf.math.add_130/Add/y"], "device": "/device:CPU:0", "attr": {"num_host_args": {"i": "0"}, "data_format": {"s": "TkhXQw=="}, "filter_format": {"s": "SFdJTw=="}, "strides": {"list": {"i": ["1", "2", "2", "1"]}}, "num_args": {"i": "1"}, "fused_ops": {"list": {"s": ["Qmlhc0FkZA=="]}}, "TArgs": {"list": {"type": ["DT_FLOAT"]}}, "padding": {"s": "VkFMSUQ="}, "use_cudnn_on_gpu": {"b": true}, "leakyrelu_alpha": {"f": 0.2}, "epsilon": {"f": 0.0}, "T": {"type": "DT_FLOAT"}, "explicit_paddings": {"list": {}}, "dilations": {"list": {"i": ["1", "1", "1", "1"]}}}}, {"name": "model_86/tf.math.sigmoid_87/Sigmoid", "op": "Sigmoid", "input": ["model_86/tf.math.add_130/Add"], "attr": {"T": {"type": "DT_FLOAT"}}}, {"name": "model_86/tf.math.multiply_391/Mul", "op": "Mul", "input": ["model_86/tf.math.add_130/Add", "model_86/tf.math.sigmoid_87/Sigmoid"], "attr": {"T": {"type": "DT_FLOAT"}}}, {"name": "model_86/tf.compat.v1.pad_8/Pad", "op": "Pad", "input": ["model_86/tf.math.multiply_391/Mul", "model_86/tf.compat.v1.pad_8/Pad/paddings"], "attr": {"Tpaddings": {"type": "DT_INT32"}, "T": {"type": "DT_FLOAT"}}}, {"name": "model_86/tf.math.add_131/Add", "op": "_FusedConv2D", "input": ["model_86/tf.compat.v1.pad_8/Pad", "model_86/tf.nn.convolution_350/convolution/filter", "model_86/tf.math.add_131/Add/y"], "device": "/device:CPU:0", "attr": {"num_host_args": {"i": "0"}, "data_format": {"s": "TkhXQw=="}, "filter_format": {"s": "SFdJTw=="}, "fused_ops": {"list": {"s": ["Qmlhc0FkZA=="]}}, "num_args": {"i": "1"}, "strides": {"list": {"i": ["1", "2", "2", "1"]}}, "TArgs": {"list": {"type": ["DT_FLOAT"]}}, "padding": {"s": "VkFMSUQ="}, "use_cudnn_on_gpu": {"b": true}, "leakyrelu_alpha": {"f": 0.2}, "epsilon": {"f": 0.0}, "T": {"type": "DT_FLOAT"}, "explicit_paddings": {"list": {}}, "dilations": {"list": {"i": ["1", "1", "1", "1"]}}}}, {"name": "model_86/tf.math.sigmoid_88/Sigmoid", "op": "Sigmoid", "input": ["model_86/tf.math.add_131/Add"], "attr": {"T": {"type": "DT_FLOAT"}}}, {"name": "model_86/tf.math.multiply_395/Mul", "op": "Mul", "input": ["model_86/tf.math.add_131/Add", "model_86/tf.math.sigmoid_88/Sigmoid"], "attr": {"T": {"type": "DT_FLOAT"}}}, {"name": "model_86/tf.math.add_132/Add", "op": "_FusedConv2D", "input": ["model_86/tf.math.multiply_395/Mul", "model_86/tf.nn.convolution_351/convolution/filter", "model_86/tf.math.add_132/Add/y"], "device": "/device:CPU:0", "attr": {"num_host_args": {"i": "0"}, "data_format": {"s": "TkhXQw=="}, "filter_format": {"s": "SFdJTw=="}, "strides": {"list": {"i": ["1", "1", "1", "1"]}}, "num_args": {"i": "1"}, "fused_ops": {"list": {"s": ["Qmlhc0FkZA=="]}}, "TArgs": {"list": {"type": ["DT_FLOAT"]}}, "padding": {"s": "U0FNRQ=="}, "use_cudnn_on_gpu": {"b": true}, "leakyrelu_alpha": {"f": 0.2}, "epsilon": {"f": 0.0}, "T": {"type": "DT_FLOAT"}, "explicit_paddings": {"list": {}}, "dilations": {"list": {"i": ["1", "1", "1", "1"]}}}}, {"name": "model_86/tf.math.sigmoid_89/Sigmoid", "op": "Sigmoid", "input": ["model_86/tf.math.add_132/Add"], "attr": {"T": {"type": "DT_FLOAT"}}}, {"name": "model_86/tf.math.multiply_399/Mul", "op": "Mul", "input": ["model_86/tf.math.add_132/Add", "model_86/tf.math.sigmoid_89/Sigmoid"], "attr": {"T": {"type": "DT_FLOAT"}}}, {"name": "model_86/tf.strided_slice_23/StridedSlice", "op": "StridedSlice", "input": ["model_86/tf.math.multiply_399/Mul", "model_86/tf.strided_slice_23/ones_like/tensor", "model_86/tf.strided_slice_23/StridedSlice/end", "model_86/tf.strided_slice_23/ones_like"], "attr": {"shrink_axis_mask": {"i": "0"}, "new_axis_mask": {"i": "0"}, "Index": {"type": "DT_INT64"}, "begin_mask": {"i": "15"}, "T": {"type": "DT_FLOAT"}, "end_mask": {"i": "7"}, "ellipsis_mask": {"i": "0"}}}, {"name": "model_86/tf.strided_slice_24/StridedSlice", "op": "StridedSlice", "input": ["model_86/tf.math.multiply_399/Mul", "model_86/tf.strided_slice_24/ones_like/tensor", "model_86/tf.strided_slice_24/StridedSlice/end", "model_86/tf.strided_slice_24/ones_like"], "attr": {"shrink_axis_mask": {"i": "0"}, "new_axis_mask": {"i": "0"}, "Index": {"type": "DT_INT64"}, "begin_mask": {"i": "7"}, "T": {"type": "DT_FLOAT"}, "end_mask": {"i": "7"}, "ellipsis_mask": {"i": "0"}}}, {"name": "model_86/tf.math.add_133/Add", "op": "_FusedConv2D", "input": ["model_86/tf.strided_slice_24/StridedSlice", "model_86/tf.nn.convolution_352/convolution/filter", "model_86/tf.math.add_133/Add/y"], "device": "/device:CPU:0", "attr": {"num_host_args": {"i": "0"}, "data_format": {"s": "TkhXQw=="}, "filter_format": {"s": "SFdJTw=="}, "fused_ops": {"list": {"s": ["Qmlhc0FkZA=="]}}, "num_args": {"i": "1"}, "strides": {"list": {"i": ["1", "1", "1", "1"]}}, "TArgs": {"list": {"type": ["DT_FLOAT"]}}, "padding": {"s": "U0FNRQ=="}, "use_cudnn_on_gpu": {"b": true}, "leakyrelu_alpha": {"f": 0.2}, "epsilon": {"f": 0.0}, "T": {"type": "DT_FLOAT"}, "explicit_paddings": {"list": {}}, "dilations": {"list": {"i": ["1", "1", "1", "1"]}}}}, {"name": "model_86/tf.math.sigmoid_90/Sigmoid", "op": "Sigmoid", "input": ["model_86/tf.math.add_133/Add"], "attr": {"T": {"type": "DT_FLOAT"}}}, {"name": "model_86/tf.math.multiply_403/Mul", "op": "Mul", "input": ["model_86/tf.math.add_133/Add", "model_86/tf.math.sigmoid_90/Sigmoid"], "attr": {"T": {"type": "DT_FLOAT"}}}, {"name": "model_86/tf.math.add_134/Add", "op": "_FusedConv2D", "input": ["model_86/tf.math.multiply_403/Mul", "model_86/tf.nn.convolution_353/convolution/filter", "model_86/tf.math.add_134/Add/y"], "device": "/device:CPU:0", "attr": {"num_host_args": {"i": "0"}, "data_format": {"s": "TkhXQw=="}, "filter_format": {"s": "SFdJTw=="}, "strides": {"list": {"i": ["1", "1", "1", "1"]}}, "num_args": {"i": "1"}, "fused_ops": {"list": {"s": ["Qmlhc0FkZA=="]}}, "TArgs": {"list": {"type": ["DT_FLOAT"]}}, "padding": {"s": "U0FNRQ=="}, "use_cudnn_on_gpu": {"b": true}, "leakyrelu_alpha": {"f": 0.2}, "epsilon": {"f": 0.0}, "T": {"type": "DT_FLOAT"}, "explicit_paddings": {"list": {}}, "dilations": {"list": {"i": ["1", "1", "1", "1"]}}}}, {"name": "model_86/tf.math.sigmoid_91/Sigmoid", "op": "Sigmoid", "input": ["model_86/tf.math.add_134/Add"], "attr": {"T": {"type": "DT_FLOAT"}}}, {"name": "model_86/tf.math.multiply_407/Mul", "op": "Mul", "input": ["model_86/tf.math.add_134/Add", "model_86/tf.math.sigmoid_91/Sigmoid"], "attr": {"T": {"type": "DT_FLOAT"}}}, {"name": "model_86/tf.math.add_136/Add", "op": "AddV2", "input": ["model_86/tf.strided_slice_24/StridedSlice", "model_86/tf.math.multiply_407/Mul"], "attr": {"T": {"type": "DT_FLOAT"}}}, {"name": "model_86/tf.concat_26/concat", "op": "ConcatV2", "input": ["model_86/tf.strided_slice_23/StridedSlice", "model_86/tf.strided_slice_24/StridedSlice", "model_86/tf.math.add_136/Add", "model_86/tf.concat_26/concat/axis"], "attr": {"N": {"i": "3"}, "Tidx": {"type": "DT_INT32"}, "T": {"type": "DT_FLOAT"}}}, {"name": "model_86/tf.math.add_137/Add", "op": "_FusedConv2D", "input": ["model_86/tf.concat_26/concat", "model_86/tf.nn.convolution_354/convolution/filter", "model_86/tf.math.add_137/Add/y"], "device": "/device:CPU:0", "attr": {"num_host_args": {"i": "0"}, "data_format": {"s": "TkhXQw=="}, "filter_format": {"s": "SFdJTw=="}, "strides": {"list": {"i": ["1", "1", "1", "1"]}}, "num_args": {"i": "1"}, "fused_ops": {"list": {"s": ["Qmlhc0FkZA=="]}}, "TArgs": {"list": {"type": ["DT_FLOAT"]}}, "padding": {"s": "U0FNRQ=="}, "use_cudnn_on_gpu": {"b": true}, "leakyrelu_alpha": {"f": 0.2}, "epsilon": {"f": 0.0}, "T": {"type": "DT_FLOAT"}, "explicit_paddings": {"list": {}}, "dilations": {"list": {"i": ["1", "1", "1", "1"]}}}}, {"name": "model_86/tf.math.sigmoid_92/Sigmoid", "op": "Sigmoid", "input": ["model_86/tf.math.add_137/Add"], "attr": {"T": {"type": "DT_FLOAT"}}}, {"name": "model_86/tf.math.multiply_413/Mul", "op": "Mul", "input": ["model_86/tf.math.add_137/Add", "model_86/tf.math.sigmoid_92/Sigmoid"], "attr": {"T": {"type": "DT_FLOAT"}}}, {"name": "model_86/tf.compat.v1.pad_9/Pad", "op": "Pad", "input": ["model_86/tf.math.multiply_413/Mul", "model_86/tf.compat.v1.pad_9/Pad/paddings"], "attr": {"Tpaddings": {"type": "DT_INT32"}, "T": {"type": "DT_FLOAT"}}}, {"name": "model_86/tf.math.add_138/Add", "op": "_FusedConv2D", "input": ["model_86/tf.compat.v1.pad_9/Pad", "model_86/tf.nn.convolution_355/convolution/filter", "model_86/tf.math.add_138/Add/y"], "device": "/device:CPU:0", "attr": {"num_host_args": {"i": "0"}, "data_format": {"s": "TkhXQw=="}, "filter_format": {"s": "SFdJTw=="}, "strides": {"list": {"i": ["1", "2", "2", "1"]}}, "num_args": {"i": "1"}, "fused_ops": {"list": {"s": ["Qmlhc0FkZA=="]}}, "TArgs": {"list": {"type": ["DT_FLOAT"]}}, "padding": {"s": "VkFMSUQ="}, "use_cudnn_on_gpu": {"b": true}, "leakyrelu_alpha": {"f": 0.2}, "epsilon": {"f": 0.0}, "T": {"type": "DT_FLOAT"}, "explicit_paddings": {"list": {}}, "dilations": {"list": {"i": ["1", "1", "1", "1"]}}}}, {"name": "model_86/tf.math.sigmoid_93/Sigmoid", "op": "Sigmoid", "input": ["model_86/tf.math.add_138/Add"], "attr": {"T": {"type": "DT_FLOAT"}}}, {"name": "model_86/tf.math.multiply_417/Mul", "op": "Mul", "input": ["model_86/tf.math.add_138/Add", "model_86/tf.math.sigmoid_93/Sigmoid"], "attr": {"T": {"type": "DT_FLOAT"}}}, {"name": "model_86/tf.math.add_139/Add", "op": "_FusedConv2D", "input": ["model_86/tf.math.multiply_417/Mul", "model_86/tf.nn.convolution_356/convolution/filter", "model_86/tf.math.add_139/Add/y"], "device": "/device:CPU:0", "attr": {"num_host_args": {"i": "0"}, "data_format": {"s": "TkhXQw=="}, "filter_format": {"s": "SFdJTw=="}, "strides": {"list": {"i": ["1", "1", "1", "1"]}}, "num_args": {"i": "1"}, "fused_ops": {"list": {"s": ["Qmlhc0FkZA=="]}}, "TArgs": {"list": {"type": ["DT_FLOAT"]}}, "padding": {"s": "U0FNRQ=="}, "use_cudnn_on_gpu": {"b": true}, "leakyrelu_alpha": {"f": 0.2}, "epsilon": {"f": 0.0}, "T": {"type": "DT_FLOAT"}, "explicit_paddings": {"list": {}}, "dilations": {"list": {"i": ["1", "1", "1", "1"]}}}}, {"name": "model_86/tf.math.sigmoid_94/Sigmoid", "op": "Sigmoid", "input": ["model_86/tf.math.add_139/Add"], "attr": {"T": {"type": "DT_FLOAT"}}}, {"name": "model_86/tf.math.multiply_421/Mul", "op": "Mul", "input": ["model_86/tf.math.add_139/Add", "model_86/tf.math.sigmoid_94/Sigmoid"], "attr": {"T": {"type": "DT_FLOAT"}}}, {"name": "model_86/tf.strided_slice_25/StridedSlice", "op": "StridedSlice", "input": ["model_86/tf.math.multiply_421/Mul", "model_86/tf.strided_slice_25/ones_like/tensor", "model_86/tf.strided_slice_25/StridedSlice/end", "model_86/tf.strided_slice_25/ones_like"], "attr": {"shrink_axis_mask": {"i": "0"}, "new_axis_mask": {"i": "0"}, "Index": {"type": "DT_INT64"}, "begin_mask": {"i": "15"}, "end_mask": {"i": "7"}, "T": {"type": "DT_FLOAT"}, "ellipsis_mask": {"i": "0"}}}, {"name": "model_86/tf.strided_slice_26/StridedSlice", "op": "StridedSlice", "input": ["model_86/tf.math.multiply_421/Mul", "model_86/tf.strided_slice_26/ones_like/tensor", "model_86/tf.strided_slice_26/StridedSlice/end", "model_86/tf.strided_slice_26/ones_like"], "attr": {"shrink_axis_mask": {"i": "0"}, "Index": {"type": "DT_INT64"}, "new_axis_mask": {"i": "0"}, "begin_mask": {"i": "7"}, "T": {"type": "DT_FLOAT"}, "end_mask": {"i": "7"}, "ellipsis_mask": {"i": "0"}}}, {"name": "model_86/tf.math.add_140/Add", "op": "_FusedConv2D", "input": ["model_86/tf.strided_slice_26/StridedSlice", "model_86/tf.nn.convolution_357/convolution/filter", "model_86/tf.math.add_140/Add/y"], "device": "/device:CPU:0", "attr": {"num_host_args": {"i": "0"}, "data_format": {"s": "TkhXQw=="}, "filter_format": {"s": "SFdJTw=="}, "fused_ops": {"list": {"s": ["Qmlhc0FkZA=="]}}, "num_args": {"i": "1"}, "strides": {"list": {"i": ["1", "1", "1", "1"]}}, "TArgs": {"list": {"type": ["DT_FLOAT"]}}, "padding": {"s": "U0FNRQ=="}, "use_cudnn_on_gpu": {"b": true}, "leakyrelu_alpha": {"f": 0.2}, "epsilon": {"f": 0.0}, "T": {"type": "DT_FLOAT"}, "explicit_paddings": {"list": {}}, "dilations": {"list": {"i": ["1", "1", "1", "1"]}}}}, {"name": "model_86/tf.math.sigmoid_95/Sigmoid", "op": "Sigmoid", "input": ["model_86/tf.math.add_140/Add"], "attr": {"T": {"type": "DT_FLOAT"}}}, {"name": "model_86/tf.math.multiply_425/Mul", "op": "Mul", "input": ["model_86/tf.math.add_140/Add", "model_86/tf.math.sigmoid_95/Sigmoid"], "attr": {"T": {"type": "DT_FLOAT"}}}, {"name": "model_86/tf.math.add_141/Add", "op": "_FusedConv2D", "input": ["model_86/tf.math.multiply_425/Mul", "model_86/tf.nn.convolution_358/convolution/filter", "model_86/tf.math.add_141/Add/y"], "device": "/device:CPU:0", "attr": {"num_host_args": {"i": "0"}, "data_format": {"s": "TkhXQw=="}, "filter_format": {"s": "SFdJTw=="}, "strides": {"list": {"i": ["1", "1", "1", "1"]}}, "num_args": {"i": "1"}, "fused_ops": {"list": {"s": ["Qmlhc0FkZA=="]}}, "TArgs": {"list": {"type": ["DT_FLOAT"]}}, "padding": {"s": "U0FNRQ=="}, "use_cudnn_on_gpu": {"b": true}, "leakyrelu_alpha": {"f": 0.2}, "epsilon": {"f": 0.0}, "T": {"type": "DT_FLOAT"}, "explicit_paddings": {"list": {}}, "dilations": {"list": {"i": ["1", "1", "1", "1"]}}}}, {"name": "model_86/tf.math.sigmoid_96/Sigmoid", "op": "Sigmoid", "input": ["model_86/tf.math.add_141/Add"], "attr": {"T": {"type": "DT_FLOAT"}}}, {"name": "model_86/tf.math.multiply_429/Mul", "op": "Mul", "input": ["model_86/tf.math.add_141/Add", "model_86/tf.math.sigmoid_96/Sigmoid"], "attr": {"T": {"type": "DT_FLOAT"}}}, {"name": "model_86/tf.math.add_143/Add", "op": "AddV2", "input": ["model_86/tf.strided_slice_26/StridedSlice", "model_86/tf.math.multiply_429/Mul"], "attr": {"T": {"type": "DT_FLOAT"}}}, {"name": "model_86/tf.concat_27/concat", "op": "ConcatV2", "input": ["model_86/tf.strided_slice_25/StridedSlice", "model_86/tf.strided_slice_26/StridedSlice", "model_86/tf.math.add_143/Add", "model_86/tf.concat_27/concat/axis"], "attr": {"N": {"i": "3"}, "Tidx": {"type": "DT_INT32"}, "T": {"type": "DT_FLOAT"}}}, {"name": "model_86/tf.math.add_144/Add", "op": "_FusedConv2D", "input": ["model_86/tf.concat_27/concat", "model_86/tf.nn.convolution_359/convolution/filter", "model_86/tf.math.add_144/Add/y"], "device": "/device:CPU:0", "attr": {"num_host_args": {"i": "0"}, "data_format": {"s": "TkhXQw=="}, "filter_format": {"s": "SFdJTw=="}, "fused_ops": {"list": {"s": ["Qmlhc0FkZA=="]}}, "num_args": {"i": "1"}, "strides": {"list": {"i": ["1", "1", "1", "1"]}}, "TArgs": {"list": {"type": ["DT_FLOAT"]}}, "padding": {"s": "U0FNRQ=="}, "use_cudnn_on_gpu": {"b": true}, "leakyrelu_alpha": {"f": 0.2}, "epsilon": {"f": 0.0}, "T": {"type": "DT_FLOAT"}, "explicit_paddings": {"list": {}}, "dilations": {"list": {"i": ["1", "1", "1", "1"]}}}}, {"name": "model_86/tf.math.sigmoid_97/Sigmoid", "op": "Sigmoid", "input": ["model_86/tf.math.add_144/Add"], "attr": {"T": {"type": "DT_FLOAT"}}}, {"name": "model_86/tf.math.multiply_435/Mul", "op": "Mul", "input": ["model_86/tf.math.add_144/Add", "model_86/tf.math.sigmoid_97/Sigmoid"], "attr": {"T": {"type": "DT_FLOAT"}}}, {"name": "model_86/tf.compat.v1.pad_10/Pad", "op": "Pad", "input": ["model_86/tf.math.multiply_435/Mul", "model_86/tf.compat.v1.pad_10/Pad/paddings"], "attr": {"Tpaddings": {"type": "DT_INT32"}, "T": {"type": "DT_FLOAT"}}}, {"name": "model_86/tf.math.add_145/Add", "op": "_FusedConv2D", "input": ["model_86/tf.compat.v1.pad_10/Pad", "model_86/tf.nn.convolution_360/convolution/filter", "model_86/tf.math.add_145/Add/y"], "device": "/device:CPU:0", "attr": {"num_host_args": {"i": "0"}, "data_format": {"s": "TkhXQw=="}, "filter_format": {"s": "SFdJTw=="}, "fused_ops": {"list": {"s": ["Qmlhc0FkZA=="]}}, "num_args": {"i": "1"}, "strides": {"list": {"i": ["1", "2", "2", "1"]}}, "TArgs": {"list": {"type": ["DT_FLOAT"]}}, "padding": {"s": "VkFMSUQ="}, "use_cudnn_on_gpu": {"b": true}, "leakyrelu_alpha": {"f": 0.2}, "epsilon": {"f": 0.0}, "T": {"type": "DT_FLOAT"}, "explicit_paddings": {"list": {}}, "dilations": {"list": {"i": ["1", "1", "1", "1"]}}}}, {"name": "model_86/tf.math.sigmoid_98/Sigmoid", "op": "Sigmoid", "input": ["model_86/tf.math.add_145/Add"], "attr": {"T": {"type": "DT_FLOAT"}}}, {"name": "model_86/tf.math.multiply_439/Mul", "op": "Mul", "input": ["model_86/tf.math.add_145/Add", "model_86/tf.math.sigmoid_98/Sigmoid"], "attr": {"T": {"type": "DT_FLOAT"}}}, {"name": "model_86/tf.math.add_146/Add", "op": "_FusedConv2D", "input": ["model_86/tf.math.multiply_439/Mul", "model_86/tf.nn.convolution_361/convolution/filter", "model_86/tf.math.add_146/Add/y"], "device": "/device:CPU:0", "attr": {"num_host_args": {"i": "0"}, "data_format": {"s": "TkhXQw=="}, "filter_format": {"s": "SFdJTw=="}, "strides": {"list": {"i": ["1", "1", "1", "1"]}}, "num_args": {"i": "1"}, "fused_ops": {"list": {"s": ["Qmlhc0FkZA=="]}}, "TArgs": {"list": {"type": ["DT_FLOAT"]}}, "padding": {"s": "U0FNRQ=="}, "use_cudnn_on_gpu": {"b": true}, "leakyrelu_alpha": {"f": 0.2}, "epsilon": {"f": 0.0}, "T": {"type": "DT_FLOAT"}, "explicit_paddings": {"list": {}}, "dilations": {"list": {"i": ["1", "1", "1", "1"]}}}}, {"name": "model_86/tf.math.sigmoid_99/Sigmoid", "op": "Sigmoid", "input": ["model_86/tf.math.add_146/Add"], "attr": {"T": {"type": "DT_FLOAT"}}}, {"name": "model_86/tf.math.multiply_443/Mul", "op": "Mul", "input": ["model_86/tf.math.add_146/Add", "model_86/tf.math.sigmoid_99/Sigmoid"], "attr": {"T": {"type": "DT_FLOAT"}}}, {"name": "model_86/tf.strided_slice_27/StridedSlice", "op": "StridedSlice", "input": ["model_86/tf.math.multiply_443/Mul", "model_86/tf.strided_slice_27/ones_like/tensor", "model_86/tf.strided_slice_27/StridedSlice/end", "model_86/tf.strided_slice_27/ones_like"], "attr": {"shrink_axis_mask": {"i": "0"}, "new_axis_mask": {"i": "0"}, "Index": {"type": "DT_INT64"}, "begin_mask": {"i": "15"}, "T": {"type": "DT_FLOAT"}, "end_mask": {"i": "7"}, "ellipsis_mask": {"i": "0"}}}, {"name": "model_86/tf.strided_slice_28/StridedSlice", "op": "StridedSlice", "input": ["model_86/tf.math.multiply_443/Mul", "model_86/tf.strided_slice_28/ones_like/tensor", "model_86/tf.strided_slice_28/StridedSlice/end", "model_86/tf.strided_slice_28/ones_like"], "attr": {"shrink_axis_mask": {"i": "0"}, "new_axis_mask": {"i": "0"}, "Index": {"type": "DT_INT64"}, "begin_mask": {"i": "7"}, "end_mask": {"i": "7"}, "T": {"type": "DT_FLOAT"}, "ellipsis_mask": {"i": "0"}}}, {"name": "model_86/tf.math.add_147/Add", "op": "_FusedConv2D", "input": ["model_86/tf.strided_slice_28/StridedSlice", "model_86/tf.nn.convolution_362/convolution/filter", "model_86/tf.math.add_147/Add/y"], "device": "/device:CPU:0", "attr": {"num_host_args": {"i": "0"}, "data_format": {"s": "TkhXQw=="}, "filter_format": {"s": "SFdJTw=="}, "strides": {"list": {"i": ["1", "1", "1", "1"]}}, "num_args": {"i": "1"}, "fused_ops": {"list": {"s": ["Qmlhc0FkZA=="]}}, "TArgs": {"list": {"type": ["DT_FLOAT"]}}, "padding": {"s": "U0FNRQ=="}, "use_cudnn_on_gpu": {"b": true}, "leakyrelu_alpha": {"f": 0.2}, "epsilon": {"f": 0.0}, "T": {"type": "DT_FLOAT"}, "explicit_paddings": {"list": {}}, "dilations": {"list": {"i": ["1", "1", "1", "1"]}}}}, {"name": "model_86/tf.math.add_148/Add", "op": "_FusedConv2D", "input": ["model_86/tf.strided_slice_28/StridedSlice", "model_86/tf.nn.convolution_363/convolution/filter", "model_86/tf.math.add_148/Add/y"], "device": "/device:CPU:0", "attr": {"num_host_args": {"i": "0"}, "data_format": {"s": "TkhXQw=="}, "filter_format": {"s": "SFdJTw=="}, "fused_ops": {"list": {"s": ["Qmlhc0FkZA=="]}}, "num_args": {"i": "1"}, "strides": {"list": {"i": ["1", "1", "1", "1"]}}, "TArgs": {"list": {"type": ["DT_FLOAT"]}}, "padding": {"s": "U0FNRQ=="}, "use_cudnn_on_gpu": {"b": true}, "leakyrelu_alpha": {"f": 0.2}, "epsilon": {"f": 0.0}, "T": {"type": "DT_FLOAT"}, "explicit_paddings": {"list": {}}, "dilations": {"list": {"i": ["1", "1", "1", "1"]}}}}, {"name": "model_86/tf.math.sigmoid_100/Sigmoid", "op": "Sigmoid", "input": ["model_86/tf.math.add_147/Add"], "attr": {"T": {"type": "DT_FLOAT"}}}, {"name": "model_86/tf.math.sigmoid_101/Sigmoid", "op": "Sigmoid", "input": ["model_86/tf.math.add_148/Add"], "attr": {"T": {"type": "DT_FLOAT"}}}, {"name": "model_86/tf.math.multiply_447/Mul", "op": "Mul", "input": ["model_86/tf.math.add_147/Add", "model_86/tf.math.sigmoid_100/Sigmoid"], "attr": {"T": {"type": "DT_FLOAT"}}}, {"name": "model_86/tf.math.multiply_451/Mul", "op": "Mul", "input": ["model_86/tf.math.add_148/Add", "model_86/tf.math.sigmoid_101/Sigmoid"], "attr": {"T": {"type": "DT_FLOAT"}}}, {"name": "model_86/tf.math.add_149/Add", "op": "_FusedConv2D", "input": ["model_86/tf.math.multiply_447/Mul", "model_86/tf.nn.convolution_364/convolution/filter", "model_86/tf.math.add_149/Add/y"], "device": "/device:CPU:0", "attr": {"num_host_args": {"i": "0"}, "data_format": {"s": "TkhXQw=="}, "filter_format": {"s": "SFdJTw=="}, "strides": {"list": {"i": ["1", "1", "1", "1"]}}, "num_args": {"i": "1"}, "fused_ops": {"list": {"s": ["Qmlhc0FkZA=="]}}, "TArgs": {"list": {"type": ["DT_FLOAT"]}}, "padding": {"s": "U0FNRQ=="}, "use_cudnn_on_gpu": {"b": true}, "leakyrelu_alpha": {"f": 0.2}, "epsilon": {"f": 0.0}, "T": {"type": "DT_FLOAT"}, "explicit_paddings": {"list": {}}, "dilations": {"list": {"i": ["1", "1", "1", "1"]}}}}, {"name": "model_86/tf.math.sigmoid_102/Sigmoid", "op": "Sigmoid", "input": ["model_86/tf.math.add_149/Add"], "attr": {"T": {"type": "DT_FLOAT"}}}, {"name": "model_86/tf.math.multiply_455/Mul", "op": "Mul", "input": ["model_86/tf.math.add_149/Add", "model_86/tf.math.sigmoid_102/Sigmoid"], "attr": {"T": {"type": "DT_FLOAT"}}}, {"name": "model_86/tf.math.add_150/Add", "op": "_FusedConv2D", "input": ["model_86/tf.math.multiply_455/Mul", "model_86/tf.nn.convolution_365/convolution/filter", "model_86/tf.math.add_150/Add/y"], "device": "/device:CPU:0", "attr": {"num_host_args": {"i": "0"}, "data_format": {"s": "TkhXQw=="}, "filter_format": {"s": "SFdJTw=="}, "fused_ops": {"list": {"s": ["Qmlhc0FkZA=="]}}, "num_args": {"i": "1"}, "strides": {"list": {"i": ["1", "1", "1", "1"]}}, "TArgs": {"list": {"type": ["DT_FLOAT"]}}, "padding": {"s": "U0FNRQ=="}, "use_cudnn_on_gpu": {"b": true}, "leakyrelu_alpha": {"f": 0.2}, "epsilon": {"f": 0.0}, "T": {"type": "DT_FLOAT"}, "explicit_paddings": {"list": {}}, "dilations": {"list": {"i": ["1", "1", "1", "1"]}}}}, {"name": "model_86/tf.math.sigmoid_103/Sigmoid", "op": "Sigmoid", "input": ["model_86/tf.math.add_150/Add"], "attr": {"T": {"type": "DT_FLOAT"}}}, {"name": "model_86/tf.math.multiply_459/Mul", "op": "Mul", "input": ["model_86/tf.math.add_150/Add", "model_86/tf.math.sigmoid_103/Sigmoid"], "attr": {"T": {"type": "DT_FLOAT"}}}, {"name": "model_86/tf.math.add_152/Add", "op": "AddV2", "input": ["model_86/tf.math.multiply_447/Mul", "model_86/tf.math.multiply_459/Mul"], "attr": {"T": {"type": "DT_FLOAT"}}}, {"name": "model_86/tf.math.add_153/Add", "op": "_FusedConv2D", "input": ["model_86/tf.math.add_152/Add", "model_86/tf.nn.convolution_366/convolution/filter", "model_86/tf.math.add_153/Add/y"], "device": "/device:CPU:0", "attr": {"num_host_args": {"i": "0"}, "data_format": {"s": "TkhXQw=="}, "filter_format": {"s": "SFdJTw=="}, "fused_ops": {"list": {"s": ["Qmlhc0FkZA=="]}}, "num_args": {"i": "1"}, "strides": {"list": {"i": ["1", "1", "1", "1"]}}, "TArgs": {"list": {"type": ["DT_FLOAT"]}}, "padding": {"s": "U0FNRQ=="}, "use_cudnn_on_gpu": {"b": true}, "leakyrelu_alpha": {"f": 0.2}, "epsilon": {"f": 0.0}, "T": {"type": "DT_FLOAT"}, "explicit_paddings": {"list": {}}, "dilations": {"list": {"i": ["1", "1", "1", "1"]}}}}, {"name": "model_86/tf.math.sigmoid_104/Sigmoid", "op": "Sigmoid", "input": ["model_86/tf.math.add_153/Add"], "attr": {"T": {"type": "DT_FLOAT"}}}, {"name": "model_86/tf.math.multiply_465/Mul", "op": "Mul", "input": ["model_86/tf.math.add_153/Add", "model_86/tf.math.sigmoid_104/Sigmoid"], "attr": {"T": {"type": "DT_FLOAT"}}}, {"name": "model_86/tf.math.add_154/Add", "op": "_FusedConv2D", "input": ["model_86/tf.math.multiply_465/Mul", "model_86/tf.nn.convolution_367/convolution/filter", "model_86/tf.math.add_154/Add/y"], "device": "/device:CPU:0", "attr": {"num_host_args": {"i": "0"}, "data_format": {"s": "TkhXQw=="}, "filter_format": {"s": "SFdJTw=="}, "fused_ops": {"list": {"s": ["Qmlhc0FkZA=="]}}, "num_args": {"i": "1"}, "strides": {"list": {"i": ["1", "1", "1", "1"]}}, "TArgs": {"list": {"type": ["DT_FLOAT"]}}, "padding": {"s": "U0FNRQ=="}, "use_cudnn_on_gpu": {"b": true}, "leakyrelu_alpha": {"f": 0.2}, "epsilon": {"f": 0.0}, "T": {"type": "DT_FLOAT"}, "explicit_paddings": {"list": {}}, "dilations": {"list": {"i": ["1", "1", "1", "1"]}}}}, {"name": "model_86/tf.math.sigmoid_105/Sigmoid", "op": "Sigmoid", "input": ["model_86/tf.math.add_154/Add"], "attr": {"T": {"type": "DT_FLOAT"}}}, {"name": "model_86/tf.math.multiply_469/Mul", "op": "Mul", "input": ["model_86/tf.math.add_154/Add", "model_86/tf.math.sigmoid_105/Sigmoid"], "attr": {"T": {"type": "DT_FLOAT"}}}, {"name": "model_86/tf.math.add_156/Add", "op": "AddV2", "input": ["model_86/tf.math.add_152/Add", "model_86/tf.math.multiply_469/Mul"], "attr": {"T": {"type": "DT_FLOAT"}}}, {"name": "model_86/tf.concat_28/concat", "op": "ConcatV2", "input": ["model_86/tf.math.add_156/Add", "model_86/tf.math.multiply_451/Mul", "model_86/tf.concat_28/concat/axis"], "attr": {"N": {"i": "2"}, "Tidx": {"type": "DT_INT32"}, "T": {"type": "DT_FLOAT"}}}, {"name": "model_86/tf.math.add_157/Add", "op": "_FusedConv2D", "input": ["model_86/tf.concat_28/concat", "model_86/tf.nn.convolution_368/convolution/filter", "model_86/tf.math.add_157/Add/y"], "device": "/device:CPU:0", "attr": {"num_host_args": {"i": "0"}, "data_format": {"s": "TkhXQw=="}, "filter_format": {"s": "SFdJTw=="}, "strides": {"list": {"i": ["1", "1", "1", "1"]}}, "num_args": {"i": "1"}, "fused_ops": {"list": {"s": ["Qmlhc0FkZA=="]}}, "TArgs": {"list": {"type": ["DT_FLOAT"]}}, "padding": {"s": "U0FNRQ=="}, "use_cudnn_on_gpu": {"b": true}, "leakyrelu_alpha": {"f": 0.2}, "epsilon": {"f": 0.0}, "T": {"type": "DT_FLOAT"}, "explicit_paddings": {"list": {}}, "dilations": {"list": {"i": ["1", "1", "1", "1"]}}}}, {"name": "model_86/tf.math.sigmoid_106/Sigmoid", "op": "Sigmoid", "input": ["model_86/tf.math.add_157/Add"], "attr": {"T": {"type": "DT_FLOAT"}}}, {"name": "model_86/tf.math.multiply_475/Mul", "op": "Mul", "input": ["model_86/tf.math.add_157/Add", "model_86/tf.math.sigmoid_106/Sigmoid"], "attr": {"T": {"type": "DT_FLOAT"}}}, {"name": "model_86/tf.concat_29/concat", "op": "ConcatV2", "input": ["model_86/tf.strided_slice_27/StridedSlice", "model_86/tf.strided_slice_28/StridedSlice", "model_86/tf.math.multiply_475/Mul", "model_86/tf.concat_29/concat/axis"], "attr": {"N": {"i": "3"}, "Tidx": {"type": "DT_INT32"}, "T": {"type": "DT_FLOAT"}}}, {"name": "model_86/tf.math.add_158/Add", "op": "_FusedConv2D", "input": ["model_86/tf.concat_29/concat", "model_86/tf.nn.convolution_369/convolution/filter", "model_86/tf.math.add_158/Add/y"], "device": "/device:CPU:0", "attr": {"num_host_args": {"i": "0"}, "data_format": {"s": "TkhXQw=="}, "filter_format": {"s": "SFdJTw=="}, "fused_ops": {"list": {"s": ["Qmlhc0FkZA=="]}}, "num_args": {"i": "1"}, "strides": {"list": {"i": ["1", "1", "1", "1"]}}, "TArgs": {"list": {"type": ["DT_FLOAT"]}}, "padding": {"s": "U0FNRQ=="}, "use_cudnn_on_gpu": {"b": true}, "leakyrelu_alpha": {"f": 0.2}, "epsilon": {"f": 0.0}, "T": {"type": "DT_FLOAT"}, "explicit_paddings": {"list": {}}, "dilations": {"list": {"i": ["1", "1", "1", "1"]}}}}, {"name": "model_86/tf.math.sigmoid_107/Sigmoid", "op": "Sigmoid", "input": ["model_86/tf.math.add_158/Add"], "attr": {"T": {"type": "DT_FLOAT"}}}, {"name": "model_86/tf.math.multiply_479/Mul", "op": "Mul", "input": ["model_86/tf.math.add_158/Add", "model_86/tf.math.sigmoid_107/Sigmoid"], "attr": {"T": {"type": "DT_FLOAT"}}}, {"name": "model_86/tf.compat.v1.pad_11/Pad", "op": "Pad", "input": ["model_86/tf.math.multiply_479/Mul", "model_86/tf.compat.v1.pad_11/Pad/paddings"], "attr": {"Tpaddings": {"type": "DT_INT32"}, "T": {"type": "DT_FLOAT"}}}, {"name": "model_86/tf.math.add_159/Add", "op": "_FusedConv2D", "input": ["model_86/tf.compat.v1.pad_11/Pad", "model_86/tf.nn.convolution_370/convolution/filter", "model_86/tf.math.add_159/Add/y"], "device": "/device:CPU:0", "attr": {"num_host_args": {"i": "0"}, "data_format": {"s": "TkhXQw=="}, "filter_format": {"s": "SFdJTw=="}, "strides": {"list": {"i": ["1", "2", "2", "1"]}}, "num_args": {"i": "1"}, "fused_ops": {"list": {"s": ["Qmlhc0FkZA=="]}}, "TArgs": {"list": {"type": ["DT_FLOAT"]}}, "padding": {"s": "VkFMSUQ="}, "use_cudnn_on_gpu": {"b": true}, "leakyrelu_alpha": {"f": 0.2}, "epsilon": {"f": 0.0}, "T": {"type": "DT_FLOAT"}, "explicit_paddings": {"list": {}}, "dilations": {"list": {"i": ["1", "1", "1", "1"]}}}}, {"name": "model_86/tf.math.sigmoid_108/Sigmoid", "op": "Sigmoid", "input": ["model_86/tf.math.add_159/Add"], "attr": {"T": {"type": "DT_FLOAT"}}}, {"name": "model_86/tf.math.multiply_483/Mul", "op": "Mul", "input": ["model_86/tf.math.add_159/Add", "model_86/tf.math.sigmoid_108/Sigmoid"], "attr": {"T": {"type": "DT_FLOAT"}}}, {"name": "model_86/tf.math.add_160/Add", "op": "_FusedConv2D", "input": ["model_86/tf.math.multiply_483/Mul", "model_86/tf.nn.convolution_371/convolution/filter", "model_86/tf.math.add_160/Add/y"], "device": "/device:CPU:0", "attr": {"num_host_args": {"i": "0"}, "data_format": {"s": "TkhXQw=="}, "filter_format": {"s": "SFdJTw=="}, "fused_ops": {"list": {"s": ["Qmlhc0FkZA=="]}}, "num_args": {"i": "1"}, "strides": {"list": {"i": ["1", "1", "1", "1"]}}, "TArgs": {"list": {"type": ["DT_FLOAT"]}}, "padding": {"s": "U0FNRQ=="}, "use_cudnn_on_gpu": {"b": true}, "leakyrelu_alpha": {"f": 0.2}, "epsilon": {"f": 0.0}, "T": {"type": "DT_FLOAT"}, "explicit_paddings": {"list": {}}, "dilations": {"list": {"i": ["1", "1", "1", "1"]}}}}, {"name": "model_86/tf.math.sigmoid_109/Sigmoid", "op": "Sigmoid", "input": ["model_86/tf.math.add_160/Add"], "attr": {"T": {"type": "DT_FLOAT"}}}, {"name": "model_86/tf.math.multiply_487/Mul", "op": "Mul", "input": ["model_86/tf.math.add_160/Add", "model_86/tf.math.sigmoid_109/Sigmoid"], "attr": {"T": {"type": "DT_FLOAT"}}}, {"name": "model_86/tf.strided_slice_29/StridedSlice", "op": "StridedSlice", "input": ["model_86/tf.math.multiply_487/Mul", "model_86/tf.strided_slice_29/ones_like/tensor", "model_86/tf.strided_slice_29/StridedSlice/end", "model_86/tf.strided_slice_29/ones_like"], "attr": {"shrink_axis_mask": {"i": "0"}, "new_axis_mask": {"i": "0"}, "Index": {"type": "DT_INT64"}, "begin_mask": {"i": "15"}, "T": {"type": "DT_FLOAT"}, "end_mask": {"i": "7"}, "ellipsis_mask": {"i": "0"}}}, {"name": "model_86/tf.strided_slice_30/StridedSlice", "op": "StridedSlice", "input": ["model_86/tf.math.multiply_487/Mul", "model_86/tf.strided_slice_30/ones_like/tensor", "model_86/tf.strided_slice_30/StridedSlice/end", "model_86/tf.strided_slice_30/ones_like"], "attr": {"shrink_axis_mask": {"i": "0"}, "Index": {"type": "DT_INT64"}, "new_axis_mask": {"i": "0"}, "begin_mask": {"i": "7"}, "T": {"type": "DT_FLOAT"}, "end_mask": {"i": "7"}, "ellipsis_mask": {"i": "0"}}}, {"name": "model_86/tf.math.add_161/Add", "op": "_FusedConv2D", "input": ["model_86/tf.strided_slice_30/StridedSlice", "model_86/tf.nn.convolution_372/convolution/filter", "model_86/tf.math.add_161/Add/y"], "device": "/device:CPU:0", "attr": {"num_host_args": {"i": "0"}, "data_format": {"s": "TkhXQw=="}, "filter_format": {"s": "SFdJTw=="}, "strides": {"list": {"i": ["1", "1", "1", "1"]}}, "num_args": {"i": "1"}, "fused_ops": {"list": {"s": ["Qmlhc0FkZA=="]}}, "TArgs": {"list": {"type": ["DT_FLOAT"]}}, "padding": {"s": "U0FNRQ=="}, "use_cudnn_on_gpu": {"b": true}, "leakyrelu_alpha": {"f": 0.2}, "epsilon": {"f": 0.0}, "T": {"type": "DT_FLOAT"}, "explicit_paddings": {"list": {}}, "dilations": {"list": {"i": ["1", "1", "1", "1"]}}}}, {"name": "model_86/tf.math.add_162/Add", "op": "_FusedConv2D", "input": ["model_86/tf.strided_slice_30/StridedSlice", "model_86/tf.nn.convolution_373/convolution/filter", "model_86/tf.math.add_162/Add/y"], "device": "/device:CPU:0", "attr": {"num_host_args": {"i": "0"}, "data_format": {"s": "TkhXQw=="}, "filter_format": {"s": "SFdJTw=="}, "strides": {"list": {"i": ["1", "1", "1", "1"]}}, "num_args": {"i": "1"}, "fused_ops": {"list": {"s": ["Qmlhc0FkZA=="]}}, "TArgs": {"list": {"type": ["DT_FLOAT"]}}, "padding": {"s": "U0FNRQ=="}, "use_cudnn_on_gpu": {"b": true}, "leakyrelu_alpha": {"f": 0.2}, "epsilon": {"f": 0.0}, "T": {"type": "DT_FLOAT"}, "explicit_paddings": {"list": {}}, "dilations": {"list": {"i": ["1", "1", "1", "1"]}}}}, {"name": "model_86/tf.math.sigmoid_110/Sigmoid", "op": "Sigmoid", "input": ["model_86/tf.math.add_161/Add"], "attr": {"T": {"type": "DT_FLOAT"}}}, {"name": "model_86/tf.math.sigmoid_111/Sigmoid", "op": "Sigmoid", "input": ["model_86/tf.math.add_162/Add"], "attr": {"T": {"type": "DT_FLOAT"}}}, {"name": "model_86/tf.math.multiply_491/Mul", "op": "Mul", "input": ["model_86/tf.math.add_161/Add", "model_86/tf.math.sigmoid_110/Sigmoid"], "attr": {"T": {"type": "DT_FLOAT"}}}, {"name": "model_86/tf.math.multiply_495/Mul", "op": "Mul", "input": ["model_86/tf.math.add_162/Add", "model_86/tf.math.sigmoid_111/Sigmoid"], "attr": {"T": {"type": "DT_FLOAT"}}}, {"name": "model_86/tf.math.add_163/Add", "op": "_FusedConv2D", "input": ["model_86/tf.math.multiply_491/Mul", "model_86/tf.nn.convolution_374/convolution/filter", "model_86/tf.math.add_163/Add/y"], "device": "/device:CPU:0", "attr": {"num_host_args": {"i": "0"}, "data_format": {"s": "TkhXQw=="}, "filter_format": {"s": "SFdJTw=="}, "fused_ops": {"list": {"s": ["Qmlhc0FkZA=="]}}, "num_args": {"i": "1"}, "strides": {"list": {"i": ["1", "1", "1", "1"]}}, "TArgs": {"list": {"type": ["DT_FLOAT"]}}, "padding": {"s": "U0FNRQ=="}, "use_cudnn_on_gpu": {"b": true}, "leakyrelu_alpha": {"f": 0.2}, "epsilon": {"f": 0.0}, "T": {"type": "DT_FLOAT"}, "explicit_paddings": {"list": {}}, "dilations": {"list": {"i": ["1", "1", "1", "1"]}}}}, {"name": "model_86/tf.math.sigmoid_112/Sigmoid", "op": "Sigmoid", "input": ["model_86/tf.math.add_163/Add"], "attr": {"T": {"type": "DT_FLOAT"}}}, {"name": "model_86/tf.math.multiply_499/Mul", "op": "Mul", "input": ["model_86/tf.math.add_163/Add", "model_86/tf.math.sigmoid_112/Sigmoid"], "attr": {"T": {"type": "DT_FLOAT"}}}, {"name": "model_86/tf.math.add_164/Add", "op": "_FusedConv2D", "input": ["model_86/tf.math.multiply_499/Mul", "model_86/tf.nn.convolution_375/convolution/filter", "model_86/tf.math.add_164/Add/y"], "device": "/device:CPU:0", "attr": {"num_host_args": {"i": "0"}, "data_format": {"s": "TkhXQw=="}, "filter_format": {"s": "SFdJTw=="}, "strides": {"list": {"i": ["1", "1", "1", "1"]}}, "num_args": {"i": "1"}, "fused_ops": {"list": {"s": ["Qmlhc0FkZA=="]}}, "TArgs": {"list": {"type": ["DT_FLOAT"]}}, "padding": {"s": "U0FNRQ=="}, "use_cudnn_on_gpu": {"b": true}, "leakyrelu_alpha": {"f": 0.2}, "epsilon": {"f": 0.0}, "T": {"type": "DT_FLOAT"}, "explicit_paddings": {"list": {}}, "dilations": {"list": {"i": ["1", "1", "1", "1"]}}}}, {"name": "model_86/tf.math.sigmoid_113/Sigmoid", "op": "Sigmoid", "input": ["model_86/tf.math.add_164/Add"], "attr": {"T": {"type": "DT_FLOAT"}}}, {"name": "model_86/tf.math.multiply_503/Mul", "op": "Mul", "input": ["model_86/tf.math.add_164/Add", "model_86/tf.math.sigmoid_113/Sigmoid"], "attr": {"T": {"type": "DT_FLOAT"}}}, {"name": "model_86/tf.math.add_166/Add", "op": "AddV2", "input": ["model_86/tf.math.multiply_491/Mul", "model_86/tf.math.multiply_503/Mul"], "attr": {"T": {"type": "DT_FLOAT"}}}, {"name": "model_86/tf.math.add_167/Add", "op": "_FusedConv2D", "input": ["model_86/tf.math.add_166/Add", "model_86/tf.nn.convolution_376/convolution/filter", "model_86/tf.math.add_167/Add/y"], "device": "/device:CPU:0", "attr": {"num_host_args": {"i": "0"}, "data_format": {"s": "TkhXQw=="}, "filter_format": {"s": "SFdJTw=="}, "fused_ops": {"list": {"s": ["Qmlhc0FkZA=="]}}, "num_args": {"i": "1"}, "strides": {"list": {"i": ["1", "1", "1", "1"]}}, "TArgs": {"list": {"type": ["DT_FLOAT"]}}, "padding": {"s": "U0FNRQ=="}, "use_cudnn_on_gpu": {"b": true}, "leakyrelu_alpha": {"f": 0.2}, "epsilon": {"f": 0.0}, "T": {"type": "DT_FLOAT"}, "explicit_paddings": {"list": {}}, "dilations": {"list": {"i": ["1", "1", "1", "1"]}}}}, {"name": "model_86/tf.math.sigmoid_114/Sigmoid", "op": "Sigmoid", "input": ["model_86/tf.math.add_167/Add"], "attr": {"T": {"type": "DT_FLOAT"}}}, {"name": "model_86/tf.math.multiply_509/Mul", "op": "Mul", "input": ["model_86/tf.math.add_167/Add", "model_86/tf.math.sigmoid_114/Sigmoid"], "attr": {"T": {"type": "DT_FLOAT"}}}, {"name": "model_86/tf.math.add_168/Add", "op": "_FusedConv2D", "input": ["model_86/tf.math.multiply_509/Mul", "model_86/tf.nn.convolution_377/convolution/filter", "model_86/tf.math.add_168/Add/y"], "device": "/device:CPU:0", "attr": {"num_host_args": {"i": "0"}, "data_format": {"s": "TkhXQw=="}, "filter_format": {"s": "SFdJTw=="}, "strides": {"list": {"i": ["1", "1", "1", "1"]}}, "num_args": {"i": "1"}, "fused_ops": {"list": {"s": ["Qmlhc0FkZA=="]}}, "TArgs": {"list": {"type": ["DT_FLOAT"]}}, "padding": {"s": "U0FNRQ=="}, "use_cudnn_on_gpu": {"b": true}, "leakyrelu_alpha": {"f": 0.2}, "epsilon": {"f": 0.0}, "T": {"type": "DT_FLOAT"}, "explicit_paddings": {"list": {}}, "dilations": {"list": {"i": ["1", "1", "1", "1"]}}}}, {"name": "model_86/tf.math.sigmoid_115/Sigmoid", "op": "Sigmoid", "input": ["model_86/tf.math.add_168/Add"], "attr": {"T": {"type": "DT_FLOAT"}}}, {"name": "model_86/tf.math.multiply_513/Mul", "op": "Mul", "input": ["model_86/tf.math.add_168/Add", "model_86/tf.math.sigmoid_115/Sigmoid"], "attr": {"T": {"type": "DT_FLOAT"}}}, {"name": "model_86/tf.math.add_170/Add", "op": "AddV2", "input": ["model_86/tf.math.add_166/Add", "model_86/tf.math.multiply_513/Mul"], "attr": {"T": {"type": "DT_FLOAT"}}}, {"name": "model_86/tf.concat_30/concat", "op": "ConcatV2", "input": ["model_86/tf.math.add_170/Add", "model_86/tf.math.multiply_495/Mul", "model_86/tf.concat_30/concat/axis"], "attr": {"N": {"i": "2"}, "T": {"type": "DT_FLOAT"}, "Tidx": {"type": "DT_INT32"}}}, {"name": "model_86/tf.math.add_171/Add", "op": "_FusedConv2D", "input": ["model_86/tf.concat_30/concat", "model_86/tf.nn.convolution_378/convolution/filter", "model_86/tf.math.add_171/Add/y"], "device": "/device:CPU:0", "attr": {"num_host_args": {"i": "0"}, "data_format": {"s": "TkhXQw=="}, "filter_format": {"s": "SFdJTw=="}, "strides": {"list": {"i": ["1", "1", "1", "1"]}}, "num_args": {"i": "1"}, "fused_ops": {"list": {"s": ["Qmlhc0FkZA=="]}}, "TArgs": {"list": {"type": ["DT_FLOAT"]}}, "padding": {"s": "U0FNRQ=="}, "use_cudnn_on_gpu": {"b": true}, "leakyrelu_alpha": {"f": 0.2}, "epsilon": {"f": 0.0}, "T": {"type": "DT_FLOAT"}, "explicit_paddings": {"list": {}}, "dilations": {"list": {"i": ["1", "1", "1", "1"]}}}}, {"name": "model_86/tf.math.sigmoid_116/Sigmoid", "op": "Sigmoid", "input": ["model_86/tf.math.add_171/Add"], "attr": {"T": {"type": "DT_FLOAT"}}}, {"name": "model_86/tf.math.multiply_519/Mul", "op": "Mul", "input": ["model_86/tf.math.add_171/Add", "model_86/tf.math.sigmoid_116/Sigmoid"], "attr": {"T": {"type": "DT_FLOAT"}}}, {"name": "model_86/tf.concat_31/concat", "op": "ConcatV2", "input": ["model_86/tf.strided_slice_29/StridedSlice", "model_86/tf.strided_slice_30/StridedSlice", "model_86/tf.math.multiply_519/Mul", "model_86/tf.concat_31/concat/axis"], "attr": {"N": {"i": "3"}, "Tidx": {"type": "DT_INT32"}, "T": {"type": "DT_FLOAT"}}}, {"name": "model_86/tf.math.add_172/Add", "op": "_FusedConv2D", "input": ["model_86/tf.concat_31/concat", "model_86/tf.nn.convolution_379/convolution/filter", "model_86/tf.math.add_172/Add/y"], "device": "/device:CPU:0", "attr": {"num_host_args": {"i": "0"}, "data_format": {"s": "TkhXQw=="}, "filter_format": {"s": "SFdJTw=="}, "fused_ops": {"list": {"s": ["Qmlhc0FkZA=="]}}, "num_args": {"i": "1"}, "strides": {"list": {"i": ["1", "1", "1", "1"]}}, "TArgs": {"list": {"type": ["DT_FLOAT"]}}, "padding": {"s": "U0FNRQ=="}, "use_cudnn_on_gpu": {"b": true}, "leakyrelu_alpha": {"f": 0.2}, "epsilon": {"f": 0.0}, "T": {"type": "DT_FLOAT"}, "explicit_paddings": {"list": {}}, "dilations": {"list": {"i": ["1", "1", "1", "1"]}}}}, {"name": "model_86/tf.math.sigmoid_117/Sigmoid", "op": "Sigmoid", "input": ["model_86/tf.math.add_172/Add"], "attr": {"T": {"type": "DT_FLOAT"}}}, {"name": "model_86/tf.math.multiply_523/Mul", "op": "Mul", "input": ["model_86/tf.math.add_172/Add", "model_86/tf.math.sigmoid_117/Sigmoid"], "attr": {"T": {"type": "DT_FLOAT"}}}, {"name": "model_86/tf.math.add_173/Add", "op": "_FusedConv2D", "input": ["model_86/tf.math.multiply_523/Mul", "model_86/tf.nn.convolution_380/convolution/filter", "model_86/tf.math.add_173/Add/y"], "device": "/device:CPU:0", "attr": {"num_host_args": {"i": "0"}, "data_format": {"s": "TkhXQw=="}, "filter_format": {"s": "SFdJTw=="}, "fused_ops": {"list": {"s": ["Qmlhc0FkZA=="]}}, "num_args": {"i": "1"}, "strides": {"list": {"i": ["1", "1", "1", "1"]}}, "TArgs": {"list": {"type": ["DT_FLOAT"]}}, "padding": {"s": "U0FNRQ=="}, "use_cudnn_on_gpu": {"b": true}, "leakyrelu_alpha": {"f": 0.2}, "epsilon": {"f": 0.0}, "T": {"type": "DT_FLOAT"}, "explicit_paddings": {"list": {}}, "dilations": {"list": {"i": ["1", "1", "1", "1"]}}}}, {"name": "model_86/tf.math.sigmoid_118/Sigmoid", "op": "Sigmoid", "input": ["model_86/tf.math.add_173/Add"], "attr": {"T": {"type": "DT_FLOAT"}}}, {"name": "model_86/tf.math.multiply_527/Mul", "op": "Mul", "input": ["model_86/tf.math.add_173/Add", "model_86/tf.math.sigmoid_118/Sigmoid"], "attr": {"T": {"type": "DT_FLOAT"}}}, {"name": "model_86/tf.compat.v1.nn.pool_3/max_pool", "op": "MaxPool", "input": ["model_86/tf.math.multiply_527/Mul"], "attr": {"padding": {"s": "U0FNRQ=="}, "data_format": {"s": "TkhXQw=="}, "T": {"type": "DT_FLOAT"}, "explicit_paddings": {"list": {}}, "ksize": {"list": {"i": ["1", "5", "5", "1"]}}, "strides": {"list": {"i": ["1", "1", "1", "1"]}}}}, {"name": "model_86/tf.compat.v1.nn.pool_4/max_pool", "op": "MaxPool", "input": ["model_86/tf.compat.v1.nn.pool_3/max_pool"], "attr": {"padding": {"s": "U0FNRQ=="}, "data_format": {"s": "TkhXQw=="}, "T": {"type": "DT_FLOAT"}, "explicit_paddings": {"list": {}}, "ksize": {"list": {"i": ["1", "5", "5", "1"]}}, "strides": {"list": {"i": ["1", "1", "1", "1"]}}}}, {"name": "model_86/tf.compat.v1.nn.pool_5/max_pool", "op": "MaxPool", "input": ["model_86/tf.compat.v1.nn.pool_4/max_pool"], "attr": {"ksize": {"list": {"i": ["1", "5", "5", "1"]}}, "data_format": {"s": "TkhXQw=="}, "T": {"type": "DT_FLOAT"}, "explicit_paddings": {"list": {}}, "padding": {"s": "U0FNRQ=="}, "strides": {"list": {"i": ["1", "1", "1", "1"]}}}}, {"name": "model_86/tf.concat_32/concat", "op": "ConcatV2", "input": ["model_86/tf.math.multiply_527/Mul", "model_86/tf.compat.v1.nn.pool_3/max_pool", "model_86/tf.compat.v1.nn.pool_4/max_pool", "model_86/tf.compat.v1.nn.pool_5/max_pool", "model_86/tf.concat_32/concat/axis"], "attr": {"N": {"i": "4"}, "T": {"type": "DT_FLOAT"}, "Tidx": {"type": "DT_INT32"}}}, {"name": "model_86/tf.math.add_174/Add", "op": "_FusedConv2D", "input": ["model_86/tf.concat_32/concat", "model_86/tf.nn.convolution_381/convolution/filter", "model_86/tf.math.add_174/Add/y"], "device": "/device:CPU:0", "attr": {"num_host_args": {"i": "0"}, "data_format": {"s": "TkhXQw=="}, "filter_format": {"s": "SFdJTw=="}, "fused_ops": {"list": {"s": ["Qmlhc0FkZA=="]}}, "num_args": {"i": "1"}, "strides": {"list": {"i": ["1", "1", "1", "1"]}}, "TArgs": {"list": {"type": ["DT_FLOAT"]}}, "padding": {"s": "U0FNRQ=="}, "use_cudnn_on_gpu": {"b": true}, "leakyrelu_alpha": {"f": 0.2}, "epsilon": {"f": 0.0}, "T": {"type": "DT_FLOAT"}, "explicit_paddings": {"list": {}}, "dilations": {"list": {"i": ["1", "1", "1", "1"]}}}}, {"name": "model_86/tf.math.sigmoid_119/Sigmoid", "op": "Sigmoid", "input": ["model_86/tf.math.add_174/Add"], "attr": {"T": {"type": "DT_FLOAT"}}}, {"name": "model_86/tf.math.multiply_531/Mul", "op": "Mul", "input": ["model_86/tf.math.add_174/Add", "model_86/tf.math.sigmoid_119/Sigmoid"], "attr": {"T": {"type": "DT_FLOAT"}}}, {"name": "model_86/tf.math.add_175/Add", "op": "_FusedConv2D", "input": ["model_86/tf.math.multiply_531/Mul", "model_86/tf.nn.convolution_382/convolution/filter", "model_86/tf.math.add_175/Add/y"], "device": "/device:CPU:0", "attr": {"num_host_args": {"i": "0"}, "data_format": {"s": "TkhXQw=="}, "filter_format": {"s": "SFdJTw=="}, "fused_ops": {"list": {"s": ["Qmlhc0FkZA=="]}}, "num_args": {"i": "1"}, "strides": {"list": {"i": ["1", "1", "1", "1"]}}, "TArgs": {"list": {"type": ["DT_FLOAT"]}}, "padding": {"s": "U0FNRQ=="}, "use_cudnn_on_gpu": {"b": true}, "leakyrelu_alpha": {"f": 0.2}, "epsilon": {"f": 0.0}, "T": {"type": "DT_FLOAT"}, "explicit_paddings": {"list": {}}, "dilations": {"list": {"i": ["1", "1", "1", "1"]}}}}, {"name": "model_86/tf.math.sigmoid_120/Sigmoid", "op": "Sigmoid", "input": ["model_86/tf.math.add_175/Add"], "attr": {"T": {"type": "DT_FLOAT"}}}, {"name": "model_86/tf.math.multiply_535/Mul", "op": "Mul", "input": ["model_86/tf.math.add_175/Add", "model_86/tf.math.sigmoid_120/Sigmoid"], "attr": {"T": {"type": "DT_FLOAT"}}}, {"name": "model_86/tf.strided_slice_31/StridedSlice", "op": "StridedSlice", "input": ["model_86/tf.math.multiply_535/Mul", "model_86/tf.strided_slice_31/StridedSlice/begin", "model_86/tf.strided_slice_31/StridedSlice/end", "model_86/tf.strided_slice_31/ones_like"], "attr": {"shrink_axis_mask": {"i": "0"}, "new_axis_mask": {"i": "0"}, "Index": {"type": "DT_INT32"}, "begin_mask": {"i": "7"}, "end_mask": {"i": "7"}, "T": {"type": "DT_FLOAT"}, "ellipsis_mask": {"i": "0"}}}, {"name": "model_86/tf.strided_slice_32/StridedSlice", "op": "StridedSlice", "input": ["model_86/tf.math.multiply_535/Mul", "model_86/tf.strided_slice_32/StridedSlice/begin", "model_86/tf.strided_slice_32/StridedSlice/end", "model_86/tf.strided_slice_32/ones_like"], "attr": {"shrink_axis_mask": {"i": "0"}, "Index": {"type": "DT_INT32"}, "new_axis_mask": {"i": "0"}, "begin_mask": {"i": "7"}, "end_mask": {"i": "7"}, "T": {"type": "DT_FLOAT"}, "ellipsis_mask": {"i": "0"}}}, {"name": "model_86/tf.math.add_176/Add", "op": "_FusedConv2D", "input": ["model_86/tf.strided_slice_32/StridedSlice", "model_86/tf.nn.convolution_383/convolution/filter", "model_86/tf.math.add_176/Add/y"], "device": "/device:CPU:0", "attr": {"num_host_args": {"i": "0"}, "data_format": {"s": "TkhXQw=="}, "filter_format": {"s": "SFdJTw=="}, "fused_ops": {"list": {"s": ["Qmlhc0FkZA=="]}}, "num_args": {"i": "1"}, "strides": {"list": {"i": ["1", "1", "1", "1"]}}, "TArgs": {"list": {"type": ["DT_FLOAT"]}}, "padding": {"s": "U0FNRQ=="}, "use_cudnn_on_gpu": {"b": true}, "leakyrelu_alpha": {"f": 0.2}, "epsilon": {"f": 0.0}, "T": {"type": "DT_FLOAT"}, "explicit_paddings": {"list": {}}, "dilations": {"list": {"i": ["1", "1", "1", "1"]}}}}, {"name": "model_86/tf.compat.v1.transpose_218/transpose", "op": "Transpose", "input": ["model_86/tf.math.add_176/Add", "model_86/tf.compat.v1.transpose_218/transpose/perm"], "attr": {"Tperm": {"type": "DT_INT32"}, "T": {"type": "DT_FLOAT"}}}, {"name": "model_86/tf.reshape_44/Reshape", "op": "Reshape", "input": ["model_86/tf.compat.v1.transpose_218/transpose", "model_86/tf.reshape_44/Reshape/shape"], "attr": {"T": {"type": "DT_FLOAT"}, "Tshape": {"type": "DT_INT32"}}}, {"name": "model_86/tf.strided_slice_33/StridedSlice", "op": "StridedSlice", "input": ["model_86/tf.reshape_44/Reshape"…
el_86/tf.math.multiply_762/Mul", "op": "Mul", "input": ["model_86/tf.math.add_262/Add", "model_86/tf.math.sigmoid_172/Sigmoid"], "attr": {"T": {"type": "DT_FLOAT"}}}, {"name": "model_86/tf.nn.convolution_573/convolution", "op": "Conv2D", "input": ["model_86/tf.nn.softmax_5/wa/model.23/dfl/Softmax", "model_86/tf.nn.convolution_573/convolution/filter"], "device": "/device:CPU:0", "attr": {"padding": {"s": "U0FNRQ=="}, "data_format": {"s": "TkhXQw=="}, "strides": {"list": {"i": ["1", "1", "1", "1"]}}, "use_cudnn_on_gpu": {"b": true}, "T": {"type": "DT_FLOAT"}, "explicit_paddings": {"list": {}}, "dilations": {"list": {"i": ["1", "1", "1", "1"]}}}}, {"name": "model_86/tf.math.add_263/Add", "op": "_FusedConv2D", "input": ["model_86/tf.math.multiply_762/Mul", "model_86/tf.nn.convolution_572/convolution/filter", "model_86/tf.math.add_263/Add/y"], "device": "/device:CPU:0", "attr": {"num_host_args": {"i": "0"}, "data_format": {"s": "TkhXQw=="}, "filter_format": {"s": "SFdJTw=="}, "strides": {"list": {"i": ["1", "1", "1", "1"]}}, "num_args": {"i": "1"}, "fused_ops": {"list": {"s": ["Qmlhc0FkZA=="]}}, "TArgs": {"list": {"type": ["DT_FLOAT"]}}, "padding": {"s": "U0FNRQ=="}, "use_cudnn_on_gpu": {"b": true}, "leakyrelu_alpha": {"f": 0.2}, "epsilon": {"f": 0.0}, "T": {"type": "DT_FLOAT"}, "explicit_paddings": {"list": {}}, "dilations": {"list": {"i": ["1", "1", "1", "1"]}}}}, {"name": "model_86/tf.compat.v1.transpose_358/transpose", "op": "Transpose", "input": ["model_86/tf.nn.convolution_573/convolution", "model_86/tf.compat.v1.transpose_358/transpose/perm"], "attr": {"Tperm": {"type": "DT_INT32"}, "T": {"type": "DT_FLOAT"}}}, {"name": "model_86/tf.compat.v1.transpose_353/transpose", "op": "Transpose", "input": ["model_86/tf.math.add_263/Add", "model_86/tf.compat.v1.transpose_353/transpose/perm"], "attr": {"Tperm": {"type": "DT_INT32"}, "T": {"type": "DT_FLOAT"}}}, {"name": "model_86/tf.reshape_83/Reshape", "op": "Reshape", "input": ["model_86/tf.compat.v1.transpose_358/transpose", "model_86/tf.reshape_83/Reshape/shape"], "attr": {"T": {"type": "DT_FLOAT"}, "Tshape": {"type": "DT_INT32"}}}, {"name": "model_86/tf.reshape_80/Reshape", "op": "Reshape", "input": ["model_86/tf.compat.v1.transpose_353/transpose", "model_86/tf.reshape_80/Reshape/shape"], "attr": {"T": {"type": "DT_FLOAT"}, "Tshape": {"type": "DT_INT32"}}}, {"name": "model_86/tf.strided_slice_45/StridedSlice", "op": "StridedSlice", "input": ["model_86/tf.reshape_83/Reshape", "model_86/tf.strided_slice_45/ones_like/tensor", "model_86/tf.strided_slice_45/StridedSlice/end", "model_86/tf.strided_slice_45/ones_like"], "attr": {"shrink_axis_mask": {"i": "0"}, "Index": {"type": "DT_INT64"}, "new_axis_mask": {"i": "0"}, "begin_mask": {"i": "5"}, "end_mask": {"i": "5"}, "T": {"type": "DT_FLOAT"}, "ellipsis_mask": {"i": "0"}}}, {"name": "model_86/tf.strided_slice_44/StridedSlice", "op": "StridedSlice", "input": ["model_86/tf.reshape_83/Reshape", "model_86/tf.strided_slice_44/ones_like/tensor", "model_86/tf.strided_slice_44/StridedSlice/end", "model_86/tf.strided_slice_44/ones_like"], "attr": {"shrink_axis_mask": {"i": "0"}, "Index": {"type": "DT_INT64"}, "new_axis_mask": {"i": "0"}, "begin_mask": {"i": "7"}, "T": {"type": "DT_FLOAT"}, "end_mask": {"i": "5"}, "ellipsis_mask": {"i": "0"}}}, {"name": "model_86/tf.concat_46/concat", "op": "ConcatV2", "input": ["model_86/tf.reshape_59/Reshape", "model_86/tf.reshape_68/Reshape", "model_86/tf.reshape_80/Reshape", "model_86/tf.concat_46/concat/axis"], "attr": {"N": {"i": "3"}, "T": {"type": "DT_FLOAT"}, "Tidx": {"type": "DT_INT32"}}}, {"name": "model_86/tf.math.add_264/Add", "op": "AddV2", "input": ["model_86/tf.strided_slice_45/StridedSlice", "model_86/tf.math.add_264/Add/y"], "attr": {"T": {"type": "DT_FLOAT"}}}, {"name": "model_86/tf.math.subtract_2/Sub", "op": "Sub", "input": ["model_86/80391", "model_86/tf.strided_slice_44/StridedSlice"], "attr": {"T": {"type": "DT_FLOAT"}}}, {"name": "model_86/tf.math.sigmoid_173/Sigmoid", "op": "Sigmoid", "input": ["model_86/tf.concat_46/concat"], "attr": {"T": {"type": "DT_FLOAT"}}}, {"name": "model_86/tf.math.add_265/Add", "op": "AddV2", "input": ["model_86/tf.math.subtract_2/Sub", "model_86/tf.math.add_264/Add"], "attr": {"T": {"type": "DT_FLOAT"}}}, {"name": "model_86/tf.math.subtract_3/Sub", "op": "Sub", "input": ["model_86/tf.math.add_264/Add", "model_86/tf.math.subtract_2/Sub"], "attr": {"T": {"type": "DT_FLOAT"}}}, {"name": "model_86/tf.math.divide_1/truediv", "op": "Mul", "input": ["model_86/tf.math.add_265/Add", "ConstantFolding/model_86/tf.math.divide_1/truediv_recip"], "attr": {"T": {"type": "DT_FLOAT"}}}, {"name": "model_86/tf.concat_50/concat", "op": "ConcatV2", "input": ["model_86/tf.math.divide_1/truediv", "model_86/tf.math.subtract_3/Sub", "model_86/tf.concat_50/concat/axis"], "attr": {"N": {"i": "2"}, "Tidx": {"type": "DT_INT32"}, "T": {"type": "DT_FLOAT"}}}, {"name": "model_86/tf.math.multiply_775/Mul", "op": "Mul", "input": ["model_86/tf.concat_50/concat", "model_86/tf.math.multiply_775/Mul/y"], "attr": {"T": {"type": "DT_FLOAT"}}}, {"name": "model_86/output0/concat", "op": "ConcatV2", "input": ["model_86/tf.math.multiply_775/Mul", "model_86/tf.math.sigmoid_173/Sigmoid", "model_86/tf.concat_45/concat", "model_86/output0/concat/axis"], "attr": {"N": {"i": "3"}, "Tidx": {"type": "DT_INT32"}, "T": {"type": "DT_FLOAT"}}}, {"name": "Identity", "op": "Identity", "input": ["model_86/output0/concat"], "attr": {"T": {"type": "DT_FLOAT"}}}], "library": {}, "versions": {"producer": 2129}}, "weightsManifest": [{"paths": ["group1-shard1of3.bin", "group1-shard2of3.bin", "group1-shard3of3.bin"], "weights": [{"name": "ConstantFolding/model_86/tf.math.divide_1/truediv_recip", "shape": [], "dtype": "float32"}, {"name": "model_86/tf.strided_slice_45/ones_like/tensor", "shape": [3], "dtype": "int32"}, {"name": "model_86/tf.strided_slice_45/StridedSlice/end", "shape": [3], "dtype": "int32"}, {"name": "model_86/tf.strided_slice_45/ones_like", "shape": [3], "dtype": "int32"}, {"name": "model_86/tf.math.add_264/Add/y", "shape": [1, 2, 8400], "dtype": "float32"}, {"name": "model_86/80391", "shape": [1, 2, 8400], "dtype": "float32"}, {"name": "model_86/tf.nn.convolution_525/convolution/filter", "shape": [3, 3, 64, 64], "dtype": "float32"}, {"name": "model_86/tf.math.add_201/Add/y", "shape": [64], "dtype": "float32"}, {"name": "model_86/tf.nn.convolution_528/convolution/filter", "shape": [3, 3, 64, 64], "dtype": "float32"}, {"name": "model_86/tf.math.add_205/Add/y", "shape": [64], "dtype": "float32"}, {"name": "model_86/tf.nn.convolution_533/convolution/filter", "shape": [1, 1, 64, 64], "dtype": "float32"}, {"name": "model_86/tf.math.add_211/Add/y", "shape": [64], "dtype": "float32"}, {"name": "model_86/tf.compat.v1.transpose_264/transpose/perm", "shape": [4], "dtype": "int32"}, {"name": "model_86/tf.reshape_53/Reshape/shape", "shape": [3], "dtype": "int32"}, {"name": "model_86/tf.nn.convolution_546/convolution/filter", "shape": [3, 3, 128, 64], "dtype": "float32"}, {"name": "model_86/tf.math.add_229/Add/y", "shape": [64], "dtype": "float32"}, {"name": "model_86/tf.nn.convolution_548/convolution/filter", "shape": [3, 3, 64, 64], "dtype": "float32"}, {"name": "model_86/tf.math.add_232/Add/y", "shape": [64], "dtype": "float32"}, {"name": "model_86/tf.nn.convolution_552/convolution/filter", "shape": [1, 1, 64, 64], "dtype": "float32"}, {"name": "model_86/tf.math.add_236/Add/y", "shape": [64], "dtype": "float32"}, {"name": "model_86/tf.compat.v1.transpose_300/transpose/perm", "shape": [4], "dtype": "int32"}, {"name": "model_86/tf.reshape_62/Reshape/shape", "shape": [3], "dtype": "int32"}, {"name": "model_86/tf.nn.convolution_564/convolution/filter", "shape": [3, 3, 256, 64], "dtype": "float32"}, {"name": "model_86/tf.math.add_253/Add/y", "shape": [64], "dtype": "float32"}, {"name": "model_86/tf.nn.convolution_566/convolution/filter", "shape": [3, 3, 64, 64], "dtype": "float32"}, {"name": "model_86/tf.math.add_256/Add/y", "shape": [64], "dtype": "float32"}, {"name": "model_86/tf.nn.convolution_569/convolution/filter", "shape": [1, 1, 64, 64], "dtype": "float32"}, {"name": "model_86/tf.math.add_259/Add/y", "shape": [64], "dtype": "float32"}, {"name": "model_86/tf.compat.v1.transpose_333/transpose/perm", "shape": [4], "dtype": "int32"}, {"name": "model_86/tf.reshape_71/Reshape/shape", "shape": [3], "dtype": "int32"}, {"name": "model_86/tf.concat_44/concat/axis", "shape": [], "dtype": "int32"}, {"name": "model_86/tf.reshape_77/Reshape/shape", "shape": [4], "dtype": "int32"}, {"name": "model_86/tf.compat.v1.transpose_346/transpose/perm", "shape": [4], "dtype": "int32"}, {"name": "model_86/tf.compat.v1.transpose_348/transpose/perm", "shape": [4], "dtype": "int32"}, {"name": "model_86/tf.nn.convolution_573/convolution/filter", "shape": [1, 1, 16, 1], "dtype": "float32"}, {"name": "model_86/tf.compat.v1.transpose_358/transpose/perm", "shape": [4], "dtype": "int32"}, {"name": "model_86/tf.reshape_83/Reshape/shape", "shape": [3], "dtype": "int32"}, {"name": "model_86/tf.strided_slice_44/ones_like/tensor", "shape": [3], "dtype": "int32"}, {"name": "model_86/tf.strided_slice_44/StridedSlice/end", "shape": [3], "dtype": "int32"}, {"name": "model_86/tf.strided_slice_44/ones_like", "shape": [3], "dtype": "int32"}, {"name": "model_86/tf.concat_50/concat/axis", "shape": [], "dtype": "int32"}, {"name": "model_86/tf.math.multiply_775/Mul/y", "shape": [1, 1, 8400], "dtype": "float32"}, {"name": "model_86/tf.compat.v1.nn.depthwise_conv2d_6/depthwise/filter_in", "shape": [3, 3, 64, 1], "dtype": "float32"}, {"name": "model_86/tf.math.add_202/Add/y", "shape": [64], "dtype": "float32"}, {"name": "model_86/tf.nn.convolution_529/convolution/filter", "shape": [1, 1, 64, 80], "dtype": "float32"}, {"name": "model_86/tf.math.add_206/Add/y", "shape": [80], "dtype": "float32"}, {"name": "model_86/tf.compat.v1.nn.depthwise_conv2d_9/depthwise/filter_in", "shape": [3, 3, 80, 1], "dtype": "float32"}, {"name": "model_86/tf.math.add_214/Add/y", "shape": [80], "dtype": "float32"}, {"name": "model_86/tf.nn.convolution_539/convolution/filter", "shape": [1, 1, 80, 80], "dtype": "float32"}, {"name": "model_86/tf.math.add_220/Add/y", "shape": [80], "dtype": "float32"}, {"name": "model_86/tf.nn.convolution_543/convolution/filter", "shape": [1, 1, 80, 80], "dtype": "float32"}, {"name": "model_86/tf.math.add_224/Add/y", "shape": [80], "dtype": "float32"}, {"name": "model_86/tf.compat.v1.transpose_284/transpose/perm", "shape": [4], "dtype": "int32"}, {"name": "model_86/tf.reshape_59/Reshape/shape", "shape": [3], "dtype": "int32"}, {"name": "model_86/tf.compat.v1.nn.depthwise_conv2d_10/depthwise/filter_in", "shape": [3, 3, 128, 1], "dtype": "float32"}, {"name": "model_86/tf.math.add_230/Add/y", "shape": [128], "dtype": "float32"}, {"name": "model_86/tf.nn.convolution_549/convolution/filter", "shape": [1, 1, 128, 80], "dtype": "float32"}, {"name": "model_86/tf.math.add_233/Add/y", "shape": [80], "dtype": "float32"}, {"name": "model_86/tf.compat.v1.nn.depthwise_conv2d_11/depthwise/filter_in", "shape": [3, 3, 80, 1], "dtype": "float32"}, {"name": "model_86/tf.math.add_237/Add/y", "shape": [80], "dtype": "float32"}, {"name": "model_86/tf.nn.convolution_556/convolution/filter", "shape": [1, 1, 80, 80], "dtype": "float32"}, {"name": "model_86/tf.math.add_241/Add/y", "shape": [80], "dtype": "float32"}, {"name": "model_86/tf.nn.convolution_558/convolution/filter", "shape": [1, 1, 80, 80], "dtype": "float32"}, {"name": "model_86/tf.math.add_243/Add/y", "shape": [80], "dtype": "float32"}, {"name": "model_86/tf.compat.v1.transpose_314/transpose/perm", "shape": [4], "dtype": "int32"}, {"name": "model_86/tf.reshape_68/Reshape/shape", "shape": [3], "dtype": "int32"}, {"name": "model_86/tf.compat.v1.nn.depthwise_conv2d_12/depthwise/filter_in", "shape": [3, 3, 256, 1], "dtype": "float32"}, {"name": "model_86/tf.math.add_254/Add/y", "shape": [256], "dtype": "float32"}, {"name": "model_86/tf.nn.convolution_567/convolution/filter", "shape": [1, 1, 256, 80], "dtype": "float32"}, {"name": "model_86/tf.math.add_257/Add/y", "shape": [80], "dtype": "float32"}, {"name": "model_86/tf.compat.v1.nn.depthwise_conv2d_13/depthwise/filter_in", "shape": [3, 3, 80, 1], "dtype": "float32"}, {"name": "model_86/tf.math.add_260/Add/y", "shape": [80], "dtype": "float32"}, {"name": "model_86/tf.nn.convolution_571/convolution/filter", "shape": [1, 1, 80, 80], "dtype": "float32"}, {"name": "model_86/tf.math.add_262/Add/y", "shape": [80], "dtype": "float32"}, {"name": "model_86/tf.nn.convolution_572/convolution/filter", "shape": [1, 1, 80, 80], "dtype": "float32"}, {"name": "model_86/tf.math.add_263/Add/y", "shape": [80], "dtype": "float32"}, {"name": "model_86/tf.compat.v1.transpose_353/transpose/perm", "shape": [4], "dtype": "int32"}, {"name": "model_86/tf.reshape_80/Reshape/shape", "shape": [3], "dtype": "int32"}, {"name": "model_86/tf.concat_46/concat/axis", "shape": [], "dtype": "int32"}, {"name": "model_86/tf.nn.convolution_526/convolution/filter", "shape": [3, 3, 64, 32], "dtype": "float32"}, {"name": "model_86/tf.math.add_203/Add/y", "shape": [32], "dtype": "float32"}, {"name": "model_86/tf.nn.convolution_530/convolution/filter", "shape": [3, 3, 32, 32], "dtype": "float32"}, {"name": "model_86/tf.math.add_207/Add/y", "shape": [32], "dtype": "float32"}, {"name": "model_86/tf.nn.convolution_534/convolution/filter", "shape": [1, 1, 32, 32], "dtype": "float32"}, {"name": "model_86/tf.math.add_215/Add/y", "shape": [32], "dtype": "float32"}, {"name": "model_86/tf.compat.v1.transpose_269/transpose/perm", "shape": [4], "dtype": "int32"}, {"name": "model_86/tf.reshape_56/Reshape/shape", "shape": [3], "dtype": "int32"}, {"name": "model_86/tf.nn.convolution_547/convolution/filter", "shape": [3, 3, 128, 32], "dtype": "float32"}, {"name": "model_86/tf.math.add_231/Add/y", "shape": [32], "dtype": "float32"}, {"name": "model_86/tf.nn.convolution_550/convolution/filter", "shape": [3, 3, 32, 32], "dtype": "float32"}, {"name": "model_86/tf.math.add_234/Add/y", "shape": [32], "dtype": "float32"}, {"name": "model_86/tf.nn.convolution_553/convolution/filter", "shape": [1, 1, 32, 32], "dtype": "float32"}, {"name": "model_86/tf.math.add_238/Add/y", "shape": [32], "dtype": "float32"}, {"name": "model_86/tf.compat.v1.transpose_305/transpose/perm", "shape": [4], "dtype": "int32"}, {"name": "model_86/tf.reshape_65/Reshape/shape", "shape": [3], "dtype": "int32"}, {"name": "model_86/tf.strided_slice_42/ones_like/tensor", "shape": [4], "dtype": "int32"}, {"name": "model_86/tf.strided_slice_42/StridedSlice/end", "shape": [4], "dtype": "int32"}, {"name": "model_86/tf.strided_slice_42/ones_like", "shape": [4], "dtype": "int32"}, {"name": "model_86/tf.nn.convolution_554/convolution/filter", "shape": [1, 1, 128, 64], "dtype": "float32"}, {"name": "model_86/tf.math.add_239/Add/y", "shape": [64], "dtype": "float32"}, {"name": "model_86/tf.nn.convolution_557/convolution/filter", "shape": [3, 3, 64, 64], "dtype": "float32"}, {"name": "model_86/tf.math.add_242/Add/y", "shape": [64], "dtype": "float32"}, {"name": "model_86/tf.nn.convolution_559/convolution/filter", "shape": [3, 3, 64, 64], "dtype": "float32"}, {"name": "model_86/tf.math.add_244/Add/y", "shape": [64], "dtype": "float32"}, {"name": "model_86/tf.nn.convolution_560/convolution/filter", "shape": [3, 3, 64, 64], "dtype": "float32"}, {"name": "model_86/tf.math.add_247/Add/y", "shape": [64], "dtype": "float32"}, {"name": "model_86/tf.nn.convolution_561/convolution/filter", "shape": [3, 3, 64, 64], "dtype": "float32"}, {"name": "model_86/tf.math.add_248/Add/y", "shape": [64], "dtype": "float32"}, {"name": "model_86/tf.strided_slice_40/ones_like/tensor", "shape": [4], "dtype": "int32"}, {"name": "model_86/tf.strided_slice_40/StridedSlice/end", "shape": [4], "dtype": "int32"}, {"name": "model_86/tf.strided_slice_40/ones_like", "shape": [4], "dtype": "int32"}, {"name": "model_86/tf.compat.v1.pad_12/Pad/paddings", "shape": [4, 2], "dtype": "int32"}, {"name": "model_86/tf.nn.convolution_524/convolution/filter", "shape": [3, 3, 64, 64], "dtype": "float32"}, {"name": "model_86/tf.math.add_200/Add/y", "shape": [64], "dtype": "float32"}, {"name": "model_86/tf.concat_39/concat/axis", "shape": [], "dtype": "int32"}, {"name": "model_86/tf.nn.convolution_531/convolution/filter", "shape": [1, 1, 192, 128], "dtype": "float32"}, {"name": "model_86/tf.math.add_209/Add/y", "shape": [128], "dtype": "float32"}, {"name": "model_86/tf.strided_slice_41/ones_like/tensor", "shape": [4], "dtype": "int32"}, {"name": "model_86/tf.strided_slice_41/StridedSlice/end", "shape": [4], "dtype": "int32"}, {"name": "model_86/tf.strided_slice_41/ones_like", "shape": [4], "dtype": "int32"}, {"name": "model_86/tf.nn.convolution_536/convolution/filter", "shape": [3, 3, 64, 32], "dtype": "float32"}, {"name": "model_86/tf.math.add_217/Add/y", "shape": [32], "dtype": "float32"}, {"name": "model_86/tf.nn.convolution_540/convolution/filter", "shape": [3, 3, 32, 64], "dtype": "float32"}, {"name": "model_86/tf.math.add_221/Add/y", "shape": [64], "dtype": "float32"}, {"name": "model_86/tf.concat_40/concat/axis", "shape": [], "dtype": "int32"}, {"name": "model_86/tf.nn.convolution_544/convolution/filter", "shape": [1, 1, 192, 128], "dtype": "float32"}, {"name": "model_86/tf.math.add_227/Add/y", "shape": [128], "dtype": "float32"}, {"name": "model_86/tf.compat.v1.pad_13/Pad/paddings", "shape": [4, 2], "dtype": "int32"}, {"name": "model_86/tf.nn.convolution_545/convolution/filter", "shape": [3, 3, 128, 128], "dtype": "float32"}, {"name": "model_86/tf.math.add_228/Add/y", "shape": [128], "dtype": "float32"}, {"name": "model_86/tf.concat_41/concat/axis", "shape": [], "dtype": "int32"}, {"name": "model_86/tf.nn.convolution_551/convolution/filter", "shape": [1, 1, 384, 256], "dtype": "float32"}, {"name": "model_86/tf.math.add_235/Add/y", "shape": [256], "dtype": "float32"}, {"name": "model_86/tf.strided_slice_43/ones_like/tensor", "shape": [4], "dtype": "int32"}, {"name": "model_86/tf.strided_slice_43/StridedSlice/end", "shape": [4], "dtype": "int32"}, {"name": "model_86/tf.strided_slice_43/ones_like", "shape": [4], "dtype": "int32"}, {"name": "model_86/tf.nn.convolution_555/convolution/filter", "shape": [1, 1, 128, 64], "dtype": "float32"}, {"name": "model_86/tf.math.add_240/Add/y", "shape": [64], "dtype": "float32"}, {"name": "model_86/tf.concat_42/concat/axis", "shape": [], "dtype": "int32"}, {"name": "model_86/tf.nn.convolution_562/convolution/filter", "shape": [1, 1, 128, 128], "dtype": "float32"}, {"name": "model_86/tf.math.add_251/Add/y", "shape": [128], "dtype": "float32"}, {"name": "model_86/tf.concat_43/concat/axis", "shape": [], "dtype": "int32"}, {"name": "model_86/tf.nn.convolution_563/convolution/filter", "shape": [1, 1, 384, 256], "dtype": "float32"}, {"name": "model_86/tf.math.add_252/Add/y", "shape": [256], "dtype": "float32"}, {"name": "model_86/tf.nn.convolution_565/convolution/filter", "shape": [3, 3, 256, 32], "dtype": "float32"}, {"name": "model_86/tf.math.add_255/Add/y", "shape": [32], "dtype": "float32"}, {"name": "model_86/tf.nn.convolution_568/convolution/filter", "shape": [3, 3, 32, 32], "dtype": "float32"}, {"name": "model_86/tf.math.add_258/Add/y", "shape": [32], "dtype": "float32"}, {"name": "model_86/tf.nn.convolution_570/convolution/filter", "shape": [1, 1, 32, 32], "dtype": "float32"}, {"name": "model_86/tf.math.add_261/Add/y", "shape": [32], "dtype": "float32"}, {"name": "model_86/tf.compat.v1.transpose_338/transpose/perm", "shape": [4], "dtype": "int32"}, {"name": "model_86/tf.reshape_74/Reshape/shape", "shape": [3], "dtype": "int32"}, {"name": "model_86/tf.concat_45/concat/axis", "shape": [], "dtype": "int32"}, {"name": "model_86/output0/concat/axis", "shape": [], "dtype": "int32"}, {"name": "model_86/tf.nn.conv2d_transpose_1/conv2d_transpose/input_sizes", "shape": [4], "dtype": "int32"}, {"name": "model_86/tf.nn.conv2d_transpose_1/conv2d_transpose/filter", "shape": [2, 2, 64, 64], "dtype": "float32"}, {"name": "model_86/tf.strided_slice_38/ones_like/tensor", "shape": [4], "dtype": "int32"}, {"name": "model_86/tf.strided_slice_38/StridedSlice/end", "shape": [4], "dtype": "int32"}, {"name": "model_86/tf.strided_slice_38/ones_like", "shape": [4], "dtype": "int32"}, {"name": "model_86/tf.strided_slice_36/ones_like/tensor", "shape": [4], "dtype": "int32"}, {"name": "model_86/tf.strided_slice_36/StridedSlice/end", "shape": [4], "dtype": "int32"}, {"name": "model_86/tf.strided_slice_36/ones_like", "shape": [4], "dtype": "int32"}, {"name": "model_86/tf.strided_slice_31/StridedSlice/begin", "shape": [4], "dtype": "int32"}, {"name": "model_86/tf.strided_slice_31/StridedSlice/end", "shape": [4], "dtype": "int32"}, {"name": "model_86/tf.strided_slice_31/ones_like", "shape": [4], "dtype": "int32"}, {"name": "model_86/tf.math.add_184/Add/y", "shape": [128], "dtype": "float32"}, {"name": "model_86/tf.math.add_177/Add/y", "shape": [128], "dtype": "float32"}, {"name": "model_86/tf.strided_slice_33/StridedSlice/begin", "shape": [4], "dtype": "int32"}, {"name": "model_86/tf.strided_slice_33/StridedSlice/end", "shape": [4], "dtype": "int32"}, {"name": "model_86/tf.strided_slice_33/ones_like", "shape": [4], "dtype": "int32"}, {"name": "model_86/tf.strided_slice_34/StridedSlice/begin", "shape": [4], "dtype": "int32"}, {"name": "model_86/tf.strided_slice_34/StridedSlice/end", "shape": [4], "dtype": "int32"}, {"name": "model_86/tf.strided_slice_34/ones_like", "shape": [4], "dtype": "int32"}, {"name": "model_86/tf.math.multiply_538/Mul/y", "shape": [], "dtype": "float32"}, {"name": "model_86/tf.reshape_50/Reshape/shape", "shape": [4], "dtype": "int32"}, {"name": "model_86/tf.compat.v1.transpose_233/transpose/perm", "shape": [4], "dtype": "int32"}, {"name": "model_86/tf.nn.convolution_384/convolution/filter", "shape": [3, 3, 1, 1], "dtype": "float32"}, {"name": "model_86/tf.nn.convolution_385/convolution/filter", "shape": [3, 3, 1, 1], "dtype": "float32"}, {"name": "model_86/tf.nn.convolution_386/convolution/filter", "shape": [3, 3, 1, 1], "dtype": "float32"}, {"name": "model_86/tf.nn.convolution_387/convolution/filter", "shape": [3, 3, 1, 1], "dtype": "float32"}, {"name": "model_86/tf.nn.convolution_388/convolution/filter", "shape": [3, 3, 1, 1], "dtype": "float32"}, {"name": "model_86/tf.nn.convolution_389/convolution/filter", "shape": [3, 3, 1, 1], "dtype": "float32"}, {"name": "model_86/tf.nn.convolution_390/convolution/filter", "shape": [3, 3, 1, 1], "dtype": "float32"}, {"name": "model_86/tf.nn.convolution_391/convolution/filter", "shape": [3, 3, 1, 1], "dtype": "float32"}, {"name": "model_86/tf.nn.convolution_392/convolution/filter", "shape": [3, 3, 1, 1], "dtype": "float32"}, {"name": "model_86/tf.nn.convolution_393/convolution/filter", "shape": [3, 3, 1, 1], "dtype": "float32"}, {"name": "model_86/tf.nn.convolution_394/convolution/filter", "shape": [3, 3, 1, 1], "dtype": "float32"}, {"name": "model_86/tf.nn.convolution_395/convolution/filter", "shape": [3, 3, 1, 1], "dtype": "float32"}, {"name": "model_86/tf.nn.convolution_396/convolution/filter", "shape": [3, 3, 1, 1], "dtype": "float32"}, {"name": "model_86/tf.nn.convolution_397/convolution/filter", "shape": [3, 3, 1, 1], "dtype": "float32"}, {"name": "model_86/tf.nn.convolution_398/convolution/filter", "shape": [3, 3, 1, 1], "dtype": "float32"}, {"name": "model_86/tf.nn.convolution_399/convolution/filter", "shape": [3, 3, 1, 1], "dtype": "float32"}, {"name": "model_86/tf.nn.convolution_400/convolution/filter", "shape": [3, 3, 1, 1], "dtype": "float32"}, {"name": "model_86/tf.nn.convolution_401/convolution/filter", "shape": [3, 3, 1, 1], "dtype": "float32"}, {"name": "model_86/tf.nn.convolution_402/convolution/filter", "shape": [3, 3, 1, 1], "dtype": "float32"}, {"name": "model_86/tf.nn.convolution_403/convolution/filter", "shape": [3, 3, 1, 1], "dtype": "float32"}, {"name": "model_86/tf.nn.convolution_404/convolution/filter", "shape": [3, 3, 1, 1], "dtype": "float32"}, {"name": "model_86/tf.nn.convolution_405/convolution/filter", "shape": [3, 3, 1, 1], "dtype": "float32"}, {"name": "model_86/tf.nn.convolution_406/convolution/filter", "shape": [3, 3, 1, 1], "dtype": "float32"}, {"name": "model_86/tf.nn.convolution_407/convolution/filter", "shape": [3, 3, 1, 1], "dtype": "float32"}, {"name": "model_86/tf.nn.convolution_408/convolution/filter", "shape": [3, 3, 1, 1], "dtype": "float32"}, {"name": "model_86/tf.nn.convolution_409/convolution/filter", "shape": [3, 3, 1, 1], "dtype": "float32"}, {"name": "model_86/tf.nn.convolution_410/convolution/filter", "shape": [3, 3, 1, 1], "dtype": "float32"}, {"name": "model_86/tf.nn.convolution_411/convolution/filter", "shape": [3, 3, 1, 1], "dtype": "float32"}, {"name": "model_86/tf.nn.convolution_412/convolution/filter", "shape": [3, 3, 1, 1], "dtype": "float32"}, {"name": "model_86/tf.nn.convolution_413/convolution/filter", "shape": [3, 3, 1, 1], "dtype": "float32"}, {"name": "model_86/tf.nn.convolution_414/convolution/filter", "shape": [3, 3, 1, 1], "dtype": "float32"}, {"name": "model_86/tf.nn.convolution_415/convolution/filter", "shape": [3, 3, 1, 1], "dtype": "float32"}, {"name": "model_86/tf.nn.convolution_416/convolution/filter", "shape": [3, 3, 1, 1], "dtype": "float32"}, {"name": "model_86/tf.nn.convolution_417/convolution/filter", "shape": [3, 3, 1, 1], "dtype": "float32"}, {"name": "model_86/tf.nn.convolution_418/convolution/filter", "shape": [3, 3, 1, 1], "dtype": "float32"}, {"name": "model_86/tf.nn.convolution_419/convolution/filter", "shape": [3, 3, 1, 1], "dtype": "float32"}, {"name": "model_86/tf.nn.convolution_420/convolution/filter", "shape": [3, 3, 1, 1], "dtype": "float32"}, {"name": "model_86/tf.nn.convolution_421/convolution/filter", "shape": [3, 3, 1, 1], "dtype": "float32"}, {"name": "model_86/tf.nn.convolution_422/convolution/filter", "shape": [3, 3, 1, 1], "dtype": "float32"}, {"name": "model_86/tf.nn.convolution_423/convolution/filter", "shape": [3, 3, 1, 1], "dtype": "float32"}, {"name": "model_86/tf.nn.convolution_424/convolution/filter", "shape": [3, 3, 1, 1], "dtype": "float32"}, {"name": "model_86/tf.nn.convolution_425/convolution/filter", "shape": [3, 3, 1, 1], "dtype": "float32"}, {"name": "model_86/tf.nn.convolution_426/convolution/filter", "shape": [3, 3, 1, 1], "dtype": "float32"}, {"name": "model_86/tf.nn.convolution_427/convolution/filter", "shape": [3, 3, 1, 1], "dtype": "float32"}, {"name": "model_86/tf.nn.convolution_428/convolution/filter", "shape": [3, 3, 1, 1], "dtype": "float32"}, {"name": "model_86/tf.nn.convolution_429/convolution/filter", "shape": [3, 3, 1, 1], "dtype": "float32"}, {"name": "model_86/tf.nn.convolution_430/convolution/filter", "shape": [3, 3, 1, 1], "dtype": "float32"}, {"name": "model_86/tf.nn.convolution_431/convolution/filter", "shape": [3, 3, 1, 1], "dtype": "float32"}, {"name": "model_86/tf.nn.convolution_432/convolution/filter", "shape": [3, 3, 1, 1], "dtype": "float32"}, {"name": "model_86/tf.nn.convolution_433/convolution/filter", "shape": [3, 3, 1, 1], "dtype": "float32"}, {"name": "model_86/tf.nn.convolution_434/convolution/filter", "shape": [3, 3, 1, 1], "dtype": "float32"}, {"name": "model_86/tf.nn.convolution_435/convolution/filter", "shape": [3, 3, 1, 1], "dtype": "float32"}, {"name": "model_86/tf.nn.convolution_436/convolution/filter", "shape": [3, 3, 1, 1], "dtype": "float32"}, {"name": "model_86/tf.nn.convolution_437/convolution/filter", "shape": [3, 3, 1, 1], "dtype": "float32"}, {"name": "model_86/tf.nn.convolution_438/convolution/filter", "shape": [3, 3, 1, 1], "dtype": "float32"}, {"name": "model_86/tf.nn.convolution_439/convolution/filter", "shape": [3, 3, 1, 1], "dtype": "float32"}, {"name": "model_86/tf.nn.convolution_440/convolution/filter", "shape": [3, 3, 1, 1], "dtype": "float32"}, {"name": "model_86/tf.nn.convolution_441/convolution/filter", "shape": [3, 3, 1, 1], "dtype": "float32"}, {"name": "model_86/tf.nn.convolution_442/convolution/filter", "shape": [3, 3, 1, 1], "dtype": "float32"}, {"name": "model_86/tf.nn.convolution_443/convolution/filter", "shape": [3, 3, 1, 1], "dtype": "float32"}, {"name": "model_86/tf.nn.convolution_444/convolution/filter", "shape": [3, 3, 1, 1], "dtype": "float32"}, {"name": "model_86/tf.nn.convolution_445/convolution/filter", "shape": [3, 3, 1, 1], "dtype": "float32"}, {"name": "model_86/tf.nn.convolution_446/convolution/filter", "shape": [3, 3, 1, 1], "dtype": "float32"}, {"name": "model_86/tf.nn.convolution_447/convolution/filter", "shape": [3, 3, 1, 1], "dtype": "float32"}, {"name": "model_86/tf.nn.convolution_448/convolution/filter", "shape": [3, 3, 1, 1], "dtype": "float32"}, {"name": "model_86/tf.nn.convolution_449/convolution/filter", "shape": [3, 3, 1, 1], "dtype": "float32"}, {"name": "model_86/tf.nn.convolution_450/convolution/filter", "shape": [3, 3, 1, 1], "dtype": "float32"}, {"name": "model_86/tf.nn.convolution_451/convolution/filter", "shape": [3, 3, 1, 1], "dtype": "float32"}, {"name": "model_86/tf.nn.convolution_452/convolution/filter", "shape": [3, 3, 1, 1], "dtype": "float32"}, {"name": "model_86/tf.nn.convolution_453/convolution/filter", "shape": [3, 3, 1, 1], "dtype": "float32"}, {"name": "model_86/tf.nn.convolution_454/convolution/filter", "shape": [3, 3, 1, 1], "dtype": "float32"}, {"name": "model_86/tf.nn.convolution_455/convolution/filter", "shape": [3, 3, 1, 1], "dtype": "float32"}, {"name": "model_86/tf.nn.convolution_456/convolution/filter", "shape": [3, 3, 1, 1], "dtype": "float32"}, {"name": "model_86/tf.nn.convolution_457/convolution/filter", "shape": [3, 3, 1, 1], "dtype": "float32"}, {"name": "model_86/tf.nn.convolution_458/convolution/filter", "shape": [3, 3, 1, 1], "dtype": "float32"}, {"name": "model_86/tf.nn.convolution_459/convolution/filter", "shape": [3, 3, 1, 1], "dtype": "float32"}, {"name": "model_86/tf.nn.convolution_460/convolution/filter", "shape": [3, 3, 1, 1], "dtype": "float32"}, {"name": "model_86/tf.nn.convolution_461/convolution/filter", "shape": [3, 3, 1, 1], "dtype": "float32"}, {"name": "model_86/tf.nn.convolution_462/convolution/filter", "shape": [3, 3, 1, 1], "dtype": "float32"}, {"name": "model_86/tf.nn.convolution_463/convolution/filter", "shape": [3, 3, 1, 1], "dtype": "float32"}, {"name": "model_86/tf.nn.convolution_464/convolution/filter", "shape": [3, 3, 1, 1], "dtype": "float32"}, {"name": "model_86/tf.nn.convolution_465/convolution/filter", "shape": [3, 3, 1, 1], "dtype": "float32"}, {"name": "model_86/tf.nn.convolution_466/convolution/filter", "shape": [3, 3, 1, 1], "dtype": "float32"}, {"name": "model_86/tf.nn.convolution_467/convolution/filter", "shape": [3, 3, 1, 1], "dtype": "float32"}, {"name": "model_86/tf.nn.convolution_468/convolution/filter", "shape": [3, 3, 1, 1], "dtype": "float32"}, {"name": "model_86/tf.nn.convolution_469/convolution/filter", "shape": [3, 3, 1, 1], "dtype": "float32"}, {"name": "model_86/tf.nn.convolution_470/convolution/filter", "shape": [3, 3, 1, 1], "dtype": "float32"}, {"name": "model_86/tf.nn.convolution_471/convolution/filter", "shape": [3, 3, 1, 1], "dtype": "float32"}, {"name": "model_86/tf.nn.convolution_472/convolution/filter", "shape": [3, 3, 1, 1], "dtype": "float32"}, {"name": "model_86/tf.nn.convolution_473/convolution/filter", "shape": [3, 3, 1, 1], "dtype": "float32"}, {"name": "model_86/tf.nn.convolution_474/convolution/filter", "shape": [3, 3, 1, 1], "dtype": "float32"}, {"name": "model_86/tf.nn.convolution_475/convolution/filter", "shape": [3, 3, 1, 1], "dtype": "float32"}, {"name": "model_86/tf.nn.convolution_476/convolution/filter", "shape": [3, 3, 1, 1], "dtype": "float32"}, {"name": "model_86/tf.nn.convolution_477/convolution/filter", "shape": [3, 3, 1, 1], "dtype": "float32"}, {"name": "model_86/tf.nn.convolution_478/convolution/filter", "shape": [3, 3, 1, 1], "dtype": "float32"}, {"name": "model_86/tf.nn.convolution_479/convolution/filter", "shape": [3, 3, 1, 1], "dtype": "float32"}, {"name": "model_86/tf.nn.convolution_480/convolution/filter", "shape": [3, 3, 1, 1], "dtype": "float32"}, {"name": "model_86/tf.nn.convolution_481/convolution/filter", "shape": [3, 3, 1, 1], "dtype": "float32"}, {"name": "model_86/tf.nn.convolution_482/convolution/filter", "shape": [3, 3, 1, 1], "dtype": "float32"}, {"name": "model_86/tf.nn.convolution_483/convolution/filter", "shape": [3, 3, 1, 1], "dtype": "float32"}, {"name": "model_86/tf.nn.convolution_484/convolution/filter", "shape": [3, 3, 1, 1], "dtype": "float32"}, {"name": "model_86/tf.nn.convolution_485/convolution/filter", "shape": [3, 3, 1, 1], "dtype": "float32"}, {"name": "model_86/tf.nn.convolution_486/convolution/filter", "shape": [3, 3, 1, 1], "dtype": "float32"}, {"name": "model_86/tf.nn.convolution_487/convolution/filter", "shape": [3, 3, 1, 1], "dtype": "float32"}, {"name": "model_86/tf.nn.convolution_488/convolution/filter", "shape": [3, 3, 1, 1], "dtype": "float32"}, {"name": "model_86/tf.nn.convolution_489/convolution/filter", "shape": [3, 3, 1, 1], "dtype": "float32"}, {"name": "model_86/tf.nn.convolution_490/convolution/filter", "shape": [3, 3, 1, 1], "dtype": "float32"}, {"name": "model_86/tf.nn.convolution_491/convolution/filter", "shape": [3, 3, 1, 1], "dtype": "float32"}, {"name": "model_86/tf.nn.convolution_492/convolution/filter", "shape": [3, 3, 1, 1], "dtype": "float32"}, {"name": "model_86/tf.nn.convolution_493/convolution/filter", "shape": [3, 3, 1, 1], "dtype": "float32"}, {"name": "model_86/tf.nn.convolution_494/convolution/filter", "shape": [3, 3, 1, 1], "dtype": "float32"}, {"name": "model_86/tf.nn.convolution_495/convolution/filter", "shape": [3, 3, 1, 1], "dtype": "float32"}, {"name": "model_86/tf.nn.convolution_496/convolution/filter", "shape": [3, 3, 1, 1], "dtype": "float32"}, {"name": "model_86/tf.nn.convolution_497/convolution/filter", "shape": [3, 3, 1, 1], "dtype": "float32"}, {"name": "model_86/tf.nn.convolution_498/convolution/filter", "shape": [3, 3, 1, 1], "dtype": "float32"}, {"name": "model_86/tf.nn.convolution_499/convolution/filter", "shape": [3, 3, 1, 1], "dtype": "float32"}, {"name": "model_86/tf.nn.convolution_500/convolution/filter", "shape": [3, 3, 1, 1], "dtype": "float32"}, {"name": "model_86/tf.nn.convolution_501/convolution/filter", "shape": [3, 3, 1, 1], "dtype": "float32"}, {"name": "model_86/tf.nn.convolution_502/convolution/filter", "shape": [3, 3, 1, 1], "dtype": "float32"}, {"name": "model_86/tf.nn.convolution_503/convolution/filter", "shape": [3, 3, 1, 1], "dtype": "float32"}, {"name": "model_86/tf.nn.convolution_504/convolution/filter", "shape": [3, 3, 1, 1], "dtype": "float32"}, {"name": "model_86/tf.nn.convolution_505/convolution/filter", "shape": [3, 3, 1, 1], "dtype": "float32"}, {"name": "model_86/tf.nn.convolution_506/convolution/filter", "shape": [3, 3, 1, 1], "dtype": "float32"}, {"name": "model_86/tf.nn.convolution_507/convolution/filter", "shape": [3, 3, 1, 1], "dtype": "float32"}, {"name": "model_86/tf.nn.convolution_508/convolution/filter", "shape": [3, 3, 1, 1], "dtype": "float32"}, {"name": "model_86/tf.nn.convolution_509/convolution/filter", "shape": [3, 3, 1, 1], "dtype": "float32"}, {"name": "model_86/tf.nn.convolution_510/convolution/filter", "shape": [3, 3, 1, 1], "dtype": "float32"}, {"name": "model_86/tf.split_1/split/split_dim", "shape": [], "dtype": "int32"}, {"name": "model_86/tf.strided_slice_29/ones_like/tensor", "shape": [4], "dtype": "int32"}, {"name": "model_86/tf.strided_slice_29/StridedSlice/end", "shape": [4], "dtype": "int32"}, {"name": "model_86/tf.strided_slice_29/ones_like", "shape": [4], "dtype": "int32"}, {"name": "model_86/tf.nn.convolution_372/convolution/filter", "shape": [1, 1, 128, 64], "dtype": "float32"}, {"name": "model_86/tf.math.add_161/Add/y", "shape": [64], "dtype": "float32"}, {"name": "model_86/tf.nn.convolution_374/convolution/filter", "shape": [3, 3, 64, 64], "dtype": "float32"}, {"name": "model_86/tf.math.add_163/Add/y", "shape": [64], "dtype": "float32"}, {"name": "model_86/tf.nn.convolution_375/convolution/filter", "shape": [3, 3, 64, 64], "dtype": "float32"}, {"name": "model_86/tf.math.add_164/Add/y", "shape": [64], "dtype": "float32"}, {"name": "model_86/tf.nn.convolution_376/convolution/filter", "shape": [3, 3, 64, 64], "dtype": "float32"}, {"name": "model_86/tf.math.add_167/Add/y", "shape": [64], "dtype": "float32"}, {"name": "model_86/tf.nn.convolution_377/convolution/filter", "shape": [3, 3, 64, 64], "dtype": "float32"}, {"name": "model_86/tf.math.add_168/Add/y", "shape": [64], "dtype": "float32"}, {"name": "model_86/tf.compat.v1.pad_11/Pad/paddings", "shape": [4, 2], "dtype": "int32"}, {"name": "model_86/tf.nn.convolution_370/convolution/filter", "shape": [3, 3, 128, 256], "dtype": "float32"}, {"name": "model_86/tf.math.add_159/Add/y", "shape": [256], "dtype": "float32"}, {"name": "model_86/tf.nn.convolution_371/convolution/filter", "shape": [1, 1, 256, 256], "dtype": "float32"}, {"name": "model_86/tf.math.add_160/Add/y", "shape": [256], "dtype": "float32"}, {"name": "model_86/tf.strided_slice_30/ones_like/tensor", "shape": [4], "dtype": "int32"}, {"name": "model_86/tf.strided_slice_30/StridedSlice/end", "shape": [4], "dtype": "int32"}, {"name": "model_86/tf.strided_slice_30/ones_like", "shape": [4], "dtype": "int32"}, {"name": "model_86/tf.nn.convolution_373/convolution/filter", "shape": [1, 1, 128, 64], "dtype": "float32"}, {"name": "model_86/tf.math.add_162/Add/y", "shape": [64], "dtype": "float32"}, {"name": "model_86/tf.concat_30/concat/axis", "shape": [], "dtype": "int32"}, {"name": "model_86/tf.nn.convolution_378/convolution/filter", "shape": [1, 1, 128, 128], "dtype": "float32"}, {"name": "model_86/tf.math.add_171/Add/y", "shape": [128], "dtype": "float32"}, {"name": "model_86/tf.concat_31/concat/axis", "shape": [], "dtype": "int32"}, {"name": "model_86/tf.nn.convolution_379/convolution/filter", "shape": [1, 1, 384, 256], "dtype": "float32"}, {"name": "model_86/tf.math.add_172/Add/y", "shape": [256], "dtype": "float32"}, {"name": "model_86/tf.nn.convolution_380/convolution/filter", "shape": [1, 1, 256, 128], "dtype": "float32"}, {"name": "model_86/tf.math.add_173/Add/y", "shape": [128], "dtype": "float32"}, {"name": "model_86/tf.concat_32/concat/axis", "shape": [], "dtype": "int32"}, {"name": "model_86/tf.nn.convolution_381/convolution/filter", "shape": [1, 1, 512, 256], "dtype": "float32"}, {"name": "model_86/tf.math.add_174/Add/y", "shape": [256], "dtype": "float32"}, {"name": "model_86/tf.nn.convolution_382/convolution/filter", "shape": [1, 1, 256, 256], "dtype": "float32"}, {"name": "model_86/tf.math.add_175/Add/y", "shape": [256], "dtype": "float32"}, {"name": "model_86/tf.strided_slice_32/StridedSlice/begin", "shape": [4], "dtype": "int32"}, {"name": "model_86/tf.strided_slice_32/StridedSlice/end", "shape": [4], "dtype": "int32"}, {"name": "model_86/tf.strided_slice_32/ones_like", "shape": [4], "dtype": "int32"}, {"name": "model_86/tf.nn.convolution_383/convolution/filter", "shape": [1, 1, 128, 256], "dtype": "float32"}, {"name": "model_86/tf.math.add_176/Add/y", "shape": [256], "dtype": "float32"}, {"name": "model_86/tf.compat.v1.transpose_218/transpose/perm", "shape": [4], "dtype": "int32"}, {"name": "model_86/tf.reshape_44/Reshape/shape", "shape": [4], "dtype": "int32"}, {"name": "model_86/tf.strided_slice_35/StridedSlice/begin", "shape": [4], "dtype": "int32"}, {"name": "model_86/tf.strided_slice_35/StridedSlice/end", "shape": [4], "dtype": "int32"}, {"name": "model_86/tf.strided_slice_35/ones_like", "shape": [4], "dtype": "int32"}, {"name": "model_86/tf.reshape_47/Reshape/shape", "shape": [4], "dtype": "int32"}, {"name": "model_86/tf.compat.v1.transpose_226/transpose/perm", "shape": [4], "dtype": "int32"}, {"name": "model_86/tf.nn.convolution_511/convolution/filter", "shape": [3, 3, 1, 1], "dtype": "float32"}, {"name": "model_86/tf.concat_33/concat/axis", "shape": [], "dtype": "int32"}, {"name": "model_86/tf.nn.convolution_512/convolution/filter", "shape": [1, 1, 128, 128], "dtype": "float32"}, {"name": "model_86/tf.math.add_180/Add/y", "shape": [128], "dtype": "float32"}, {"name": "model_86/tf.nn.convolution_513/convolution/filter", "shape": [1, 1, 128, 256], "dtype": "float32"}, {"name": "model_86/tf.math.add_183/Add/y", "shape": [256], "dtype": "float32"}, {"name": "model_86/tf.nn.convolution_514/convolution/filter", "shape": [1, 1, 256, 128], "dtype": "float32"}, {"name": "model_86/tf.concat_34/concat/axis", "shape": [], "dtype": "int32"}, {"name": "model_86/tf.nn.convolution_515/convolution/filter", "shape": [1, 1, 256, 256], "dtype": "float32"}, {"name": "model_86/tf.math.add_187/Add/y", "shape": [256], "dtype": "float32"}, {"name": "model_86/tf.image.resize_2/resize/size", "shape": [2], "dtype": "int32"}, {"name": "model_86/tf.strided_slice_27/ones_like/tensor", "shape": [4], "dtype": "int32"}, {"name": "model_86/tf.strided_slice_27/StridedSlice/end", "shape": [4], "dtype": "int32"}, {"name": "model_86/tf.strided_slice_27/ones_like", "shape": [4], "dtype": "int32"}, {"name": "model_86/tf.nn.convolution_362/convolution/filter", "shape": [1, 1, 64, 32], "dtype": "float32"}, {"name": "model_86/tf.math.add_147/Add/y", "shape": [32], "dtype": "float32"}, {"name": "model_86/tf.nn.convolution_364/convolution/filter", "shape": [3, 3, 32, 32], "dtype": "float32"}, {"name": "model_86/tf.math.add_149/Add/y", "shape": [32], "dtype": "float32"}, {"name": "model_86/tf.nn.convolution_365/convolution/filter", "shape": [3, 3, 32, 32], "dtype": "float32"}, {"name": "model_86/tf.math.add_150/Add/y", "shape": [32], "dtype": "float32"}, {"name": "model_86/tf.nn.convolution_366/convolution/filter", "shape": [3, 3, 32, 32], "dtype": "float32"}, {"name": "model_86/tf.math.add_153/Add/y", "shape": [32], "dtype": "float32"}, {"name": "model_86/tf.nn.convolution_367/convolution/filter", "shape": [3, 3, 32, 32], "dtype": "float32"}, {"name": "model_86/tf.math.add_154/Add/y", "shape": [32], "dtype": "float32"}, {"name": "model_86/tf.compat.v1.pad_10/Pad/paddings", "shape": [4, 2], "dtype": "int32"}, {"name": "model_86/tf.nn.convolution_360/convolution/filter", "shape": [3, 3, 128, 128], "dtype": "float32"}, {"name": "model_86/tf.math.add_145/Add/y", "shape": [128], "dtype": "float32"}, {"name": "model_86/tf.nn.convolution_361/convolution/filter", "shape": [1, 1, 128, 128], "dtype": "float32"}, {"name": "model_86/tf.math.add_146/Add/y", "shape": [128], "dtype": "float32"}, {"name": "model_86/tf.strided_slice_28/ones_like/tensor", "shape": [4], "dtype": "int32"}, {"name": "model_86/tf.strided_slice_28/StridedSlice/end", "shape": [4], "dtype": "int32"}, {"name": "model_86/tf.strided_slice_28/ones_like", "shape": [4], "dtype": "int32"}, {"name": "model_86/tf.nn.convolution_363/convolution/filter", "shape": [1, 1, 64, 32], "dtype": "float32"}, {"name": "model_86/tf.math.add_148/Add/y", "shape": [32], "dtype": "float32"}, {"name": "model_86/tf.concat_28/concat/axis", "shape": [], "dtype": "int32"}, {"name": "model_86/tf.nn.convolution_368/convolution/filter", "shape": [1, 1, 64, 64], "dtype": "float32"}, {"name": "model_86/tf.math.add_157/Add/y", "shape": [64], "dtype": "float32"}, {"name": "model_86/tf.concat_29/concat/axis", "shape": [], "dtype": "int32"}, {"name": "model_86/tf.nn.convolution_369/convolution/filter", "shape": [1, 1, 192, 128], "dtype": "float32"}, {"name": "model_86/tf.math.add_158/Add/y", "shape": [128], "dtype": "float32"}, {"name": "model_86/tf.concat_35/concat/axis", "shape": [], "dtype": "int32"}, {"name": "model_86/tf.nn.convolution_516/convolution/filter", "shape": [1, 1, 384, 128], "dtype": "float32"}, {"name": "model_86/tf.math.add_188/Add/y", "shape": [128], "dtype": "float32"}, {"name": "model_86/tf.strided_slice_37/ones_like/tensor", "shape": [4], "dtype": "int32"}, {"name": "model_86/tf.strided_slice_37/StridedSlice/end", "shape": [4], "dtype": "int32"}, {"name": "model_86/tf.strided_slice_37/ones_like", "shape": [4], "dtype": "int32"}, {"name": "model_86/tf.nn.convolution_517/convolution/filter", "shape": [3, 3, 64, 32], "dtype": "float32"}, {"name": "model_86/tf.math.add_189/Add/y", "shape": [32], "dtype": "float32"}, {"name": "model_86/tf.nn.convolution_518/convolution/filter", "shape": [3, 3, 32, 64], "dtype": "float32"}, {"name": "model_86/tf.math.add_190/Add/y", "shape": [64], "dtype": "float32"}, {"name": "model_86/tf.concat_36/concat/axis", "shape": [], "dtype": "int32"}, {"name": "model_86/tf.nn.convolution_519/convolution/filter", "shape": [1, 1, 192, 128], "dtype": "float32"}, {"name": "model_86/tf.math.add_193/Add/y", "shape": [128], "dtype": "float32"}, {"name": "model_86/tf.image.resize_3/resize/size", "shape": [2], "dtype": "int32"}, {"name": "model_86/tf.strided_slice_25/ones_like/tensor", "shape": [4], "dtype": "int32"}, {"name": "model_86/tf.strided_slice_25/StridedSlice/end", "shape": [4], "dtype": "int32"}, {"name": "model_86/tf.strided_slice_25/ones_like", "shape": [4], "dtype": "int32"}, {"name": "model_86/tf.strided_slice_23/ones_like/tensor", "shape": [4], "dtype": "int32"}, {"name": "model_86/tf.strided_slice_23/StridedSlice/end", "shape": [4], "dtype": "int32"}, {"name": "model_86/tf.strided_slice_23/ones_like", "shape": [4], "dtype": "int32"}, {"name": "model_86/tf.compat.v1.pad_7/Pad/paddings", "shape": [4, 2], "dtype": "int32"}, {"name": "model_86/tf.nn.convolution_349/convolution/filter", "shape": [3, 3, 3, 16], "dtype": "float32"}, {"name": "model_86/tf.math.add_130/Add/y", "shape": [16], "dtype": "float32"}, {"name": "model_86/tf.compat.v1.pad_8/Pad/paddings", "shape": [4, 2], "dtype": "int32"}, {"name": "model_86/tf.nn.convolution_350/convolution/filter", "shape": [3, 3, 16, 32], "dtype": "float32"}, {"name": "model_86/tf.math.add_131/Add/y", "shape": [32], "dtype": "float32"}, {"name": "model_86/tf.nn.convolution_351/convolution/filter", "shape": [1, 1, 32, 32], "dtype": "float32"}, {"name": "model_86/tf.math.add_132/Add/y", "shape": [32], "dtype": "float32"}, {"name": "model_86/tf.strided_slice_24/ones_like/tensor", "shape": [4], "dtype": "int32"}, {"name": "model_86/tf.strided_slice_24/StridedSlice/end", "shape": [4], "dtype": "int32"}, {"name": "model_86/tf.strided_slice_24/ones_like", "shape": [4], "dtype": "int32"}, {"name": "model_86/tf.nn.convolution_352/convolution/filter", "shape": [3, 3, 16, 8], "dtype": "float32"}, {"name": "model_86/tf.math.add_133/Add/y", "shape": [8], "dtype": "float32"}, {"name": "model_86/tf.nn.convolution_353/convolution/filter", "shape": [3, 3, 8, 16], "dtype": "float32"}, {"name": "model_86/tf.math.add_134/Add/y", "shape": [16], "dtype": "float32"}, {"name": "model_86/tf.concat_26/concat/axis", "shape": [], "dtype": "int32"}, {"name": "model_86/tf.nn.convolution_354/convolution/filter", "shape": [1, 1, 48, 64], "dtype": "float32"}, {"name": "model_86/tf.math.add_137/Add/y", "shape": [64], "dtype": "float32"}, {"name": "model_86/tf.compat.v1.pad_9/Pad/paddings", "shape": [4, 2], "dtype": "int32"}, {"name": "model_86/tf.nn.convolution_355/convolution/filter", "shape": [3, 3, 64, 64], "dtype": "float32"}, {"name": "model_86/tf.math.add_138/Add/y", "shape": [64], "dtype": "float32"}, {"name": "model_86/tf.nn.convolution_356/convolution/filter", "shape": [1, 1, 64, 64], "dtype": "float32"}, {"name": "model_86/tf.math.add_139/Add/y", "shape": [64], "dtype": "float32"}, {"name": "model_86/tf.strided_slice_26/ones_like/tensor", "shape": [4], "dtype": "int32"}, {"name": "model_86/tf.strided_slice_26/StridedSlice/end", "shape": [4], "dtype": "int32"}, {"name": "model_86/tf.strided_slice_26/ones_like", "shape": [4], "dtype": "int32"}, {"name": "model_86/tf.nn.convolution_357/convolution/filter", "shape": [3, 3, 32, 16], "dtype": "float32"}, {"name": "model_86/tf.math.add_140/Add/y", "shape": [16], "dtype": "float32"}, {"name": "model_86/tf.nn.convolution_358/convolution/filter", "shape": [3, 3, 16, 32], "dtype": "float32"}, {"name": "model_86/tf.math.add_141/Add/y", "shape": [32], "dtype": "float32"}, {"name": "model_86/tf.concat_27/concat/axis", "shape": [], "dtype": "int32"}, {"name": "model_86/tf.nn.convolution_359/convolution/filter", "shape": [1, 1, 96, 128], "dtype": "float32"}, {"name": "model_86/tf.math.add_144/Add/y", "shape": [128], "dtype": "float32"}, {"name": "model_86/tf.concat_37/concat/axis", "shape": [], "dtype": "int32"}, {"name": "model_86/tf.nn.convolution_520/convolution/filter", "shape": [1, 1, 256, 64], "dtype": "float32"}, {"name": "model_86/tf.math.add_194/Add/y", "shape": [64], "dtype": "float32"}, {"name": "model_86/tf.strided_slice_39/ones_like/tensor", "shape": [4], "dtype": "int32"}, {"name": "model_86/tf.strided_slice_39/StridedSlice/end", "shape": [4], "dtype": "int32"}, {"name": "model_86/tf.strided_slice_39/ones_like", "shape": [4], "dtype": "int32"}, {"name": "model_86/tf.nn.convolution_521/convolution/filter", "shape": [3, 3, 32, 16], "dtype": "float32"}, {"name": "model_86/tf.math.add_195/Add/y", "shape": [16], "dtype": "float32"}, {"name": "model_86/tf.nn.convolution_522/convolution/filter", "shape": [3, 3, 16, 32], "dtype": "float32"}, {"name": "model_86/tf.math.add_196/Add/y", "shape": [32], "dtype": "float32"}, {"name": "model_86/tf.concat_38/concat/axis", "shape": [], "dtype": "int32"}, {"name": "model_86/tf.nn.convolution_523/convolution/filter", "shape": [1, 1, 96, 64], "dtype": "float32"}, {"name": "model_86/tf.math.add_199/Add/y", "shape": [64], "dtype": "float32"}, {"name": "model_86/tf.nn.convolution_527/convolution/filter", "shape": [3, 3, 64, 64], "dtype": "float32"}, {"name": "model_86/tf.math.add_204/Add/y", "shape": [64], "dtype": "float32"}, {"name": "model_86/tf.math.add_208/Add/y", "shape": [64], "dtype": "float32"}, {"name": "model_86/tf.nn.convolution_532/convolution/filter", "shape": [3, 3, 64, 64], "dtype": "float32"}, {"name": "model_86/tf.math.add_210/Add/y", "shape": [64], "dtype": "float32"}, {"name": "model_86/tf.nn.convolution_535/convolution/filter", "shape": [1, 1, 64, 32], "dtype": "float32"}, {"name": "model_86/tf.math.add_216/Add/y", "shape": [32], "dtype": "float32"}]}]}