{"format": "graph-model", "generatedBy": "2.19.0", "convertedBy": "TensorFlow.js Converter v4.22.0", "signature": {"outputs": {"Identity:0": {"name": "Identity:0"}, "Identity_1:0": {"name": "Identity_1:0"}}}, "modelTopology": {"node": [{"name": "ConstantFolding/model_230/tf.math.divide_2/truediv_recip", "op": "Const", "attr": {"value": {"tensor": {"dtype": "DT_FLOAT", "tensorShape": {}}}, "dtype": {"type": "DT_FLOAT"}}}, {"name": "model_230/tf.strided_slice_78/ones_like/tensor", "op": "Const", "attr": {"value": {"tensor": {"dtype": "DT_INT64", "tensorShape": {"dim": [{"size": "3"}]}}}, "dtype": {"type": "DT_INT64"}}}, {"name": "model_230/tf.strided_slice_78/StridedSlice/end", "op": "Const", "attr": {"value": {"tensor": {"dtype": "DT_INT64", "tensorShape": {"dim": [{"size": "3"}]}}}, "dtype": {"type": "DT_INT64"}}}, {"name": "model_230/tf.strided_slice_78/ones_like", "op": "Const", "attr": {"value": {"tensor": {"dtype": "DT_INT64", "tensorShape": {"dim": [{"size": "3"}]}}}, "dtype": {"type": "DT_INT64"}}}, {"name": "model_230/tf.math.add_465/Add/y", "op": "Const", "attr": {"value": {"tensor": {"dtype": "DT_FLOAT", "tensorShape": {"dim": [{"size": "1"}, {"size": "2"}, {"size": "8400"}]}}}, "dtype": {"type": "DT_FLOAT"}}}, {"name": "model_230/164239", "op": "Const", "attr": {"value": {"tensor": {"dtype": "DT_FLOAT", "tensorShape": {"dim": [{"size": "1"}, {"size": "2"}, {"size": "8400"}]}}}, "dtype": {"type": "DT_FLOAT"}}}, {"name": "model_230/tf.nn.convolution_1032/convolution/filter", "op": "Const", "attr": {"value": {"tensor": {"dtype": "DT_FLOAT", "tensorShape": {"dim": [{"size": "3"}, {"size": "3"}, {"size": "256"}, {"size": "64"}]}}}, "dtype": {"type": "DT_FLOAT"}}}, {"name": "model_230/tf.math.add_401/Add/y", "op": "Const", "attr": {"value": {"tensor": {"dtype": "DT_FLOAT", "tensorShape": {"dim": [{"size": "64"}]}}}, "dtype": {"type": "DT_FLOAT"}}}, {"name": "model_230/tf.nn.convolution_1035/convolution/filter", "op": "Const", "attr": {"value": {"tensor": {"dtype": "DT_FLOAT", "tensorShape": {"dim": [{"size": "3"}, {"size": "3"}, {"size": "64"}, {"size": "64"}]}}}, "dtype": {"type": "DT_FLOAT"}}}, {"name": "model_230/tf.math.add_405/Add/y", "op": "Const", "attr": {"value": {"tensor": {"dtype": "DT_FLOAT", "tensorShape": {"dim": [{"size": "64"}]}}}, "dtype": {"type": "DT_FLOAT"}}}, {"name": "model_230/tf.nn.convolution_1040/convolution/filter", "op": "Const", "attr": {"value": {"tensor": {"dtype": "DT_FLOAT", "tensorShape": {"dim": [{"size": "1"}, {"size": "1"}, {"size": "64"}, {"size": "64"}]}}}, "dtype": {"type": "DT_FLOAT"}}}, {"name": "model_230/tf.math.add_411/Add/y", "op": "Const", "attr": {"value": {"tensor": {"dtype": "DT_FLOAT", "tensorShape": {"dim": [{"size": "64"}]}}}, "dtype": {"type": "DT_FLOAT"}}}, {"name": "model_230/tf.compat.v1.transpose_567/transpose/perm", "op": "Const", "attr": {"value": {"tensor": {"dtype": "DT_INT32", "tensorShape": {"dim": [{"size": "4"}]}}}, "dtype": {"type": "DT_INT32"}}}, {"name": "model_230/tf.reshape_117/Reshape/shape", "op": "Const", "attr": {"value": {"tensor": {"dtype": "DT_INT32", "tensorShape": {"dim": [{"size": "3"}]}}}, "dtype": {"type": "DT_INT32"}}}, {"name": "model_230/tf.nn.convolution_1054/convolution/filter", "op": "Const", "attr": {"value": {"tensor": {"dtype": "DT_FLOAT", "tensorShape": {"dim": [{"size": "3"}, {"size": "3"}, {"size": "512"}, {"size": "64"}]}}}, "dtype": {"type": "DT_FLOAT"}}}, {"name": "model_230/tf.math.add_430/Add/y", "op": "Const", "attr": {"value": {"tensor": {"dtype": "DT_FLOAT", "tensorShape": {"dim": [{"size": "64"}]}}}, "dtype": {"type": "DT_FLOAT"}}}, {"name": "model_230/tf.nn.convolution_1056/convolution/filter", "op": "Const", "attr": {"value": {"tensor": {"dtype": "DT_FLOAT", "tensorShape": {"dim": [{"size": "3"}, {"size": "3"}, {"size": "64"}, {"size": "64"}]}}}, "dtype": {"type": "DT_FLOAT"}}}, {"name": "model_230/tf.math.add_433/Add/y", "op": "Const", "attr": {"value": {"tensor": {"dtype": "DT_FLOAT", "tensorShape": {"dim": [{"size": "64"}]}}}, "dtype": {"type": "DT_FLOAT"}}}, {"name": "model_230/tf.nn.convolution_1060/convolution/filter", "op": "Const", "attr": {"value": {"tensor": {"dtype": "DT_FLOAT", "tensorShape": {"dim": [{"size": "1"}, {"size": "1"}, {"size": "64"}, {"size": "64"}]}}}, "dtype": {"type": "DT_FLOAT"}}}, {"name": "model_230/tf.math.add_437/Add/y", "op": "Const", "attr": {"value": {"tensor": {"dtype": "DT_FLOAT", "tensorShape": {"dim": [{"size": "64"}]}}}, "dtype": {"type": "DT_FLOAT"}}}, {"name": "model_230/tf.compat.v1.transpose_603/transpose/perm", "op": "Const", "attr": {"value": {"tensor": {"dtype": "DT_INT32", "tensorShape": {"dim": [{"size": "4"}]}}}, "dtype": {"type": "DT_INT32"}}}, {"name": "model_230/tf.reshape_126/Reshape/shape", "op": "Const", "attr": {"value": {"tensor": {"dtype": "DT_INT32", "tensorShape": {"dim": [{"size": "3"}]}}}, "dtype": {"type": "DT_INT32"}}}, {"name": "model_230/tf.nn.convolution_1072/convolution/filter", "op": "Const", "attr": {"value": {"tensor": {"dtype": "DT_FLOAT", "tensorShape": {"dim": [{"size": "3"}, {"size": "3"}, {"size": "512"}, {"size": "64"}]}}}, "dtype": {"type": "DT_FLOAT"}}}, {"name": "model_230/tf.math.add_454/Add/y", "op": "Const", "attr": {"value": {"tensor": {"dtype": "DT_FLOAT", "tensorShape": {"dim": [{"size": "64"}]}}}, "dtype": {"type": "DT_FLOAT"}}}, {"name": "model_230/tf.nn.convolution_1074/convolution/filter", "op": "Const", "attr": {"value": {"tensor": {"dtype": "DT_FLOAT", "tensorShape": {"dim": [{"size": "3"}, {"size": "3"}, {"size": "64"}, {"size": "64"}]}}}, "dtype": {"type": "DT_FLOAT"}}}, {"name": "model_230/tf.math.add_457/Add/y", "op": "Const", "attr": {"value": {"tensor": {"dtype": "DT_FLOAT", "tensorShape": {"dim": [{"size": "64"}]}}}, "dtype": {"type": "DT_FLOAT"}}}, {"name": "model_230/tf.nn.convolution_1077/convolution/filter", "op": "Const", "attr": {"value": {"tensor": {"dtype": "DT_FLOAT", "tensorShape": {"dim": [{"size": "1"}, {"size": "1"}, {"size": "64"}, {"size": "64"}]}}}, "dtype": {"type": "DT_FLOAT"}}}, {"name": "model_230/tf.math.add_460/Add/y", "op": "Const", "attr": {"value": {"tensor": {"dtype": "DT_FLOAT", "tensorShape": {"dim": [{"size": "64"}]}}}, "dtype": {"type": "DT_FLOAT"}}}, {"name": "model_230/tf.compat.v1.transpose_636/transpose/perm", "op": "Const", "attr": {"value": {"tensor": {"dtype": "DT_INT32", "tensorShape": {"dim": [{"size": "4"}]}}}, "dtype": {"type": "DT_INT32"}}}, {"name": "model_230/tf.reshape_135/Reshape/shape", "op": "Const", "attr": {"value": {"tensor": {"dtype": "DT_INT32", "tensorShape": {"dim": [{"size": "3"}]}}}, "dtype": {"type": "DT_INT32"}}}, {"name": "model_230/tf.concat_89/concat/axis", "op": "Const", "attr": {"value": {"tensor": {"dtype": "DT_INT32", "tensorShape": {}}}, "dtype": {"type": "DT_INT32"}}}, {"name": "model_230/tf.reshape_141/Reshape/shape", "op": "Const", "attr": {"value": {"tensor": {"dtype": "DT_INT32", "tensorShape": {"dim": [{"size": "4"}]}}}, "dtype": {"type": "DT_INT32"}}}, {"name": "model_230/tf.compat.v1.transpose_649/transpose/perm", "op": "Const", "attr": {"value": {"tensor": {"dtype": "DT_INT32", "tensorShape": {"dim": [{"size": "4"}]}}}, "dtype": {"type": "DT_INT32"}}}, {"name": "model_230/tf.compat.v1.transpose_651/transpose/perm", "op": "Const", "attr": {"value": {"tensor": {"dtype": "DT_INT32", "tensorShape": {"dim": [{"size": "4"}]}}}, "dtype": {"type": "DT_INT32"}}}, {"name": "model_230/tf.nn.convolution_1081/convolution/filter", "op": "Const", "attr": {"value": {"tensor": {"dtype": "DT_FLOAT", "tensorShape": {"dim": [{"size": "1"}, {"size": "1"}, {"size": "16"}, {"size": "1"}]}}}, "dtype": {"type": "DT_FLOAT"}}}, {"name": "model_230/tf.compat.v1.transpose_661/transpose/perm", "op": "Const", "attr": {"value": {"tensor": {"dtype": "DT_INT32", "tensorShape": {"dim": [{"size": "4"}]}}}, "dtype": {"type": "DT_INT32"}}}, {"name": "model_230/tf.reshape_147/Reshape/shape", "op": "Const", "attr": {"value": {"tensor": {"dtype": "DT_INT32", "tensorShape": {"dim": [{"size": "3"}]}}}, "dtype": {"type": "DT_INT32"}}}, {"name": "model_230/tf.strided_slice_77/ones_like/tensor", "op": "Const", "attr": {"value": {"tensor": {"dtype": "DT_INT64", "tensorShape": {"dim": [{"size": "3"}]}}}, "dtype": {"type": "DT_INT64"}}}, {"name": "model_230/tf.strided_slice_77/StridedSlice/end", "op": "Const", "attr": {"value": {"tensor": {"dtype": "DT_INT64", "tensorShape": {"dim": [{"size": "3"}]}}}, "dtype": {"type": "DT_INT64"}}}, {"name": "model_230/tf.strided_slice_77/ones_like", "op": "Const", "attr": {"value": {"tensor": {"dtype": "DT_INT64", "tensorShape": {"dim": [{"size": "3"}]}}}, "dtype": {"type": "DT_INT64"}}}, {"name": "model_230/tf.concat_95/concat/axis", "op": "Const", "attr": {"value": {"tensor": {"dtype": "DT_INT32", "tensorShape": {}}}, "dtype": {"type": "DT_INT32"}}}, {"name": "model_230/tf.math.multiply_1303/Mul/y", "op": "Const", "attr": {"value": {"tensor": {"dtype": "DT_FLOAT", "tensorShape": {"dim": [{"size": "1"}, {"size": "1"}, {"size": "8400"}]}}}, "dtype": {"type": "DT_FLOAT"}}}, {"name": "model_230/tf.compat.v1.nn.depthwise_conv2d_16/depthwise/filter_in", "op": "Const", "attr": {"value": {"tensor": {"dtype": "DT_FLOAT", "tensorShape": {"dim": [{"size": "3"}, {"size": "3"}, {"size": "256"}, {"size": "1"}]}}}, "dtype": {"type": "DT_FLOAT"}}}, {"name": "model_230/tf.math.add_402/Add/y", "op": "Const", "attr": {"value": {"tensor": {"dtype": "DT_FLOAT", "tensorShape": {"dim": [{"size": "256"}]}}}, "dtype": {"type": "DT_FLOAT"}}}, {"name": "model_230/tf.nn.convolution_1036/convolution/filter", "op": "Const", "attr": {"value": {"tensor": {"dtype": "DT_FLOAT", "tensorShape": {"dim": [{"size": "1"}, {"size": "1"}, {"size": "256"}, {"size": "256"}]}}}, "dtype": {"type": "DT_FLOAT"}}}, {"name": "model_230/tf.math.add_406/Add/y", "op": "Const", "attr": {"value": {"tensor": {"dtype": "DT_FLOAT", "tensorShape": {"dim": [{"size": "256"}]}}}, "dtype": {"type": "DT_FLOAT"}}}, {"name": "model_230/tf.compat.v1.nn.depthwise_conv2d_17/depthwise/filter_in", "op": "Const", "attr": {"value": {"tensor": {"dtype": "DT_FLOAT", "tensorShape": {"dim": [{"size": "3"}, {"size": "3"}, {"size": "256"}, {"size": "1"}]}}}, "dtype": {"type": "DT_FLOAT"}}}, {"name": "model_230/tf.math.add_412/Add/y", "op": "Const", "attr": {"value": {"tensor": {"dtype": "DT_FLOAT", "tensorShape": {"dim": [{"size": "256"}]}}}, "dtype": {"type": "DT_FLOAT"}}}, {"name": "model_230/tf.nn.convolution_1045/convolution/filter", "op": "Const", "attr": {"value": {"tensor": {"dtype": "DT_FLOAT", "tensorShape": {"dim": [{"size": "1"}, {"size": "1"}, {"size": "256"}, {"size": "256"}]}}}, "dtype": {"type": "DT_FLOAT"}}}, {"name": "model_230/tf.math.add_417/Add/y", "op": "Const", "attr": {"value": {"tensor": {"dtype": "DT_FLOAT", "tensorShape": {"dim": [{"size": "256"}]}}}, "dtype": {"type": "DT_FLOAT"}}}, {"name": "model_230/tf.nn.convolution_1047/convolution/filter", "op": "Const", "attr": {"value": {"tensor": {"dtype": "DT_FLOAT", "tensorShape": {"dim": [{"size": "1"}, {"size": "1"}, {"size": "256"}, {"size": "80"}]}}}, "dtype": {"type": "DT_FLOAT"}}}, {"name": "model_230/tf.math.add_419/Add/y", "op": "Const", "attr": {"value": {"tensor": {"dtype": "DT_FLOAT", "tensorShape": {"dim": [{"size": "80"}]}}}, "dtype": {"type": "DT_FLOAT"}}}, {"name": "model_230/tf.compat.v1.transpose_582/transpose/perm", "op": "Const", "attr": {"value": {"tensor": {"dtype": "DT_INT32", "tensorShape": {"dim": [{"size": "4"}]}}}, "dtype": {"type": "DT_INT32"}}}, {"name": "model_230/tf.reshape_123/Reshape/shape", "op": "Const", "attr": {"value": {"tensor": {"dtype": "DT_INT32", "tensorShape": {"dim": [{"size": "3"}]}}}, "dtype": {"type": "DT_INT32"}}}, {"name": "model_230/tf.compat.v1.nn.depthwise_conv2d_18/depthwise/filter_in", "op": "Const", "attr": {"value": {"tensor": {"dtype": "DT_FLOAT", "tensorShape": {"dim": [{"size": "3"}, {"size": "3"}, {"size": "512"}, {"size": "1"}]}}}, "dtype": {"type": "DT_FLOAT"}}}, {"name": "model_230/tf.math.add_431/Add/y", "op": "Const", "attr": {"value": {"tensor": {"dtype": "DT_FLOAT", "tensorShape": {"dim": [{"size": "512"}]}}}, "dtype": {"type": "DT_FLOAT"}}}, {"name": "model_230/tf.nn.convolution_1057/convolution/filter", "op": "Const", "attr": {"value": {"tensor": {"dtype": "DT_FLOAT", "tensorShape": {"dim": [{"size": "1"}, {"size": "1"}, {"size": "512"}, {"size": "256"}]}}}, "dtype": {"type": "DT_FLOAT"}}}, {"name": "model_230/tf.math.add_434/Add/y", "op": "Const", "attr": {"value": {"tensor": {"dtype": "DT_FLOAT", "tensorShape": {"dim": [{"size": "256"}]}}}, "dtype": {"type": "DT_FLOAT"}}}, {"name": "model_230/tf.compat.v1.nn.depthwise_conv2d_19/depthwise/filter_in", "op": "Const", "attr": {"value": {"tensor": {"dtype": "DT_FLOAT", "tensorShape": {"dim": [{"size": "3"}, {"size": "3"}, {"size": "256"}, {"size": "1"}]}}}, "dtype": {"type": "DT_FLOAT"}}}, {"name": "model_230/tf.math.add_438/Add/y", "op": "Const", "attr": {"value": {"tensor": {"dtype": "DT_FLOAT", "tensorShape": {"dim": [{"size": "256"}]}}}, "dtype": {"type": "DT_FLOAT"}}}, {"name": "model_230/tf.nn.convolution_1064/convolution/filter", "op": "Const", "attr": {"value": {"tensor": {"dtype": "DT_FLOAT", "tensorShape": {"dim": [{"size": "1"}, {"size": "1"}, {"size": "256"}, {"size": "256"}]}}}, "dtype": {"type": "DT_FLOAT"}}}, {"name": "model_230/tf.math.add_442/Add/y", "op": "Const", "attr": {"value": {"tensor": {"dtype": "DT_FLOAT", "tensorShape": {"dim": [{"size": "256"}]}}}, "dtype": {"type": "DT_FLOAT"}}}, {"name": "model_230/tf.nn.convolution_1066/convolution/filter", "op": "Const", "attr": {"value": {"tensor": {"dtype": "DT_FLOAT", "tensorShape": {"dim": [{"size": "1"}, {"size": "1"}, {"size": "256"}, {"size": "80"}]}}}, "dtype": {"type": "DT_FLOAT"}}}, {"name": "model_230/tf.math.add_444/Add/y", "op": "Const", "attr": {"value": {"tensor": {"dtype": "DT_FLOAT", "tensorShape": {"dim": [{"size": "80"}]}}}, "dtype": {"type": "DT_FLOAT"}}}, {"name": "model_230/tf.compat.v1.transpose_617/transpose/perm", "op": "Const", "attr": {"value": {"tensor": {"dtype": "DT_INT32", "tensorShape": {"dim": [{"size": "4"}]}}}, "dtype": {"type": "DT_INT32"}}}, {"name": "model_230/tf.reshape_132/Reshape/shape", "op": "Const", "attr": {"value": {"tensor": {"dtype": "DT_INT32", "tensorShape": {"dim": [{"size": "3"}]}}}, "dtype": {"type": "DT_INT32"}}}, {"name": "model_230/tf.compat.v1.nn.depthwise_conv2d_20/depthwise/filter_in", "op": "Const", "attr": {"value": {"tensor": {"dtype": "DT_FLOAT", "tensorShape": {"dim": [{"size": "3"}, {"size": "3"}, {"size": "512"}, {"size": "1"}]}}}, "dtype": {"type": "DT_FLOAT"}}}, {"name": "model_230/tf.math.add_455/Add/y", "op": "Const", "attr": {"value": {"tensor": {"dtype": "DT_FLOAT", "tensorShape": {"dim": [{"size": "512"}]}}}, "dtype": {"type": "DT_FLOAT"}}}, {"name": "model_230/tf.nn.convolution_1075/convolution/filter", "op": "Const", "attr": {"value": {"tensor": {"dtype": "DT_FLOAT", "tensorShape": {"dim": [{"size": "1"}, {"size": "1"}, {"size": "512"}, {"size": "256"}]}}}, "dtype": {"type": "DT_FLOAT"}}}, {"name": "model_230/tf.math.add_458/Add/y", "op": "Const", "attr": {"value": {"tensor": {"dtype": "DT_FLOAT", "tensorShape": {"dim": [{"size": "256"}]}}}, "dtype": {"type": "DT_FLOAT"}}}, {"name": "model_230/tf.compat.v1.nn.depthwise_conv2d_21/depthwise/filter_in", "op": "Const", "attr": {"value": {"tensor": {"dtype": "DT_FLOAT", "tensorShape": {"dim": [{"size": "3"}, {"size": "3"}, {"size": "256"}, {"size": "1"}]}}}, "dtype": {"type": "DT_FLOAT"}}}, {"name": "model_230/tf.math.add_461/Add/y", "op": "Const", "attr": {"value": {"tensor": {"dtype": "DT_FLOAT", "tensorShape": {"dim": [{"size": "256"}]}}}, "dtype": {"type": "DT_FLOAT"}}}, {"name": "model_230/tf.nn.convolution_1079/convolution/filter", "op": "Const", "attr": {"value": {"tensor": {"dtype": "DT_FLOAT", "tensorShape": {"dim": [{"size": "1"}, {"size": "1"}, {"size": "256"}, {"size": "256"}]}}}, "dtype": {"type": "DT_FLOAT"}}}, {"name": "model_230/tf.math.add_463/Add/y", "op": "Const", "attr": {"value": {"tensor": {"dtype": "DT_FLOAT", "tensorShape": {"dim": [{"size": "256"}]}}}, "dtype": {"type": "DT_FLOAT"}}}, {"name": "model_230/tf.nn.convolution_1080/convolution/filter", "op": "Const", "attr": {"value": {"tensor": {"dtype": "DT_FLOAT", "tensorShape": {"dim": [{"size": "1"}, {"size": "1"}, {"size": "256"}, {"size": "80"}]}}}, "dtype": {"type": "DT_FLOAT"}}}, {"name": "model_230/tf.math.add_464/Add/y", "op": "Const", "attr": {"value": {"tensor": {"dtype": "DT_FLOAT", "tensorShape": {"dim": [{"size": "80"}]}}}, "dtype": {"type": "DT_FLOAT"}}}, {"name": "model_230/tf.compat.v1.transpose_656/transpose/perm", "op": "Const", "attr": {"value": {"tensor": {"dtype": "DT_INT32", "tensorShape": {"dim": [{"size": "4"}]}}}, "dtype": {"type": "DT_INT32"}}}, {"name": "model_230/tf.reshape_144/Reshape/shape", "op": "Const", "attr": {"value": {"tensor": {"dtype": "DT_INT32", "tensorShape": {"dim": [{"size": "3"}]}}}, "dtype": {"type": "DT_INT32"}}}, {"name": "model_230/tf.concat_91/concat/axis", "op": "Const", "attr": {"value": {"tensor": {"dtype": "DT_INT32", "tensorShape": {}}}, "dtype": {"type": "DT_INT32"}}}, {"name": "model_230/tf.nn.convolution_1033/convolution/filter", "op": "Const", "attr": {"value": {"tensor": {"dtype": "DT_FLOAT", "tensorShape": {"dim": [{"size": "3"}, {"size": "3"}, {"size": "256"}, {"size": "64"}]}}}, "dtype": {"type": "DT_FLOAT"}}}, {"name": "model_230/tf.math.add_403/Add/y", "op": "Const", "attr": {"value": {"tensor": {"dtype": "DT_FLOAT", "tensorShape": {"dim": [{"size": "64"}]}}}, "dtype": {"type": "DT_FLOAT"}}}, {"name": "model_230/tf.nn.convolution_1037/convolution/filter", "op": "Const", "attr": {"value": {"tensor": {"dtype": "DT_FLOAT", "tensorShape": {"dim": [{"size": "3"}, {"size": "3"}, {"size": "64"}, {"size": "64"}]}}}, "dtype": {"type": "DT_FLOAT"}}}, {"name": "model_230/tf.math.add_407/Add/y", "op": "Const", "attr": {"value": {"tensor": {"dtype": "DT_FLOAT", "tensorShape": {"dim": [{"size": "64"}]}}}, "dtype": {"type": "DT_FLOAT"}}}, {"name": "model_230/tf.nn.convolution_1041/convolution/filter", "op": "Const", "attr": {"value": {"tensor": {"dtype": "DT_FLOAT", "tensorShape": {"dim": [{"size": "1"}, {"size": "1"}, {"size": "64"}, {"size": "32"}]}}}, "dtype": {"type": "DT_FLOAT"}}}, {"name": "model_230/tf.math.add_413/Add/y", "op": "Const", "attr": {"value": {"tensor": {"dtype": "DT_FLOAT", "tensorShape": {"dim": [{"size": "32"}]}}}, "dtype": {"type": "DT_FLOAT"}}}, {"name": "model_230/tf.compat.v1.transpose_572/transpose/perm", "op": "Const", "attr": {"value": {"tensor": {"dtype": "DT_INT32", "tensorShape": {"dim": [{"size": "4"}]}}}, "dtype": {"type": "DT_INT32"}}}, {"name": "model_230/tf.reshape_120/Reshape/shape", "op": "Const", "attr": {"value": {"tensor": {"dtype": "DT_INT32", "tensorShape": {"dim": [{"size": "3"}]}}}, "dtype": {"type": "DT_INT32"}}}, {"name": "model_230/tf.nn.convolution_1055/convolution/filter", "op": "Const", "attr": {"value": {"tensor": {"dtype": "DT_FLOAT", "tensorShape": {"dim": [{"size": "3"}, {"size": "3"}, {"size": "512"}, {"size": "64"}]}}}, "dtype": {"type": "DT_FLOAT"}}}, {"name": "model_230/tf.math.add_432/Add/y", "op": "Const", "attr": {"value": {"tensor": {"dtype": "DT_FLOAT", "tensorShape": {"dim": [{"size": "64"}]}}}, "dtype": {"type": "DT_FLOAT"}}}, {"name": "model_230/tf.nn.convolution_1058/convolution/filter", "op": "Const", "attr": {"value": {"tensor": {"dtype": "DT_FLOAT", "tensorShape": {"dim": [{"size": "3"}, {"size": "3"}, {"size": "64"}, {"size": "64"}]}}}, "dtype": {"type": "DT_FLOAT"}}}, {"name": "model_230/tf.math.add_435/Add/y", "op": "Const", "attr": {"value": {"tensor": {"dtype": "DT_FLOAT", "tensorShape": {"dim": [{"size": "64"}]}}}, "dtype": {"type": "DT_FLOAT"}}}, {"name": "model_230/tf.nn.convolution_1061/convolution/filter", "op": "Const", "attr": {"value": {"tensor": {"dtype": "DT_FLOAT", "tensorShape": {"dim": [{"size": "1"}, {"size": "1"}, {"size": "64"}, {"size": "32"}]}}}, "dtype": {"type": "DT_FLOAT"}}}, {"name": "model_230/tf.math.add_439/Add/y", "op": "Const", "attr": {"value": {"tensor": {"dtype": "DT_FLOAT", "tensorShape": {"dim": [{"size": "32"}]}}}, "dtype": {"type": "DT_FLOAT"}}}, {"name": "model_230/tf.compat.v1.transpose_608/transpose/perm", "op": "Const", "attr": {"value": {"tensor": {"dtype": "DT_INT32", "tensorShape": {"dim": [{"size": "4"}]}}}, "dtype": {"type": "DT_INT32"}}}, {"name": "model_230/tf.reshape_129/Reshape/shape", "op": "Const", "attr": {"value": {"tensor": {"dtype": "DT_INT32", "tensorShape": {"dim": [{"size": "3"}]}}}, "dtype": {"type": "DT_INT32"}}}, {"name": "model_230/tf.strided_slice_75/ones_like/tensor", "op": "Const", "attr": {"value": {"tensor": {"dtype": "DT_INT64", "tensorShape": {"dim": [{"size": "4"}]}}}, "dtype": {"type": "DT_INT64"}}}, {"name": "model_230/tf.strided_slice_75/StridedSlice/end", "op": "Const", "attr": {"value": {"tensor": {"dtype": "DT_INT64", "tensorShape": {"dim": [{"size": "4"}]}}}, "dtype": {"type": "DT_INT64"}}}, {"name": "model_230/tf.strided_slice_75/ones_like", "op": "Const", "attr": {"value": {"tensor": {"dtype": "DT_INT64", "tensorShape": {"dim": [{"size": "4"}]}}}, "dtype": {"type": "DT_INT64"}}}, {"name": "model_230/tf.nn.convolution_1062/convolution/filter", "op": "Const", "attr": {"value": {"tensor": {"dtype": "DT_FLOAT", "tensorShape": {"dim": [{"size": "1"}, {"size": "1"}, {"size": "256"}, {"size": "128"}]}}}, "dtype": {"type": "DT_FLOAT"}}}, {"name": "model_230/tf.math.add_440/Add/y", "op": "Const", "attr": {"value": {"tensor": {"dtype": "DT_FLOAT", "tensorShape": {"dim": [{"size": "128"}]}}}, "dtype": {"type": "DT_FLOAT"}}}, {"name": "model_230/tf.nn.convolution_1065/convolution/filter", "op": "Const", "attr": {"value": {"tensor": {"dtype": "DT_FLOAT", "tensorShape": {"dim": [{"size": "3"}, {"size": "3"}, {"size": "128"}, {"size": "128"}]}}}, "dtype": {"type": "DT_FLOAT"}}}, {"name": "model_230/tf.math.add_443/Add/y", "op": "Const", "attr": {"value": {"tensor": {"dtype": "DT_FLOAT", "tensorShape": {"dim": [{"size": "128"}]}}}, "dtype": {"type": "DT_FLOAT"}}}, {"name": "model_230/tf.nn.convolution_1067/convolution/filter", "op": "Const", "attr": {"value": {"tensor": {"dtype": "DT_FLOAT", "tensorShape": {"dim": [{"size": "3"}, {"size": "3"}, {"size": "128"}, {"size": "128"}]}}}, "dtype": {"type": "DT_FLOAT"}}}, {"name": "model_230/tf.math.add_445/Add/y", "op": "Const", "attr": {"value": {"tensor": {"dtype": "DT_FLOAT", "tensorShape": {"dim": [{"size": "128"}]}}}, "dtype": {"type": "DT_FLOAT"}}}, {"name": "model_230/tf.nn.convolution_1068/convolution/filter", "op": "Const", "attr": {"value": {"tensor": {"dtype": "DT_FLOAT", "tensorShape": {"dim": [{"size": "3"}, {"size": "3"}, {"size": "128"}, {"size": "128"}]}}}, "dtype": {"type": "DT_FLOAT"}}}, {"name": "model_230/tf.math.add_448/Add/y", "op": "Const", "attr": {"value": {"tensor": {"dtype": "DT_FLOAT", "tensorShape": {"dim": [{"size": "128"}]}}}, "dtype": {"type": "DT_FLOAT"}}}, {"name": "model_230/tf.nn.convolution_1069/convolution/filter", "op": "Const", "attr": {"value": {"tensor": {"dtype": "DT_FLOAT", "tensorShape": {"dim": [{"size": "3"}, {"size": "3"}, {"size": "128"}, {"size": "128"}]}}}, "dtype": {"type": "DT_FLOAT"}}}, {"name": "model_230/tf.math.add_449/Add/y", "op": "Const", "attr": {"value": {"tensor": {"dtype": "DT_FLOAT", "tensorShape": {"dim": [{"size": "128"}]}}}, "dtype": {"type": "DT_FLOAT"}}}, {"name": "model_230/tf.strided_slice_73/ones_like/tensor", "op": "Const", "attr": {"value": {"tensor": {"dtype": "DT_INT64", "tensorShape": {"dim": [{"size": "4"}]}}}, "dtype": {"type": "DT_INT64"}}}, {"name": "model_230/tf.strided_slice_73/StridedSlice/end", "op": "Const", "attr": {"value": {"tensor": {"dtype": "DT_INT64", "tensorShape": {"dim": [{"size": "4"}]}}}, "dtype": {"type": "DT_INT64"}}}, {"name": "model_230/tf.strided_slice_73/ones_like", "op": "Const", "attr": {"value": {"tensor": {"dtype": "DT_INT64", "tensorShape": {"dim": [{"size": "4"}]}}}, "dtype": {"type": "DT_INT64"}}}, {"name": "model_230/tf.nn.convolution_1043/convolution/filter", "op": "Const", "attr": {"value": {"tensor": {"dtype": "DT_FLOAT", "tensorShape": {"dim": [{"size": "1"}, {"size": "1"}, {"size": "256"}, {"size": "128"}]}}}, "dtype": {"type": "DT_FLOAT"}}}, {"name": "model_230/tf.math.add_415/Add/y", "op": "Const", "attr": {"value": {"tensor": {"dtype": "DT_FLOAT", "tensorShape": {"dim": [{"size": "128"}]}}}, "dtype": {"type": "DT_FLOAT"}}}, {"name": "model_230/tf.nn.convolution_1046/convolution/filter", "op": "Const", "attr": {"value": {"tensor": {"dtype": "DT_FLOAT", "tensorShape": {"dim": [{"size": "3"}, {"size": "3"}, {"size": "128"}, {"size": "128"}]}}}, "dtype": {"type": "DT_FLOAT"}}}, {"name": "model_230/tf.math.add_418/Add/y", "op": "Const", "attr": {"value": {"tensor": {"dtype": "DT_FLOAT", "tensorShape": {"dim": [{"size": "128"}]}}}, "dtype": {"type": "DT_FLOAT"}}}, {"name": "model_230/tf.nn.convolution_1048/convolution/filter", "op": "Const", "attr": {"value": {"tensor": {"dtype": "DT_FLOAT", "tensorShape": {"dim": [{"size": "3"}, {"size": "3"}, {"size": "128"}, {"size": "128"}]}}}, "dtype": {"type": "DT_FLOAT"}}}, {"name": "model_230/tf.math.add_420/Add/y", "op": "Const", "attr": {"value": {"tensor": {"dtype": "DT_FLOAT", "tensorShape": {"dim": [{"size": "128"}]}}}, "dtype": {"type": "DT_FLOAT"}}}, {"name": "model_230/tf.nn.convolution_1049/convolution/filter", "op": "Const", "attr": {"value": {"tensor": {"dtype": "DT_FLOAT", "tensorShape": {"dim": [{"size": "3"}, {"size": "3"}, {"size": "128"}, {"size": "128"}]}}}, "dtype": {"type": "DT_FLOAT"}}}, {"name": "model_230/tf.math.add_423/Add/y", "op": "Const", "attr": {"value": {"tensor": {"dtype": "DT_FLOAT", "tensorShape": {"dim": [{"size": "128"}]}}}, "dtype": {"type": "DT_FLOAT"}}}, {"name": "model_230/tf.nn.convolution_1050/convolution/filter", "op": "Const", "attr": {"value": {"tensor": {"dtype": "DT_FLOAT", "tensorShape": {"dim": [{"size": "3"}, {"size": "3"}, {"size": "128"}, {"size": "128"}]}}}, "dtype": {"type": "DT_FLOAT"}}}, {"name": "model_230/tf.math.add_424/Add/y", "op": "Const", "attr": {"value": {"tensor": {"dtype": "DT_FLOAT", "tensorShape": {"dim": [{"size": "128"}]}}}, "dtype": {"type": "DT_FLOAT"}}}, {"name": "model_230/tf.compat.v1.pad_19/Pad/paddings", "op": "Const", "attr": {"value": {"tensor": {"dtype": "DT_INT32", "tensorShape": {"dim": [{"size": "4"}, {"size": "2"}]}}}, "dtype": {"type": "DT_INT32"}}}, {"name": "model_230/tf.nn.convolution_1031/convolution/filter", "op": "Const", "attr": {"value": {"tensor": {"dtype": "DT_FLOAT", "tensorShape": {"dim": [{"size": "3"}, {"size": "3"}, {"size": "256"}, {"size": "256"}]}}}, "dtype": {"type": "DT_FLOAT"}}}, {"name": "model_230/tf.math.add_400/Add/y", "op": "Const", "attr": {"value": {"tensor": {"dtype": "DT_FLOAT", "tensorShape": {"dim": [{"size": "256"}]}}}, "dtype": {"type": "DT_FLOAT"}}}, {"name": "model_230/tf.concat_83/concat/axis", "op": "Const", "attr": {"value": {"tensor": {"dtype": "DT_INT32", "tensorShape": {}}}, "dtype": {"type": "DT_INT32"}}}, {"name": "model_230/tf.nn.convolution_1038/convolution/filter", "op": "Const", "attr": {"value": {"tensor": {"dtype": "DT_FLOAT", "tensorShape": {"dim": [{"size": "1"}, {"size": "1"}, {"size": "768"}, {"size": "512"}]}}}, "dtype": {"type": "DT_FLOAT"}}}, {"name": "model_230/tf.math.add_409/Add/y", "op": "Const", "attr": {"value": {"tensor": {"dtype": "DT_FLOAT", "tensorShape": {"dim": [{"size": "512"}]}}}, "dtype": {"type": "DT_FLOAT"}}}, {"name": "model_230/tf.strided_slice_74/ones_like/tensor", "op": "Const", "attr": {"value": {"tensor": {"dtype": "DT_INT64", "tensorShape": {"dim": [{"size": "4"}]}}}, "dtype": {"type": "DT_INT64"}}}, {"name": "model_230/tf.strided_slice_74/StridedSlice/end", "op": "Const", "attr": {"value": {"tensor": {"dtype": "DT_INT64", "tensorShape": {"dim": [{"size": "4"}]}}}, "dtype": {"type": "DT_INT64"}}}, {"name": "model_230/tf.strided_slice_74/ones_like", "op": "Const", "attr": {"value": {"tensor": {"dtype": "DT_INT64", "tensorShape": {"dim": [{"size": "4"}]}}}, "dtype": {"type": "DT_INT64"}}}, {"name": "model_230/tf.nn.convolution_1044/convolution/filter", "op": "Const", "attr": {"value": {"tensor": {"dtype": "DT_FLOAT", "tensorShape": {"dim": [{"size": "1"}, {"size": "1"}, {"size": "256"}, {"size": "128"}]}}}, "dtype": {"type": "DT_FLOAT"}}}, {"name": "model_230/tf.math.add_416/Add/y", "op": "Const", "attr": {"value": {"tensor": {"dtype": "DT_FLOAT", "tensorShape": {"dim": [{"size": "128"}]}}}, "dtype": {"type": "DT_FLOAT"}}}, {"name": "model_230/tf.concat_84/concat/axis", "op": "Const", "attr": {"value": {"tensor": {"dtype": "DT_INT32", "tensorShape": {}}}, "dtype": {"type": "DT_INT32"}}}, {"name": "model_230/tf.nn.convolution_1051/convolution/filter", "op": "Const", "attr": {"value": {"tensor": {"dtype": "DT_FLOAT", "tensorShape": {"dim": [{"size": "1"}, {"size": "1"}, {"size": "256"}, {"size": "256"}]}}}, "dtype": {"type": "DT_FLOAT"}}}, {"name": "model_230/tf.math.add_427/Add/y", "op": "Const", "attr": {"value": {"tensor": {"dtype": "DT_FLOAT", "tensorShape": {"dim": [{"size": "256"}]}}}, "dtype": {"type": "DT_FLOAT"}}}, {"name": "model_230/tf.concat_85/concat/axis", "op": "Const", "attr": {"value": {"tensor": {"dtype": "DT_INT32", "tensorShape": {}}}, "dtype": {"type": "DT_INT32"}}}, {"name": "model_230/tf.nn.convolution_1052/convolution/filter", "op": "Const", "attr": {"value": {"tensor": {"dtype": "DT_FLOAT", "tensorShape": {"dim": [{"size": "1"}, {"size": "1"}, {"size": "768"}, {"size": "512"}]}}}, "dtype": {"type": "DT_FLOAT"}}}, {"name": "model_230/tf.math.add_428/Add/y", "op": "Const", "attr": {"value": {"tensor": {"dtype": "DT_FLOAT", "tensorShape": {"dim": [{"size": "512"}]}}}, "dtype": {"type": "DT_FLOAT"}}}, {"name": "model_230/tf.compat.v1.pad_20/Pad/paddings", "op": "Const", "attr": {"value": {"tensor": {"dtype": "DT_INT32", "tensorShape": {"dim": [{"size": "4"}, {"size": "2"}]}}}, "dtype": {"type": "DT_INT32"}}}, {"name": "model_230/tf.nn.convolution_1053/convolution/filter", "op": "Const", "attr": {"value": {"tensor": {"dtype": "DT_FLOAT", "tensorShape": {"dim": [{"size": "3"}, {"size": "3"}, {"size": "512"}, {"size": "512"}]}}}, "dtype": {"type": "DT_FLOAT"}}}, {"name": "model_230/tf.math.add_429/Add/y", "op": "Const", "attr": {"value": {"tensor": {"dtype": "DT_FLOAT", "tensorShape": {"dim": [{"size": "512"}]}}}, "dtype": {"type": "DT_FLOAT"}}}, {"name": "model_230/tf.concat_86/concat/axis", "op": "Const", "attr": {"value": {"tensor": {"dtype": "DT_INT32", "tensorShape": {}}}, "dtype": {"type": "DT_INT32"}}}, {"name": "model_230/tf.nn.convolution_1059/convolution/filter", "op": "Const", "attr": {"value": {"tensor": {"dtype": "DT_FLOAT", "tensorShape": {"dim": [{"size": "1"}, {"size": "1"}, {"size": "1024"}, {"size": "512"}]}}}, "dtype": {"type": "DT_FLOAT"}}}, {"name": "model_230/tf.math.add_436/Add/y", "op": "Const", "attr": {"value": {"tensor": {"dtype": "DT_FLOAT", "tensorShape": {"dim": [{"size": "512"}]}}}, "dtype": {"type": "DT_FLOAT"}}}, {"name": "model_230/tf.strided_slice_76/ones_like/tensor", "op": "Const", "attr": {"value": {"tensor": {"dtype": "DT_INT64", "tensorShape": {"dim": [{"size": "4"}]}}}, "dtype": {"type": "DT_INT64"}}}, {"name": "model_230/tf.strided_slice_76/StridedSlice/end", "op": "Const", "attr": {"value": {"tensor": {"dtype": "DT_INT64", "tensorShape": {"dim": [{"size": "4"}]}}}, "dtype": {"type": "DT_INT64"}}}, {"name": "model_230/tf.strided_slice_76/ones_like", "op": "Const", "attr": {"value": {"tensor": {"dtype": "DT_INT64", "tensorShape": {"dim": [{"size": "4"}]}}}, "dtype": {"type": "DT_INT64"}}}, {"name": "model_230/tf.nn.convolution_1063/convolution/filter", "op": "Const", "attr": {"value": {"tensor": {"dtype": "DT_FLOAT", "tensorShape": {"dim": [{"size": "1"}, {"size": "1"}, {"size": "256"}, {"size": "128"}]}}}, "dtype": {"type": "DT_FLOAT"}}}, {"name": "model_230/tf.math.add_441/Add/y", "op": "Const", "attr": {"value": {"tensor": {"dtype": "DT_FLOAT", "tensorShape": {"dim": [{"size": "128"}]}}}, "dtype": {"type": "DT_FLOAT"}}}, {"name": "model_230/tf.concat_87/concat/axis", "op": "Const", "attr": {"value": {"tensor": {"dtype": "DT_INT32", "tensorShape": {}}}, "dtype": {"type": "DT_INT32"}}}, {"name": "model_230/tf.nn.convolution_1070/convolution/filter", "op": "Const", "attr": {"value": {"tensor": {"dtype": "DT_FLOAT", "tensorShape": {"dim": [{"size": "1"}, {"size": "1"}, {"size": "256"}, {"size": "256"}]}}}, "dtype": {"type": "DT_FLOAT"}}}, {"name": "model_230/tf.math.add_452/Add/y", "op": "Const", "attr": {"value": {"tensor": {"dtype": "DT_FLOAT", "tensorShape": {"dim": [{"size": "256"}]}}}, "dtype": {"type": "DT_FLOAT"}}}, {"name": "model_230/tf.concat_88/concat/axis", "op": "Const", "attr": {"value": {"tensor": {"dtype": "DT_INT32", "tensorShape": {}}}, "dtype": {"type": "DT_INT32"}}}, {"name": "model_230/tf.nn.convolution_1071/convolution/filter", "op": "Const", "attr": {"value": {"tensor": {"dtype": "DT_FLOAT", "tensorShape": {"dim": [{"size": "1"}, {"size": "1"}, {"size": "768"}, {"size": "512"}]}}}, "dtype": {"type": "DT_FLOAT"}}}, {"name": "model_230/tf.math.add_453/Add/y", "op": "Const", "attr": {"value": {"tensor": {"dtype": "DT_FLOAT", "tensorShape": {"dim": [{"size": "512"}]}}}, "dtype": {"type": "DT_FLOAT"}}}, {"name": "model_230/tf.nn.convolution_1073/convolution/filter", "op": "Const", "attr": {"value": {"tensor": {"dtype": "DT_FLOAT", "tensorShape": {"dim": [{"size": "3"}, {"size": "3"}, {"size": "512"}, {"size": "64"}]}}}, "dtype": {"type": "DT_FLOAT"}}}, {"name": "model_230/tf.math.add_456/Add/y", "op": "Const", "attr": {"value": {"tensor": {"dtype": "DT_FLOAT", "tensorShape": {"dim": [{"size": "64"}]}}}, "dtype": {"type": "DT_FLOAT"}}}, {"name": "model_230/tf.nn.convolution_1076/convolution/filter", "op": "Const", "attr": {"value": {"tensor": {"dtype": "DT_FLOAT", "tensorShape": {"dim": [{"size": "3"}, {"size": "3"}, {"size": "64"}, {"size": "64"}]}}}, "dtype": {"type": "DT_FLOAT"}}}, {"name": "model_230/tf.math.add_459/Add/y", "op": "Const", "attr": {"value": {"tensor": {"dtype": "DT_FLOAT", "tensorShape": {"dim": [{"size": "64"}]}}}, "dtype": {"type": "DT_FLOAT"}}}, {"name": "model_230/tf.nn.convolution_1078/convolution/filter", "op": "Const", "attr": {"value": {"tensor": {"dtype": "DT_FLOAT", "tensorShape": {"dim": [{"size": "1"}, {"size": "1"}, {"size": "64"}, {"size": "32"}]}}}, "dtype": {"type": "DT_FLOAT"}}}, {"name": "model_230/tf.math.add_462/Add/y", "op": "Const", "attr": {"value": {"tensor": {"dtype": "DT_FLOAT", "tensorShape": {"dim": [{"size": "32"}]}}}, "dtype": {"type": "DT_FLOAT"}}}, {"name": "model_230/tf.compat.v1.transpose_641/transpose/perm", "op": "Const", "attr": {"value": {"tensor": {"dtype": "DT_INT32", "tensorShape": {"dim": [{"size": "4"}]}}}, "dtype": {"type": "DT_INT32"}}}, {"name": "model_230/tf.reshape_138/Reshape/shape", "op": "Const", "attr": {"value": {"tensor": {"dtype": "DT_INT32", "tensorShape": {"dim": [{"size": "3"}]}}}, "dtype": {"type": "DT_INT32"}}}, {"name": "model_230/tf.concat_90/concat/axis", "op": "Const", "attr": {"value": {"tensor": {"dtype": "DT_INT32", "tensorShape": {}}}, "dtype": {"type": "DT_INT32"}}}, {"name": "model_230/output0/concat/axis", "op": "Const", "attr": {"value": {"tensor": {"dtype": "DT_INT32", "tensorShape": {}}}, "dtype": {"type": "DT_INT32"}}}, {"name": "model_230/tf.nn.conv2d_transpose/conv2d_transpose/input_sizes", "op": "Const", "attr": {"value": {"tensor": {"dtype": "DT_INT32", "tensorShape": {"dim": [{"size": "4"}]}}}, "dtype": {"type": "DT_INT32"}}}, {"name": "model_230/tf.nn.conv2d_transpose/conv2d_transpose/filter", "op": "Const", "attr": {"value": {"tensor": {"dtype": "DT_FLOAT", "tensorShape": {"dim": [{"size": "2"}, {"size": "2"}, {"size": "256"}, {"size": "256"}]}}}, "dtype": {"type": "DT_FLOAT"}}}, {"name": "model_230/tf.strided_slice_71/ones_like/tensor", "op": "Const", "attr": {"value": {"tensor": {"dtype": "DT_INT64", "tensorShape": {"dim": [{"size": "4"}]}}}, "dtype": {"type": "DT_INT64"}}}, {"name": "model_230/tf.strided_slice_71/StridedSlice/end", "op": "Const", "attr": {"value": {"tensor": {"dtype": "DT_INT64", "tensorShape": {"dim": [{"size": "4"}]}}}, "dtype": {"type": "DT_INT64"}}}, {"name": "model_230/tf.strided_slice_71/ones_like", "op": "Const", "attr": {"value": {"tensor": {"dtype": "DT_INT64", "tensorShape": {"dim": [{"size": "4"}]}}}, "dtype": {"type": "DT_INT64"}}}, {"name": "model_230/tf.nn.convolution_1023/convolution/filter", "op": "Const", "attr": {"value": {"tensor": {"dtype": "DT_FLOAT", "tensorShape": {"dim": [{"size": "1"}, {"size": "1"}, {"size": "128"}, {"size": "64"}]}}}, "dtype": {"type": "DT_FLOAT"}}}, {"name": "model_230/tf.math.add_388/Add/y", "op": "Const", "attr": {"value": {"tensor": {"dtype": "DT_FLOAT", "tensorShape": {"dim": [{"size": "64"}]}}}, "dtype": {"type": "DT_FLOAT"}}}, {"name": "model_230/tf.nn.convolution_1025/convolution/filter", "op": "Const", "attr": {"value": {"tensor": {"dtype": "DT_FLOAT", "tensorShape": {"dim": [{"size": "3"}, {"size": "3"}, {"size": "64"}, {"size": "64"}]}}}, "dtype": {"type": "DT_FLOAT"}}}, {"name": "model_230/tf.math.add_390/Add/y", "op": "Const", "attr": {"value": {"tensor": {"dtype": "DT_FLOAT", "tensorShape": {"dim": [{"size": "64"}]}}}, "dtype": {"type": "DT_FLOAT"}}}, {"name": "model_230/tf.nn.convolution_1026/convolution/filter", "op": "Const", "attr": {"value": {"tensor": {"dtype": "DT_FLOAT", "tensorShape": {"dim": [{"size": "3"}, {"size": "3"}, {"size": "64"}, {"size": "64"}]}}}, "dtype": {"type": "DT_FLOAT"}}}, {"name": "model_230/tf.math.add_391/Add/y", "op": "Const", "attr": {"value": {"tensor": {"dtype": "DT_FLOAT", "tensorShape": {"dim": [{"size": "64"}]}}}, "dtype": {"type": "DT_FLOAT"}}}, {"name": "model_230/tf.nn.convolution_1027/convolution/filter", "op": "Const", "attr": {"value": {"tensor": {"dtype": "DT_FLOAT", "tensorShape": {"dim": [{"size": "3"}, {"size": "3"}, {"size": "64"}, {"size": "64"}]}}}, "dtype": {"type": "DT_FLOAT"}}}, {"name": "model_230/tf.math.add_394/Add/y", "op": "Const", "attr": {"value": {"tensor": {"dtype": "DT_FLOAT", "tensorShape": {"dim": [{"size": "64"}]}}}, "dtype": {"type": "DT_FLOAT"}}}, {"name": "model_230/tf.nn.convolution_1028/convolution/filter", "op": "Const", "attr": {"value": {"tensor": {"dtype": "DT_FLOAT", "tensorShape": {"dim": [{"size": "3"}, {"size": "3"}, {"size": "64"}, {"size": "64"}]}}}, "dtype": {"type": "DT_FLOAT"}}}, {"name": "model_230/tf.math.add_395/Add/y", "op": "Const", "attr": {"value": {"tensor": {"dtype": "DT_FLOAT", "tensorShape": {"dim": [{"size": "64"}]}}}, "dtype": {"type": "DT_FLOAT"}}}, {"name": "model_230/tf.strided_slice_69/ones_like/tensor", "op": "Const", "attr": {"value": {"tensor": {"dtype": "DT_INT64", "tensorShape": {"dim": [{"size": "4"}]}}}, "dtype": {"type": "DT_INT64"}}}, {"name": "model_230/tf.strided_slice_69/StridedSlice/end", "op": "Const", "attr": {"value": {"tensor": {"dtype": "DT_INT64", "tensorShape": {"dim": [{"size": "4"}]}}}, "dtype": {"type": "DT_INT64"}}}, {"name": "model_230/tf.strided_slice_69/ones_like", "op": "Const", "attr": {"value": {"tensor": {"dtype": "DT_INT64", "tensorShape": {"dim": [{"size": "4"}]}}}, "dtype": {"type": "DT_INT64"}}}, {"name": "model_230/tf.nn.convolution_1014/convolution/filter", "op": "Const", "attr": {"value": {"tensor": {"dtype": "DT_FLOAT", "tensorShape": {"dim": [{"size": "1"}, {"size": "1"}, {"size": "256"}, {"size": "128"}]}}}, "dtype": {"type": "DT_FLOAT"}}}, {"name": "model_230/tf.math.add_375/Add/y", "op": "Const", "attr": {"value": {"tensor": {"dtype": "DT_FLOAT", "tensorShape": {"dim": [{"size": "128"}]}}}, "dtype": {"type": "DT_FLOAT"}}}, {"name": "model_230/tf.nn.convolution_1016/convolution/filter", "op": "Const", "attr": {"value": {"tensor": {"dtype": "DT_FLOAT", "tensorShape": {"dim": [{"size": "3"}, {"size": "3"}, {"size": "128"}, {"size": "128"}]}}}, "dtype": {"type": "DT_FLOAT"}}}, {"name": "model_230/tf.math.add_377/Add/y", "op": "Const", "attr": {"value": {"tensor": {"dtype": "DT_FLOAT", "tensorShape": {"dim": [{"size": "128"}]}}}, "dtype": {"type": "DT_FLOAT"}}}, {"name": "model_230/tf.nn.convolution_1017/convolution/filter", "op": "Const", "attr": {"value": {"tensor": {"dtype": "DT_FLOAT", "tensorShape": {"dim": [{"size": "3"}, {"size": "3"}, {"size": "128"}, {"size": "128"}]}}}, "dtype": {"type": "DT_FLOAT"}}}, {"name": "model_230/tf.math.add_378/Add/y", "op": "Const", "attr": {"value": {"tensor": {"dtype": "DT_FLOAT", "tensorShape": {"dim": [{"size": "128"}]}}}, "dtype": {"type": "DT_FLOAT"}}}, {"name": "model_230/tf.nn.convolution_1018/convolution/filter", "op": "Const", "attr": {"value": {"tensor": {"dtype": "DT_FLOAT", "tensorShape": {"dim": [{"size": "3"}, {"size": "3"}, {"size": "128"}, {"size": "128"}]}}}, "dtype": {"type": "DT_FLOAT"}}}, {"name": "model_230/tf.math.add_381/Add/y", "op": "Const", "attr": {"value": {"tensor": {"dtype": "DT_FLOAT", "tensorShape": {"dim": [{"size": "128"}]}}}, "dtype": {"type": "DT_FLOAT"}}}, {"name": "model_230/tf.nn.convolution_1019/convolution/filter", "op": "Const", "attr": {"value": {"tensor": {"dtype": "DT_FLOAT", "tensorShape": {"dim": [{"size": "3"}, {"size": "3"}, {"size": "128"}, {"size": "128"}]}}}, "dtype": {"type": "DT_FLOAT"}}}, {"name": "model_230/tf.math.add_382/Add/y", "op": "Const", "attr": {"value": {"tensor": {"dtype": "DT_FLOAT", "tensorShape": {"dim": [{"size": "128"}]}}}, "dtype": {"type": "DT_FLOAT"}}}, {"name": "model_230/tf.strided_slice_64/StridedSlice/begin", "op": "Const", "attr": {"value": {"tensor": {"dtype": "DT_INT32", "tensorShape": {"dim": [{"size": "4"}]}}}, "dtype": {"type": "DT_INT32"}}}, {"name": "model_230/tf.strided_slice_64/StridedSlice/end", "op": "Const", "attr": {"value": {"tensor": {"dtype": "DT_INT32", "tensorShape": {"dim": [{"size": "4"}]}}}, "dtype": {"type": "DT_INT32"}}}, {"name": "model_230/tf.strided_slice_64/ones_like", "op": "Const", "attr": {"value": {"tensor": {"dtype": "DT_INT32", "tensorShape": {"dim": [{"size": "4"}]}}}, "dtype": {"type": "DT_INT32"}}}, {"name": "model_230/tf.math.add_370/Add/y", "op": "Const", "attr": {"value": {"tensor": {"dtype": "DT_FLOAT", "tensorShape": {"dim": [{"size": "256"}]}}}, "dtype": {"type": "DT_FLOAT"}}}, {"name": "model_230/tf.math.add_363/Add/y", "op": "Const", "attr": {"value": {"tensor": {"dtype": "DT_FLOAT", "tensorShape": {"dim": [{"size": "256"}]}}}, "dtype": {"type": "DT_FLOAT"}}}, {"name": "model_230/tf.strided_slice_66/StridedSlice/begin", "op": "Const", "attr": {"value": {"tensor": {"dtype": "DT_INT32", "tensorShape": {"dim": [{"size": "4"}]}}}, "dtype": {"type": "DT_INT32"}}}, {"name": "model_230/tf.strided_slice_66/StridedSlice/end", "op": "Const", "attr": {"value": {"tensor": {"dtype": "DT_INT32", "tensorShape": {"dim": [{"size": "4"}]}}}, "dtype": {"type": "DT_INT32"}}}, {"name": "model_230/tf.strided_slice_66/ones_like", "op": "Const", "attr": {"value": {"tensor": {"dtype": "DT_INT32", "tensorShape": {"dim": [{"size": "4"}]}}}, "dtype": {"type": "DT_INT32"}}}, {"name": "model_230/tf.strided_slice_67/StridedSlice/begin", "op": "Const", "attr": {"value": {"tensor": {"dtype": "DT_INT32", "tensorShape": {"dim": [{"size": "4"}]}}}, "dtype": {"type": "DT_INT32"}}}, {"name": "model_230/tf.strided_slice_67/StridedSlice/end", "op": "Const", "attr": {"value": {"tensor": {"dtype": "DT_INT32", "tensorShape": {"dim": [{"size": "4"}]}}}, "dtype": {"type": "DT_INT32"}}}, {"name": "model_230/tf.strided_slice_67/ones_like", "op": "Const", "attr": {"value": {"tensor": {"dtype": "DT_INT32", "tensorShape": {"dim": [{"size": "4"}]}}}, "dtype": {"type": "DT_INT32"}}}, {"name": "model_230/tf.math.multiply_1000/Mul/y", "op": "Const", "attr": {"value": {"tensor": {"dtype": "DT_FLOAT", "tensorShape": {}}}, "dtype": {"type": "DT_FLOAT"}}}, {"name": "model_230/tf.reshape_114/Reshape/shape", "op": "Const", "attr": {"value": {"tensor": {"dtype": "DT_INT32", "tensorShape": {"dim": [{"size": "4"}]}}}, "dtype": {"type": "DT_INT32"}}}, {"name": "model_230/tf.compat.v1.transpose_527/transpose/perm", "op": "Const", "attr": {"value": {"tensor": {"dtype": "DT_INT32", "tensorShape": {"dim": [{"size": "4"}]}}}, "dtype": {"type": "DT_INT32"}}}, {"name": "model_230/tf.nn.convolution_753/convolution/filter", "op": "Const", "attr": {"value": {"tensor": {"dtype": "DT_FLOAT", "tensorShape": {"dim": [{"size": "3"}, {"size": "3"}, {"size": "1"}, {"size": "1"}]}}}, "dtype": {"type": "DT_FLOAT"}}}, {"name": "model_230/tf.nn.convolution_754/convolution/filter", "op": "Const", "attr": {"value": {"tensor": {"dtype": "DT_FLOAT", "tensorShape": {"dim": [{"size": "3"}, {"size": "3"}, {"size": "1"}, {"size": "1"}]}}}, "dtype": {"type": "DT_FLOAT"}}}, {"name": "model_230/tf.nn.convolution_755/convolution/filter", "op": "Const", "attr": {"value": {"tensor": {"dtype": "DT_FLOAT", "tensorShape": {"dim": [{"size": "3"}, {"size": "3"}, {"size": "1"}, {"size": "1"}]}}}, "dtype": {"type": "DT_FLOAT"}}}, {"name": "model_230/tf.nn.convolution_756/convolution/filter", "op": "Const", "attr": {"value": {"tensor": {"dtype": "DT_FLOAT", "tensorShape": {"dim": [{"size": "3"}, {"size": "3"}, {"size": "1"}, {"size": "1"}]}}}, "dtype": {"type": "DT_FLOAT"}}}, {"name": "model_230/tf.nn.convolution_757/convolution/filter", "op": "Const", "attr": {"value": {"tensor": {"dtype": "DT_FLOAT", "tensorShape": {"dim": [{"size": "3"}, {"size": "3"}, {"size": "1"}, {"size": "1"}]}}}, "dtype": {"type": "DT_FLOAT"}}}, {"name": "model_230/tf.nn.convolution_758/convolution/filter", "op": "Const", "attr": {"value": {"tensor": {"dtype": "DT_FLOAT", "tensorShape": {"dim": [{"size": "3"}, {"size": "3"}, {"size": "1"}, {"size": "1"}]}}}, "dtype": {"type": "DT_FLOAT"}}}, {"name": "model_230/tf.nn.convolution_759/convolution/filter", "op": "Const", "attr": {"value": {"tensor": {"dtype": "DT_FLOAT", "tensorShape": {"dim": [{"size": "3"}, {"size": "3"}, {"size": "1"}, {"size": "1"}]}}}, "dtype": {"type": "DT_FLOAT"}}}, {"name": "model_230/tf.nn.convolution_760/convolution/filter", "op": "Const", "attr": {"value": {"tensor": {"dtype": "DT_FLOAT", "tensorShape": {"dim": [{"size": "3"}, {"size": "3"}, {"size": "1"}, {"size": "1"}]}}}, "dtype": {"type": "DT_FLOAT"}}}, {"name": "model_230/tf.nn.convolution_761/convolution/filter", "op": "Const", "attr": {"value": {"tensor": {"dtype": "DT_FLOAT", "tensorShape": {"dim": [{"size": "3"}, {"size": "3"}, {"size": "1"}, {"size": "1"}]}}}, "dtype": {"type": "DT_FLOAT"}}}, {"name": "model_230/tf.nn.convolution_762/convolution/filter", "op": "Const", "attr": {"value": {"tensor": {"dtype": "DT_FLOAT", "tensorShape": {"dim": [{"size": "3"}, {"size": "3"}, {"size": "1"}, {"size": "1"}]}}}, "dtype": {"type": "DT_FLOAT"}}}, {"name": "model_230/tf.nn.convolution_763/convolution/filter", "op": "Const", "attr": {"value": {"tensor": {"dtype": "DT_FLOAT", "tensorShape": {"dim": [{"size": "3"}, {"size": "3"}, {"size": "1"}, {"size": "1"}]}}}, "dtype": {"type": "DT_FLOAT"}}}, {"name": "model_230/tf.nn.convolution_764/convolution/filter", "op": "Const", "attr": {"value": {"tensor": {"dtype": "DT_FLOAT", "tensorShape": {"dim": [{"size": "3"}, {"size": "3"}, {"size": "1"}, {"size": "1"}]}}}, "dtype": {"type": "DT_FLOAT"}}}, {"name": "model_230/tf.nn.convolution_765/convolution/filter", "op": "Const", "attr": {"value": {"tensor": {"dtype": "DT_FLOAT", "tensorShape": {"dim": [{"size": "3"}, {"size": "3"}, {"size": "1"}, {"size": "1"}]}}}, "dtype": {"type": "DT_FLOAT"}}}, {"name": "model_230/tf.nn.convolution_766/convolution/filter", "op": "Const", "attr": {"value": {"tensor": {"dtype": "DT_FLOAT", "tensorShape": {"dim": [{"size": "3"}, {"size": "3"}, {"size": "1"}, {"size": "1"}]}}}, "dtype": {"type": "DT_FLOAT"}}}, {"name": "model_230/tf.nn.convolution_767/convolution/filter", "op": "Const", "attr": {"value": {"tensor": {"dtype": "DT_FLOAT", "tensorShape": {"dim": [{"size": "3"}, {"size": "3"}, {"size": "1"}, {"size": "1"}]}}}, "dtype": {"type": "DT_FLOAT"}}}, {"name": "model_230/tf.nn.convolution_768/convolution/filter", "op": "Const", "attr": {"value": {"tensor": {"dtype": "DT_FLOAT", "tensorShape": {"dim": [{"size": "3"}, {"size": "3"}, {"size": "1"}, {"size": "1"}]}}}, "dtype": {"type": "DT_FLOAT"}}}, {"name": "model_230/tf.nn.convolution_769/convolution/filter", "op": "Const", "attr": {"value": {"tensor": {"dtype": "DT_FLOAT", "tensorShape": {"dim": [{"size": "3"}, {"size": "3"}, {"size": "1"}, {"size": "1"}]}}}, "dtype": {"type": "DT_FLOAT"}}}, {"name": "model_230/tf.nn.convolution_770/convolution/filter", "op": "Const", "attr": {"value": {"tensor": {"dtype": "DT_FLOAT", "tensorShape": {"dim": [{"size": "3"}, {"size": "3"}, {"size": "1"}, {"size": "1"}]}}}, "dtype": {"type": "DT_FLOAT"}}}, {"name": "model_230/tf.nn.convolution_771/convolution/filter", "op": "Const", "attr": {"value": {"tensor": {"dtype": "DT_FLOAT", "tensorShape": {"dim": [{"size": "3"}, {"size": "3"}, {"size": "1"}, {"size": "1"}]}}}, "dtype": {"type": "DT_FLOAT"}}}, {"name": "model_230/tf.nn.convolution_772/convolution/filter", "op": "Const", "attr": {"value": {"tensor": {"dtype": "DT_FLOAT", "tensorShape": {"dim": [{"size": "3"}, {"size": "3"}, {"size": "1"}, {"size": "1"}]}}}, "dtype": {"type": "DT_FLOAT"}}}, {"name": "model_230/tf.nn.convolution_773/convolution/filter", "op": "Const", "attr": {"value": {"tensor": {"dtype": "DT_FLOAT", "tensorShape": {"dim": [{"size": "3"}, {"size": "3"}, {"size": "1"}, {"size": "1"}]}}}, "dtype": {"type": "DT_FLOAT"}}}, {"name": "model_230/tf.nn.convolution_774/convolution/filter", "op": "Const", "attr": {"value": {"tensor": {"dtype": "DT_FLOAT", "tensorShape": {"dim": [{"size": "3"}, {"size": "3"}, {"size": "1"}, {"size": "1"}]}}}, "dtype": {"type": "DT_FLOAT"}}}, {"name": "model_230/tf.nn.convolution_775/convolution/filter", "op": "Const", "attr": {"value": {"tensor": {"dtype": "DT_FLOAT", "tensorShape": {"dim": [{"size": "3"}, {"size": "3"}, {"size": "1"}, {"size": "1"}]}}}, "dtype": {"type": "DT_FLOAT"}}}, {"name": "model_230/tf.nn.convolution_776/convolution/filter", "op": "Const", "attr": {"value": {"tensor": {"dtype": "DT_FLOAT", "tensorShape": {"dim": [{"size": "3"}, {"size": "3"}, {"size": "1"}, {"size": "1"}]}}}, "dtype": {"type": "DT_FLOAT"}}}, {"name": "model_230/tf.nn.convolution_777/convolution/filter", "op": "Const", "attr": {"value": {"tensor": {"dtype": "DT_FLOAT", "tensorShape": {"dim": [{"size": "3"}, {"size": "3"}, {"size": "1"}, {"size": "1"}]}}}, "dtype": {"type": "DT_FLOAT"}}}, {"name": "model_230/tf.nn.convolution_778/convolution/filter", "op": "Const", "attr": {"value": {"tensor": {"dtype": "DT_FLOAT", "tensorShape": {"dim": [{"size": "3"}, {"size": "3"}, {"size": "1"}, {"size": "1"}]}}}, "dtype": {"type": "DT_FLOAT"}}}, {"name": "model_230/tf.nn.convolution_779/convolution/filter", "op": "Const", "attr": {"value": {"tensor": {"dtype": "DT_FLOAT", "tensorShape": {"dim": [{"size": "3"}, {"size": "3"}, {"size": "1"}, {"size": "1"}]}}}, "dtype": {"type": "DT_FLOAT"}}}, {"name": "model_230/tf.nn.convolution_780/convolution/filter", "op": "Const", "attr": {"value": {"tensor": {"dtype": "DT_FLOAT", "tensorShape": {"dim": [{"size": "3"}, {"size": "3"}, {"size": "1"}, {"size": "1"}]}}}, "dtype": {"type": "DT_FLOAT"}}}, {"name": "model_230/tf.nn.convolution_781/convolution/filter", "op": "Const", "attr": {"value": {"tensor": {"dtype": "DT_FLOAT", "tensorShape": {"dim": [{"size": "3"}, {"size": "3"}, {"size": "1"}, {"size": "1"}]}}}, "dtype": {"type": "DT_FLOAT"}}}, {"name": "model_230/tf.nn.convolution_782/convolution/filter", "op": "Const", "attr": {"value": {"tensor": {"dtype": "DT_FLOAT", "tensorShape": {"dim": [{"size": "3"}, {"size": "3"}, {"size": "1"}, {"size": "1"}]}}}, "dtype": {"type": "DT_FLOAT"}}}, {"name": "model_230/tf.nn.convolution_783/convolution/filter", "op": "Const", "attr": {"value": {"tensor": {"dtype": "DT_FLOAT", "tensorShape": {"dim": [{"size": "3"}, {"size": "3"}, {"size": "1"}, {"size": "1"}]}}}, "dtype": {"type": "DT_FLOAT"}}}, {"name": "model_230/tf.nn.convolution_784/convolution/filter", "op": "Const", "attr": {"value": {"tensor": {"dtype": "DT_FLOAT", "tensorShape": {"dim": [{"size": "3"}, {"size": "3"}, {"size": "1"}, {"size": "1"}]}}}, "dtype": {"type": "DT_FLOAT"}}}, {"name": "model_230/tf.nn.convolution_785/convolution/filter", "op": "Const", "attr": {"value": {"tensor": {"dtype": "DT_FLOAT", "tensorShape": {"dim": [{"size": "3"}, {"size": "3"}, {"size": "1"}, {"size": "1"}]}}}, "dtype": {"type": "DT_FLOAT"}}}, {"name": "model_230/tf.nn.convolution_786/convolution/filter", "op": "Const", "attr": {"value": {"tensor": {"dtype": "DT_FLOAT", "tensorShape": {"dim": [{"size": "3"}, {"size": "3"}, {"size": "1"}, {"size": "1"}]}}}, "dtype": {"type": "DT_FLOAT"}}}, {"name": "model_230/tf.nn.convolution_787/convolution/filter", "op": "Const", "attr": {"value": {"tensor": {"dtype": "DT_FLOAT", "tensorShape": {"dim": [{"size": "3"}, {"size": "3"}, {"size": "1"}, {"size": "1"}]}}}, "dtype": {"type": "DT_FLOAT"}}}, {"name": "model_230/tf.nn.convolution_788/convolution/filter", "op": "Const", "attr": {"value": {"tensor": {"dtype": "DT_FLOAT", "tensorShape": {"dim": [{"size": "3"}, {"size": "3"}, {"size": "1"}, {"size": "1"}]}}}, "dtype": {"type": "DT_FLOAT"}}}, {"name": "model_230/tf.nn.convolution_789/convolution/filter", "op": "Const", "attr": {"value": {"tensor": {"dtype": "DT_FLOAT", "tensorShape": {"dim": [{"size": "3"}, {"size": "3"}, {"size": "1"}, {"size": "1"}]}}}, "dtype": {"type": "DT_FLOAT"}}}, {"name": "model_230/tf.nn.convolution_790/convolution/filter", "op": "Const", "attr": {"value": {"tensor": {"dtype": "DT_FLOAT", "tensorShape": {"dim": [{"size": "3"}, {"size": "3"}, {"size": "1"}, {"size": "1"}]}}}, "dtype": {"type": "DT_FLOAT"}}}, {"name": "model_230/tf.nn.convolution_791/convolution/filter", "op": "Const", "attr": {"value": {"tensor": {"dtype": "DT_FLOAT", "tensorShape": {"dim": [{"size": "3"}, {"size": "3"}, {"size": "1"}, {"size": "1"}]}}}, "dtype": {"type": "DT_FLOAT"}}}, {"name": "model_230/tf.nn.convolution_792/convolution/filter", "op": "Const", "attr": {"value": {"tensor": {"dtype": "DT_FLOAT", "tensorShape": {"dim": [{"size": "3"}, {"size": "3"}, {"size": "1"}, {"size": "1"}]}}}, "dtype": {"type": "DT_FLOAT"}}}, {"name": "model_230/tf.nn.convolution_793/convolution/filter", "op": "Const", "attr": {"value": {"tensor": {"dtype": "DT_FLOAT", "tensorShape": {"dim": [{"size": "3"}, {"size": "3"}, {"size": "1"}, {"size": "1"}]}}}, "dtype": {"type": "DT_FLOAT"}}}, {"name": "model_230/tf.nn.convolution_794/convolution/filter", "op": "Const", "attr": {"value": {"tensor": {"dtype": "DT_FLOAT", "tensorShape": {"dim": [{"size": "3"}, {"size": "3"}, {"size": "1"}, {"size": "1"}]}}}, "dtype": {"type": "DT_FLOAT"}}}, {"name": "model_230/tf.nn.convolution_795/convolution/filter", "op": "Const", "attr": {"value": {"tensor": {"dtype": "DT_FLOAT", "tensorShape": {"dim": [{"size": "3"}, {"size": "3"}, {"size": "1"}, {"size": "1"}]}}}, "dtype": {"type": "DT_FLOAT"}}}, {"name": "model_230/tf.nn.convolution_796/convolution/filter", "op": "Const", "attr": {"value": {"tensor": {"dtype": "DT_FLOAT", "tensorShape": {"dim": [{"size": "3"}, {"size": "3"}, {"size": "1"}, {"size": "1"}]}}}, "dtype": {"type": "DT_FLOAT"}}}, {"name": "model_230/tf.nn.convolution_797/convolution/filter", "op": "Const", "attr": {"value": {"tensor": {"dtype": "DT_FLOAT", "tensorShape": {"dim": [{"size": "3"}, {"size": "3"}, {"size": "1"}, {"size": "1"}]}}}, "dtype": {"type": "DT_FLOAT"}}}, {"name": "model_230/tf.nn.convolution_798/convolution/filter", "op": "Const", "attr": {"value": {"tensor": {"dtype": "DT_FLOAT", "tensorShape": {"dim": [{"size": "3"}, {"size": "3"}, {"size": "1"}, {"size": "1"}]}}}, "dtype": {"type": "DT_FLOAT"}}}, {"name": "model_230/tf.nn.convolution_799/convolution/filter", "op": "Const", "attr": {"value": {"tensor": {"dtype": "DT_FLOAT", "tensorShape": {"dim": [{"size": "3"}, {"size": "3"}, {"size": "1"}, {"size": "1"}]}}}, "dtype": {"type": "DT_FLOAT"}}}, {"name": "model_230/tf.nn.convolution_800/convolution/filter", "op": "Const", "attr": {"value": {"tensor": {"dtype": "DT_FLOAT", "tensorShape": {"dim": [{"size": "3"}, {"size": "3"}, {"size": "1"}, {"size": "1"}]}}}, "dtype": {"type": "DT_FLOAT"}}}, {"name": "model_230/tf.nn.convolution_801/convolution/filter", "op": "Const", "attr": {"value": {"tensor": {"dtype": "DT_FLOAT", "tensorShape": {"dim": [{"size": "3"}, {"size": "3"}, {"size": "1"}, {"size": "1"}]}}}, "dtype": {"type": "DT_FLOAT"}}}, {"name": "model_230/tf.nn.convolution_802/convolution/filter", "op": "Const", "attr": {"value": {"tensor": {"dtype": "DT_FLOAT", "tensorShape": {"dim": [{"size": "3"}, {"size": "3"}, {"size": "1"}, {"size": "1"}]}}}, "dtype": {"type": "DT_FLOAT"}}}, {"name": "model_230/tf.nn.convolution_803/convolution/filter", "op": "Const", "attr": {"value": {"tensor": {"dtype": "DT_FLOAT", "tensorShape": {"dim": [{"size": "3"}, {"size": "3"}, {"size": "1"}, {"size": "1"}]}}}, "dtype": {"type": "DT_FLOAT"}}}, {"name": "model_230/tf.nn.convolution_804/convolution/filter", "op": "Const", "attr": {"value": {"tensor": {"dtype": "DT_FLOAT", "tensorShape": {"dim": [{"size": "3"}, {"size": "3"}, {"size": "1"}, {"size": "1"}]}}}, "dtype": {"type": "DT_FLOAT"}}}, {"name": "model_230/tf.nn.convolution_805/convolution/filter", "op": "Const", "attr": {"value": {"tensor": {"dtype": "DT_FLOAT", "tensorShape": {"dim": [{"size": "3"}, {"size": "3"}, {"size": "1"}, {"size": "1"}]}}}, "dtype": {"type": "DT_FLOAT"}}}, {"name": "model_230/tf.nn.convolution_806/convolution/filter", "op": "Const", "attr": {"value": {"tensor": {"dtype": "DT_FLOAT", "tensorShape": {"dim": [{"size": "3"}, {"size": "3"}, {"size": "1"}, {"size": "1"}]}}}, "dtype": {"type": "DT_FLOAT"}}}, {"name": "model_230/tf.nn.convolution_807/convolution/filter", "op": "Const", "attr": {"value": {"tensor": {"dtype": "DT_FLOAT", "tensorShape": {"dim": [{"size": "3"}, {"size": "3"}, {"size": "1"}, {"size": "1"}]}}}, "dtype": {"type": "DT_FLOAT"}}}, {"name": "model_230/tf.nn.convolution_808/convolution/filter", "op": "Const", "attr": {"value": {"tensor": {"dtype": "DT_FLOAT", "tensorShape": {"dim": [{"size": "3"}, {"size": "3"}, {"size": "1"}, {"size": "1"}]}}}, "dtype": {"type": "DT_FLOAT"}}}, {"name": "model_230/tf.nn.convolution_809/convolution/filter", "op": "Const", "attr": {"value": {"tensor": {"dtype": "DT_FLOAT", "tensorShape": {"dim": [{"size": "3"}, {"size": "3"}, {"size": "1"}, {"size": "1"}]}}}, "dtype": {"type": "DT_FLOAT"}}}, {"name": "model_230/tf.nn.convolution_810/convolution/filter", "op": "Const", "attr": {"value": {"tensor": {"dtype": "DT_FLOAT", "tensorShape": {"dim": [{"size": "3"}, {"size": "3"}, {"size": "1"}, {"size": "1"}]}}}, "dtype": {"type": "DT_FLOAT"}}}, {"name": "model_230/tf.nn.convolution_811/convolution/filter", "op": "Const", "attr": {"value": {"tensor": {"dtype": "DT_FLOAT", "tensorShape": {"dim": [{"size": "3"}, {"size": "3"}, {"size": "1"}, {"size": "1"}]}}}, "dtype": {"type": "DT_FLOAT"}}}, {"name": "model_230/tf.nn.convolution_812/convolution/filter", "op": "Const", "attr": {"value": {"tensor": {"dtype": "DT_FLOAT", "tensorShape": {"dim": [{"size": "3"}, {"size": "3"}, {"size": "1"}, {"size": "1"}]}}}, "dtype": {"type": "DT_FLOAT"}}}, {"name": "model_230/tf.nn.convolution_813/convolution/filter", "op": "Const", "attr": {"value": {"tensor": {"dtype": "DT_FLOAT", "tensorShape": {"dim": [{"size": "3"}, {"size": "3"}, {"size": "1"}, {"size": "1"}]}}}, "dtype": {"type": "DT_FLOAT"}}}, {"name": "model_230/tf.nn.convolution_814/convolution/filter", "op": "Const", "attr": {"value": {"tensor": {"dtype": "DT_FLOAT", "tensorShape": {"dim": [{"size": "3"}, {"size": "3"}, {"size": "1"}, {"size": "1"}]}}}, "dtype": {"type": "DT_FLOAT"}}}, {"name": "model_230/tf.nn.convolution_815/convolution/filter", "op": "Const", "attr": {"value": {"tensor": {"dtype": "DT_FLOAT", "tensorShape": {"dim": [{"size": "3"}, {"size": "3"}, {"size": "1"}, {"size": "1"}]}}}, "dtype": {"type": "DT_FLOAT"}}}, {"name": "model_230/tf.nn.convolution_816/convolution/filter", "op": "Const", "attr": {"value": {"tensor": {"dtype": "DT_FLOAT", "tensorShape": {"dim": [{"size": "3"}, {"size": "3"}, {"size": "1"}, {"size": "1"}]}}}, "dtype": {"type": "DT_FLOAT"}}}, {"name": "model_230/tf.nn.convolution_817/convolution/filter", "op": "Const", "attr": {"value": {"tensor": {"dtype": "DT_FLOAT", "tensorShape": {"dim": [{"size": "3"}, {"size": "3"}, {"size": "1"}, {"size": "1"}]}}}, "dtype": {"type": "DT_FLOAT"}}}, {"name": "model_230/tf.nn.convolution_818/convolution/filter", "op": "Const", "attr": {"value": {"tensor": {"dtype": "DT_FLOAT", "tensorShape": {"dim": [{"size": "3"}, {"size": "3"}, {"size": "1"}, {"size": "1"}]}}}, "dtype": {"type": "DT_FLOAT"}}}, {"name": "model_230/tf.nn.convolution_819/convolution/filter", "op": "Const", "attr": {"value": {"tensor": {"dtype": "DT_FLOAT", "tensorShape": {"dim": [{"size": "3"}, {"size": "3"}, {"size": "1"}, {"size": "1"}]}}}, "dtype": {"type": "DT_FLOAT"}}}, {"name": "model_230/tf.nn.convolution_820/convolution/filter", "op": "Const", "attr": {"value": {"tensor": {"dtype": "DT_FLOAT", "tensorShape": {"dim": [{"size": "3"}, {"size": "3"}, {"size": "1"}, {"size": "1"}]}}}, "dtype": {"type": "DT_FLOAT"}}}, {"name": "model_230/tf.nn.convolution_821/convolution/filter", "op": "Const", "attr": {"value": {"tensor": {"dtype": "DT_FLOAT", "tensorShape": {"dim": [{"size": "3"}, {"size": "3"}, {"size": "1"}, {"size": "1"}]}}}, "dtype": {"type": "DT_FLOAT"}}}, {"name": "model_230/tf.nn.convolution_822/convolution/filter", "op": "Const", "attr": {"value": {"tensor": {"dtype": "DT_FLOAT", "tensorShape": {"dim": [{"size": "3"}, {"size": "3"}, {"size": "1"}, {"size": "1"}]}}}, "dtype": {"type": "DT_FLOAT"}}}, {"name": "model_230/tf.nn.convolution_823/convolution/filter", "op": "Const", "attr": {"value": {"tensor": {"dtype": "DT_FLOAT", "tensorShape": {"dim": [{"size": "3"}, {"size": "3"}, {"size": "1"}, {"size": "1"}]}}}, "dtype": {"type": "DT_FLOAT"}}}, {"name": "model_230/tf.nn.convolution_824/convolution/filter", "op": "Const", "attr": {"value": {"tensor": {"dtype": "DT_FLOAT", "tensorShape": {"dim": [{"size": "3"}, {"size": "3"}, {"size": "1"}, {"size": "1"}]}}}, "dtype": {"type": "DT_FLOAT"}}}, {"name": "model_230/tf.nn.convolution_825/convolution/filter", "op": "Const", "attr": {"value": {"tensor": {"dtype": "DT_FLOAT", "tensorShape": {"dim": [{"size": "3"}, {"size": "3"}, {"size": "1"}, {"size": "1"}]}}}, "dtype": {"type": "DT_FLOAT"}}}, {"name": "model_230/tf.nn.convolution_826/convolution/filter", "op": "Const", "attr": {"value": {"tensor": {"dtype": "DT_FLOAT", "tensorShape": {"dim": [{"size": "3"}, {"size": "3"}, {"size": "1"}, {"size": "1"}]}}}, "dtype": {"type": "DT_FLOAT"}}}, {"name": "model_230/tf.nn.convolution_827/convolution/filter", "op": "Const", "attr": {"value": {"tensor": {"dtype": "DT_FLOAT", "tensorShape": {"dim": [{"size": "3"}, {"size": "3"}, {"size": "1"}, {"size": "1"}]}}}, "dtype": {"type": "DT_FLOAT"}}}, {"name": "model_230/tf.nn.convolution_828/convolution/filter", "op": "Const", "attr": {"value": {"tensor": {"dtype": "DT_FLOAT", "tensorShape": {"dim": [{"size": "3"}, {"size": "3"}, {"size": "1"}, {"size": "1"}]}}}, "dtype": {"type": "DT_FLOAT"}}}, {"name": "model_230/tf.nn.convolution_829/convolution/filter", "op": "Const", "attr": {"value": {"tensor": {"dtype": "DT_FLOAT", "tensorShape": {"dim": [{"size": "3"}, {"size": "3"}, {"size": "1"}, {"size": "1"}]}}}, "dtype": {"type": "DT_FLOAT"}}}, {"name": "model_230/tf.nn.convolution_830/convolution/filter", "op": "Const", "attr": {"value": {"tensor": {"dtype": "DT_FLOAT", "tensorShape": {"dim": [{"size": "3"}, {"size": "3"}, {"size": "1"}, {"size": "1"}]}}}, "dtype": {"type": "DT_FLOAT"}}}, {"name": "model_230/tf.nn.convolution_831/convolution/filter", "op": "Const", "attr": {"value": {"tensor": {"dtype": "DT_FLOAT", "tensorShape": {"dim": [{"size": "3"}, {"size": "3"}, {"size": "1"}, {"size": "1"}]}}}, "dtype": {"type": "DT_FLOAT"}}}, {"name": "model_230/tf.nn.convolution_832/convolution/filter", "op": "Const", "attr": {"value": {"tensor": {"dtype": "DT_FLOAT", "tensorShape": {"dim": [{"size": "3"}, {"size": "3"}, {"size": "1"}, {"size": "1"}]}}}, "dtype": {"type": "DT_FLOAT"}}}, {"name": "model_230/tf.nn.convolution_833/convolution/filter", "op": "Const", "attr": {"value": {"tensor": {"dtype": "DT_FLOAT", "tensorShape": {"dim": [{"size": "3"}, {"size": "3"}, {"size": "1"}, {"size": "1"}]}}}, "dtype": {"type": "DT_FLOAT"}}}, {"name": "model_230/tf.nn.convolution_834/convolution/filter", "op": "Const", "attr": {"value": {"tensor": {"dtype": "DT_FLOAT", "tensorShape": {"dim": [{"size": "3"}, {"size": "3"}, {"size": "1"}, {"size": "1"}]}}}, "dtype": {"type": "DT_FLOAT"}}}, {"name": "model_230/tf.nn.convolution_835/convolution/filter", "op": "Const", "attr": {"value": {"tensor": {"dtype": "DT_FLOAT", "tensorShape": {"dim": [{"size": "3"}, {"size": "3"}, {"size": "1"}, {"size": "1"}]}}}, "dtype": {"type": "DT_FLOAT"}}}, {"name": "model_230/tf.nn.convolution_836/convolution/filter", "op": "Const", "attr": {"value": {"tensor": {"dtype": "DT_FLOAT", "tensorShape": {"dim": [{"size": "3"}, {"size": "3"}, {"size": "1"}, {"size": "1"}]}}}, "dtype": {"type": "DT_FLOAT"}}}, {"name": "model_230/tf.nn.convolution_837/convolution/filter", "op": "Const", "attr": {"value": {"tensor": {"dtype": "DT_FLOAT", "tensorShape": {"dim": [{"size": "3"}, {"size": "3"}, {"size": "1"}, {"size": "1"}]}}}, "dtype": {"type": "DT_FLOAT"}}}, {"name": "model_230/tf.nn.convolution_838/convolution/filter", "op": "Const", "attr": {"value": {"tensor": {"dtype": "DT_FLOAT", "tensorShape": {"dim": [{"size": "3"}, {"size": "3"}, {"size": "1"}, {"size": "1"}]}}}, "dtype": {"type": "DT_FLOAT"}}}, {"name": "model_230/tf.nn.convolution_839/convolution/filter", "op": "Const", "attr": {"value": {"tensor": {"dtype": "DT_FLOAT", "tensorShape": {"dim": [{"size": "3"}, {"size": "3"}, {"size": "1"}, {"size": "1"}]}}}, "dtype": {"type": "DT_FLOAT"}}}, {"name": "model_230/tf.nn.convolution_840/convolution/filter", "op": "Const", "attr": {"value": {"tensor": {"dtype": "DT_FLOAT", "tensorShape": {"dim": [{"size": "3"}, {"size": "3"}, {"size": "1"}, {"size": "1"}]}}}, "dtype": {"type": "DT_FLOAT"}}}, {"name": "model_230/tf.nn.convolution_841/convolution/filter", "op": "Const", "attr": {"value": {"tensor": {"dtype": "DT_FLOAT", "tensorShape": {"dim": [{"size": "3"}, {"size": "3"}, {"size": "1"}, {"size": "1"}]}}}, "dtype": {"type": "DT_FLOAT"}}}, {"name": "model_230/tf.nn.convolution_842/convolution/filter", "op": "Const", "attr": {"value": {"tensor": {"dtype": "DT_FLOAT", "tensorShape": {"dim": [{"size": "3"}, {"size": "3"}, {"size": "1"}, {"size": "1"}]}}}, "dtype": {"type": "DT_FLOAT"}}}, {"name": "model_230/tf.nn.convolution_843/convolution/filter", "op": "Const", "attr": {"value": {"tensor": {"dtype": "DT_FLOAT", "tensorShape": {"dim": [{"size": "3"}, {"size": "3"}, {"size": "1"}, {"size": "1"}]}}}, "dtype": {"type": "DT_FLOAT"}}}, {"name": "model_230/tf.nn.convolution_844/convolution/filter", "op": "Const", "attr": {"value": {"tensor": {"dtype": "DT_FLOAT", "tensorShape": {"dim": [{"size": "3"}, {"size": "3"}, {"size": "1"}, {"size": "1"}]}}}, "dtype": {"type": "DT_FLOAT"}}}, {"name": "model_230/tf.nn.convolution_845/convolution/filter", "op": "Const", "attr": {"value": {"tensor": {"dtype": "DT_FLOAT", "tensorShape": {"dim": [{"size": "3"}, {"size": "3"}, {"size": "1"}, {"size": "1"}]}}}, "dtype": {"type": "DT_FLOAT"}}}, {"name": "model_230/tf.nn.convolution_846/convolution/filter", "op": "Const", "attr": {"value": {"tensor": {"dtype": "DT_FLOAT", "tensorShape": {"dim": [{"size": "3"}, {"size": "3"}, {"size": "1"}, {"size": "1"}]}}}, "dtype": {"type": "DT_FLOAT"}}}, {"name": "model_230/tf.nn.convolution_847/convolution/filter", "op": "Const", "attr": {"value": {"tensor": {"dtype": "DT_FLOAT", "tensorShape": {"dim": [{"size": "3"}, {"size": "3"}, {"size": "1"}, {"size": "1"}]}}}, "dtype": {"type": "DT_FLOAT"}}}, {"name": "model_230/tf.nn.convolution_848/convolution/filter", "op": "Const", "attr": {"value": {"tensor": {"dtype": "DT_FLOAT", "tensorShape": {"dim": [{"size": "3"}, {"size": "3"}, {"size": "1"}, {"size": "1"}]}}}, "dtype": {"type": "DT_FLOAT"}}}, {"name": "model_230/tf.nn.convolution_849/convolution/filter", "op": "Const", "attr": {"value": {"tensor": {"dtype": "DT_FLOAT", "tensorShape": {"dim": [{"size": "3"}, {"size": "3"}, {"size": "1"}, {"size": "1"}]}}}, "dtype": {"type": "DT_FLOAT"}}}, {"name": "model_230/tf.nn.convolution_850/convolution/filter", "op": "Const", "attr": {"value": {"tensor": {"dtype": "DT_FLOAT", "tensorShape": {"dim": [{"size": "3"}, {"size": "3"}, {"size": "1"}, {"size": "1"}]}}}, "dtype": {"type": "DT_FLOAT"}}}, {"name": "model_230/tf.nn.convolution_851/convolution/filter", "op": "Const", "attr": {"value": {"tensor": {"dtype": "DT_FLOAT", "tensorShape": {"dim": [{"size": "3"}, {"size": "3"}, {"size": "1"}, {"size": "1"}]}}}, "dtype": {"type": "DT_FLOAT"}}}, {"name": "model_230/tf.nn.convolution_852/convolution/filter", "op": "Const", "attr": {"value": {"tensor": {"dtype": "DT_FLOAT", "tensorShape": {"dim": [{"size": "3"}, {"size": "3"}, {"size": "1"}, {"size": "1"}]}}}, "dtype": {"type": "DT_FLOAT"}}}, {"name": "model_230/tf.nn.convolution_853/convolution/filter", "op": "Const", "attr": {"value": {"tensor": {"dtype": "DT_FLOAT", "tensorShape": {"dim": [{"size": "3"}, {"size": "3"}, {"size": "1"}, {"size": "1"}]}}}, "dtype": {"type": "DT_FLOAT"}}}, {"name": "model_230/tf.nn.convolution_854/convolution/filter", "op": "Const", "attr": {"value": {"tensor": {"dtype": "DT_FLOAT", "tensorShape": {"dim": [{"size": "3"}, {"size": "3"}, {"size": "1"}, {"size": "1"}]}}}, "dtype": {"type": "DT_FLOAT"}}}, {"name": "model_230/tf.nn.convolution_855/convolution/filter", "op": "Const", "attr": {"value": {"tensor": {"dtype": "DT_FLOAT", "tensorShape": {"dim": [{"size": "3"}, {"size": "3"}, {"size": "1"}, {"size": "1"}]}}}, "dtype": {"type": "DT_FLOAT"}}}, {"name": "model_230/tf.nn.convolution_856/convolution/filter", "op": "Const", "attr": {"value": {"tensor": {"dtype": "DT_FLOAT", "tensorShape": {"dim": [{"size": "3"}, {"size": "3"}, {"size": "1"}, {"size": "1"}]}}}, "dtype": {"type": "DT_FLOAT"}}}, {"name": "model_230/tf.nn.convolution_857/convolution/filter", "op": "Const", "attr": {"value": {"tensor": {"dtype": "DT_FLOAT", "tensorShape": {"dim": [{"size": "3"}, {"size": "3"}, {"size": "1"}, {"size": "1"}]}}}, "dtype": {"type": "DT_FLOAT"}}}, {"name": "model_230/tf.nn.convolution_858/convolution/filter", "op": "Const", "attr": {"value": {"tensor": {"dtype": "DT_FLOAT", "tensorShape": {"dim": [{"size": "3"}, {"size": "3"}, {"size": "1"}, {"size": "1"}]}}}, "dtype": {"type": "DT_FLOAT"}}}, {"name": "model_230/tf.nn.convolution_859/convolution/filter", "op": "Const", "attr": {"value": {"tensor": {"dtype": "DT_FLOAT", "tensorShape": {"dim": [{"size": "3"}, {"size": "3"}, {"size": "1"}, {"size": "1"}]}}}, "dtype": {"type": "DT_FLOAT"}}}, {"name": "model_230/tf.nn.convolution_860/convolution/filter", "op": "Const", "attr": {"value": {"tensor": {"dtype": "DT_FLOAT", "tensorShape": {"dim": [{"size": "3"}, {"size": "3"}, {"size": "1"}, {"size": "1"}]}}}, "dtype": {"type": "DT_FLOAT"}}}, {"name": "model_230/tf.nn.convolution_861/convolution/filter", "op": "Const", "attr": {"value": {"tensor": {"dtype": "DT_FLOAT", "tensorShape": {"dim": [{"size": "3"}, {"size": "3"}, {"size": "1"}, {"size": "1"}]}}}, "dtype": {"type": "DT_FLOAT"}}}, {"name": "model_230/tf.nn.convolution_862/convolution/filter", "op": "Const", "attr": {"value": {"tensor": {"dtype": "DT_FLOAT", "tensorShape": {"dim": [{"size": "3"}, {"size": "3"}, {"size": "1"}, {"size": "1"}]}}}, "dtype": {"type": "DT_FLOAT"}}}, {"name": "model_230/tf.nn.convolution_863/convolution/filter", "op": "Const", "attr": {"value": {"tensor": {"dtype": "DT_FLOAT", "tensorShape": {"dim": [{"size": "3"}, {"size": "3"}, {"size": "1"}, {"size": "1"}]}}}, "dtype": {"type": "DT_FLOAT"}}}, {"name": "model_230/tf.nn.convolution_864/convolution/filter", "op": "Const", "attr": {"value": {"tensor": {"dtype": "DT_FLOAT", "tensorShape": {"dim": [{"size": "3"}, {"size": "3"}, {"size": "1"}, {"size": "1"}]}}}, "dtype": {"type": "DT_FLOAT"}}}, {"name": "model_230/tf.nn.convolution_865/convolution/filter", "op": "Const", "attr": {"value": {"tensor": {"dtype": "DT_FLOAT", "tensorShape": {"dim": [{"size": "3"}, {"size": "3"}, {"size": "1"}, {"size": "1"}]}}}, "dtype": {"type": "DT_FLOAT"}}}, {"name": "model_230/tf.nn.convolution_866/convolution/filter", "op": "Const", "attr": {"value": {"tensor": {"dtype": "DT_FLOAT", "tensorShape": {"dim": [{"size": "3"}, {"size": "3"}, {"size": "1"}, {"size": "1"}]}}}, "dtype": {"type": "DT_FLOAT"}}}, {"name": "model_230/tf.nn.convolution_867/convolution/filter", "op": "Const", "attr": {"value": {"tensor": {"dtype": "DT_FLOAT", "tensorShape": {"dim": [{"size": "3"}, {"size": "3"}, {"size": "1"}, {"size": "1"}]}}}, "dtype": {"type": "DT_FLOAT"}}}, {"name": "model_230/tf.nn.convolution_868/convolution/filter", "op": "Const", "attr": {"value": {"tensor": {"dtype": "DT_FLOAT", "tensorShape": {"dim": [{"size": "3"}, {"size": "3"}, {"size": "1"}, {"size": "1"}]}}}, "dtype": {"type": "DT_FLOAT"}}}, {"name": "model_230/tf.nn.convolution_869/convolution/filter", "op": "Const", "attr": {"value": {"tensor": {"dtype": "DT_FLOAT", "tensorShape": {"dim": [{"size": "3"}, {"size": "3"}, {"size": "1"}, {"size": "1"}]}}}, "dtype": {"type": "DT_FLOAT"}}}, {"name": "model_230/tf.nn.convolution_870/convolution/filter", "op": "Const", "attr": {"value": {"tensor": {"dtype": "DT_FLOAT", "tensorShape": {"dim": [{"size": "3"}, {"size": "3"}, {"size": "1"}, {"size": "1"}]}}}, "dtype": {"type": "DT_FLOAT"}}}, {"name": "model_230/tf.nn.convolution_871/convolution/filter", "op": "Const", "attr": {"value": {"tensor": {"dtype": "DT_FLOAT", "tensorShape": {"dim": [{"size": "3"}, {"size": "3"}, {"size": "1"}, {"size": "1"}]}}}, "dtype": {"type": "DT_FLOAT"}}}, {"name": "model_230/tf.nn.convolution_872/convolution/filter", "op": "Const", "attr": {"value": {"tensor": {"dtype": "DT_FLOAT", "tensorShape": {"dim": [{"size": "3"}, {"size": "3"}, {"size": "1"}, {"size": "1"}]}}}, "dtype": {"type": "DT_FLOAT"}}}, {"name": "model_230/tf.nn.convolution_873/convolution/filter", "op": "Const", "attr": {"value": {"tensor": {"dtype": "DT_FLOAT", "tensorShape": {"dim": [{"size": "3"}, {"size": "3"}, {"size": "1"}, {"size": "1"}]}}}, "dtype": {"type": "DT_FLOAT"}}}, {"name": "model_230/tf.nn.convolution_874/convolution/filter", "op": "Const", "attr": {"value": {"tensor": {"dtype": "DT_FLOAT", "tensorShape": {"dim": [{"size": "3"}, {"size": "3"}, {"size": "1"}, {"size": "1"}]}}}, "dtype": {"type": "DT_FLOAT"}}}, {"name": "model_230/tf.nn.convolution_875/convolution/filter", "op": "Const", "attr": {"value": {"tensor": {"dtype": "DT_FLOAT", "tensorShape": {"dim": [{"size": "3"}, {"size": "3"}, {"size": "1"}, {"size": "1"}]}}}, "dtype": {"type": "DT_FLOAT"}}}, {"name": "model_230/tf.nn.convolution_876/convolution/filter", "op": "Const", "attr": {"value": {"tensor": {"dtype": "DT_FLOAT", "tensorShape": {"dim": [{"size": "3"}, {"size": "3"}, {"size": "1"}, {"size": "1"}]}}}, "dtype": {"type": "DT_FLOAT"}}}, {"name": "model_230/tf.nn.convolution_877/convolution/filter", "op": "Const", "attr": {"value": {"tensor": {"dtype": "DT_FLOAT", "tensorShape": {"dim": [{"size": "3"}, {"size": "3"}, {"size": "1"}, {"size": "1"}]}}}, "dtype": {"type": "DT_FLOAT"}}}, {"name": "model_230/tf.nn.convolution_878/convolution/filter", "op": "Const", "attr": {"value": {"tensor": {"dtype": "DT_FLOAT", "tensorShape": {"dim": [{"size": "3"}, {"size": "3"}, {"size": "1"}, {"size": "1"}]}}}, "dtype": {"type": "DT_FLOAT"}}}, {"name": "model_230/tf.nn.convolution_879/convolution/filter", "op": "Const", "attr": {"value": {"tensor": {"dtype": "DT_FLOAT", "tensorShape": {"dim": [{"size": "3"}, {"size": "3"}, {"size": "1"}, {"size": "1"}]}}}, "dtype": {"type": "DT_FLOAT"}}}, {"name": "model_230/tf.nn.convolution_880/convolution/filter", "op": "Const", "attr": {"value": {"tensor": {"dtype": "DT_FLOAT", "tensorShape": {"dim": [{"size": "3"}, {"size": "3"}, {"size": "1"}, {"size": "1"}]}}}, "dtype": {"type": "DT_FLOAT"}}}, {"name": "model_230/tf.nn.convolution_881/convolution/filter", "op": "Const", "attr": {"value": {"tensor": {"dtype": "DT_FLOAT", "tensorShape": {"dim": [{"size": "3"}, {"size": "3"}, {"size": "1"}, {"size": "1"}]}}}, "dtype": {"type": "DT_FLOAT"}}}, {"name": "model_230/tf.nn.convolution_882/convolution/filter", "op": "Const", "attr": {"value": {"tensor": {"dtype": "DT_FLOAT", "tensorShape": {"dim": [{"size": "3"}, {"size": "3"}, {"size": "1"}, {"size": "1"}]}}}, "dtype": {"type": "DT_FLOAT"}}}, {"name": "model_230/tf.nn.convolution_883/convolution/filter", "op": "Const", "attr": {"value": {"tensor": {"dtype": "DT_FLOAT", "tensorShape": {"dim": [{"size": "3"}, {"size": "3"}, {"size": "1"}, {"size": "1"}]}}}, "dtype": {"type": "DT_FLOAT"}}}, {"name": "model_230/tf.nn.convolution_884/convolution/filter", "op": "Const", "attr": {"value": {"tensor": {"dtype": "DT_FLOAT", "tensorShape": {"dim": [{"size": "3"}, {"size": "3"}, {"size": "1"}, {"size": "1"}]}}}, "dtype": {"type": "DT_FLOAT"}}}, {"name": "model_230/tf.nn.convolution_885/convolution/filter", "op": "Const", "attr": {"value": {"tensor": {"dtype": "DT_FLOAT", "tensorShape": {"dim": [{"size": "3"}, {"size": "3"}, {"size": "1"}, {"size": "1"}]}}}, "dtype": {"type": "DT_FLOAT"}}}, {"name": "model_230/tf.nn.convolution_886/convolution/filter", "op": "Const", "attr": {"value": {"tensor": {"dtype": "DT_FLOAT", "tensorShape": {"dim": [{"size": "3"}, {"size": "3"}, {"size": "1"}, {"size": "1"}]}}}, "dtype": {"type": "DT_FLOAT"}}}, {"name": "model_230/tf.nn.convolution_887/convolution/filter", "op": "Const", "attr": {"value": {"tensor": {"dtype": "DT_FLOAT", "tensorShape": {"dim": [{"size": "3"}, {"size": "3"}, {"size": "1"}, {"size": "1"}]}}}, "dtype": {"type": "DT_FLOAT"}}}, {"name": "model_230/tf.nn.convolution_888/convolution/filter", "op": "Const", "attr": {"value": {"tensor": {"dtype": "DT_FLOAT", "tensorShape": {"dim": [{"size": "3"}, {"size": "3"}, {"size": "1"}, {"size": "1"}]}}}, "dtype": {"type": "DT_FLOAT"}}}, {"name": "model_230/tf.nn.convolution_889/convolution/filter", "op": "Const", "attr": {"value": {"tensor": {"dtype": "DT_FLOAT", "tensorShape": {"dim": [{"size": "3"}, {"size": "3"}, {"size": "1"}, {"size": "1"}]}}}, "dtype": {"type": "DT_FLOAT"}}}, {"name": "model_230/tf.nn.convolution_890/convolution/filter", "op": "Const", "attr": {"value": {"tensor": {"dtype": "DT_FLOAT", "tensorShape": {"dim": [{"size": "3"}, {"size": "3"}, {"size": "1"}, {"size": "1"}]}}}, "dtype": {"type": "DT_FLOAT"}}}, {"name": "model_230/tf.nn.convolution_891/convolution/filter", "op": "Const", "attr": {"value": {"tensor": {"dtype": "DT_FLOAT", "tensorShape": {"dim": [{"size": "3"}, {"size": "3"}, {"size": "1"}, {"size": "1"}]}}}, "dtype": {"type": "DT_FLOAT"}}}, {"name": "model_230/tf.nn.convolution_892/convolution/filter", "op": "Const", "attr": {"value": {"tensor": {"dtype": "DT_FLOAT", "tensorShape": {"dim": [{"size": "3"}, {"size": "3"}, {"size": "1"}, {"size": "1"}]}}}, "dtype": {"type": "DT_FLOAT"}}}, {"name": "model_230/tf.nn.convolution_893/convolution/filter", "op": "Const", "attr": {"value": {"tensor": {"dtype": "DT_FLOAT", "tensorShape": {"dim": [{"size": "3"}, {"size": "3"}, {"size": "1"}, {"size": "1"}]}}}, "dtype": {"type": "DT_FLOAT"}}}, {"name": "model_230/tf.nn.convolution_894/convolution/filter", "op": "Const", "attr": {"value": {"tensor": {"dtype": "DT_FLOAT", "tensorShape": {"dim": [{"size": "3"}, {"size": "3"}, {"size": "1"}, {"size": "1"}]}}}, "dtype": {"type": "DT_FLOAT"}}}, {"name": "model_230/tf.nn.convolution_895/convolution/filter", "op": "Const", "attr": {"value": {"tensor": {"dtype": "DT_FLOAT", "tensorShape": {"dim": [{"size": "3"}, {"size": "3"}, {"size": "1"}, {"size": "1"}]}}}, "dtype": {"type": "DT_FLOAT"}}}, {"name": "model_230/tf.nn.convolution_896/convolution/filter", "op": "Const", "attr": {"value": {"tensor": {"dtype": "DT_FLOAT", "tensorShape": {"dim": [{"size": "3"}, {"size": "3"}, {"size": "1"}, {"size": "1"}]}}}, "dtype": {"type": "DT_FLOAT"}}}, {"name": "model_230/tf.nn.convolution_897/convolution/filter", "op": "Const", "attr": {"value": {"tensor": {"dtype": "DT_FLOAT", "tensorShape": {"dim": [{"size": "3"}, {"size": "3"}, {"size": "1"}, {"size": "1"}]}}}, "dtype": {"type": "DT_FLOAT"}}}, {"name": "model_230/tf.nn.convolution_898/convolution/filter", "op": "Const", "attr": {"value": {"tensor": {"dtype": "DT_FLOAT", "tensorShape": {"dim": [{"size": "3"}, {"size": "3"}, {"size": "1"}, {"size": "1"}]}}}, "dtype": {"type": "DT_FLOAT"}}}, {"name": "model_230/tf.nn.convolution_899/convolution/filter", "op": "Const", "attr": {"value": {"tensor": {"dtype": "DT_FLOAT", "tensorShape": {"dim": [{"size": "3"}, {"size": "3"}, {"size": "1"}, {"size": "1"}]}}}, "dtype": {"type": "DT_FLOAT"}}}, {"name": "model_230/tf.nn.convolution_900/convolution/filter", "op": "Const", "attr": {"value": {"tensor": {"dtype": "DT_FLOAT", "tensorShape": {"dim": [{"size": "3"}, {"size": "3"}, {"size": "1"}, {"size": "1"}]}}}, "dtype": {"type": "DT_FLOAT"}}}, {"name": "model_230/tf.nn.convolution_901/convolution/filter", "op": "Const", "attr": {"value": {"tensor": {"dtype": "DT_FLOAT", "tensorShape": {"dim": [{"size": "3"}, {"size": "3"}, {"size": "1"}, {"size": "1"}]}}}, "dtype": {"type": "DT_FLOAT"}}}, {"name": "model_230/tf.nn.convolution_902/convolution/filter", "op": "Const", "attr": {"value": {"tensor": {"dtype": "DT_FLOAT", "tensorShape": {"dim": [{"size": "3"}, {"size": "3"}, {"size": "1"}, {"size": "1"}]}}}, "dtype": {"type": "DT_FLOAT"}}}, {"name": "model_230/tf.nn.convolution_903/convolution/filter", "op": "Const", "attr": {"value": {"tensor": {"dtype": "DT_FLOAT", "tensorShape": {"dim": [{"size": "3"}, {"size": "3"}, {"size": "1"}, {"size": "1"}]}}}, "dtype": {"type": "DT_FLOAT"}}}, {"name": "model_230/tf.nn.convolution_904/convolution/filter", "op": "Const", "attr": {"value": {"tensor": {"dtype": "DT_FLOAT", "tensorShape": {"dim": [{"size": "3"}, {"size": "3"}, {"size": "1"}, {"size": "1"}]}}}, "dtype": {"type": "DT_FLOAT"}}}, {"name": "model_230/tf.nn.convolution_905/convolution/filter", "op": "Const", "attr": {"value": {"tensor": {"dtype": "DT_FLOAT", "tensorShape": {"dim": [{"size": "3"}, {"size": "3"}, {"size": "1"}, {"size": "1"}]}}}, "dtype": {"type": "DT_FLOAT"}}}, {"name": "model_230/tf.nn.convolution_906/convolution/filter", "op": "Const", "attr": {"value": {"tensor": {"dtype": "DT_FLOAT", "tensorShape": {"dim": [{"size": "3"}, {"size": "3"}, {"size": "1"}, {"size": "1"}]}}}, "dtype": {"type": "DT_FLOAT"}}}, {"name": "model_230/tf.nn.convolution_907/convolution/filter", "op": "Const", "attr": {"value": {"tensor": {"dtype": "DT_FLOAT", "tensorShape": {"dim": [{"size": "3"}, {"size": "3"}, {"size": "1"}, {"size": "1"}]}}}, "dtype": {"type": "DT_FLOAT"}}}, {"name": "model_230/tf.nn.convolution_908/convolution/filter", "op": "Const", "attr": {"value": {"tensor": {"dtype": "DT_FLOAT", "tensorShape": {"dim": [{"size": "3"}, {"size": "3"}, {"size": "1"}, {"size": "1"}]}}}, "dtype": {"type": "DT_FLOAT"}}}, {"name": "model_230/tf.nn.convolution_909/convolution/filter", "op": "Const", "attr": {"value": {"tensor": {"dtype": "DT_FLOAT", "tensorShape": {"dim": [{"size": "3"}, {"size": "3"}, {"size": "1"}, {"size": "1"}]}}}, "dtype": {"type": "DT_FLOAT"}}}, {"name": "model_230/tf.nn.convolution_910/convolution/filter", "op": "Const", "attr": {"value": {"tensor": {"dtype": "DT_FLOAT", "tensorShape": {"dim": [{"size": "3"}, {"size": "3"}, {"size": "1"}, {"size": "1"}]}}}, "dtype": {"type": "DT_FLOAT"}}}, {"name": "model_230/tf.nn.convolution_911/convolution/filter", "op": "Const", "attr": {"value": {"tensor": {"dtype": "DT_FLOAT", "tensorShape": {"dim": [{"size": "3"}, {"size": "3"}, {"size": "1"}, {"size": "1"}]}}}, "dtype": {"type": "DT_FLOAT"}}}, {"name": "model_230/tf.nn.convolution_912/convolution/filter", "op": "Const", "attr": {"value": {"tensor": {"dtype": "DT_FLOAT", "tensorShape": {"dim": [{"size": "3"}, {"size": "3"}, {"size": "1"}, {"size": "1"}]}}}, "dtype": {"type": "DT_FLOAT"}}}, {"name": "model_230/tf.nn.convolution_913/convolution/filter", "op": "Const", "attr": {"value": {"tensor": {"dtype": "DT_FLOAT", "tensorShape": {"dim": [{"size": "3"}, {"size": "3"}, {"size": "1"}, {"size": "1"}]}}}, "dtype": {"type": "DT_FLOAT"}}}, {"name": "model_230/tf.nn.convolution_914/convolution/filter", "op": "Const", "attr": {"value": {"tensor": {"dtype": "DT_FLOAT", "tensorShape": {"dim": [{"size": "3"}, {"size": "3"}, {"size": "1"}, {"size": "1"}]}}}, "dtype": {"type": "DT_FLOAT"}}}, {"name": "model_230/tf.nn.convolution_915/convolution/filter", "op": "Const", "attr": {"value": {"tensor": {"dtype": "DT_FLOAT", "tensorShape": {"dim": [{"size": "3"}, {"size": "3"}, {"size": "1"}, {"size": "1"}]}}}, "dtype": {"type": "DT_FLOAT"}}}, {"name": "model_230/tf.nn.convolution_916/convolution/filter", "op": "Const", "attr": {"value": {"tensor": {"dtype": "DT_FLOAT", "tensorShape": {"dim": [{"size": "3"}, {"size": "3"}, {"size": "1"}, {"size": "1"}]}}}, "dtype": {"type": "DT_FLOAT"}}}, {"name": "model_230/tf.nn.convolution_917/convolution/filter", "op": "Const", "attr": {"value": {"tensor": {"dtype": "DT_FLOAT", "tensorShape": {"dim": [{"size": "3"}, {"size": "3"}, {"size": "1"}, {"size": "1"}]}}}, "dtype": {"type": "DT_FLOAT"}}}, {"name": "model_230/tf.nn.convolution_918/convolution/filter", "op": "Const", "attr": {"value": {"tensor": {"dtype": "DT_FLOAT", "tensorShape": {"dim": [{"size": "3"}, {"size": "3"}, {"size": "1"}, {"size": "1"}]}}}, "dtype": {"type": "DT_FLOAT"}}}, {"name": "model_230/tf.nn.convolution_919/convolution/filter", "op": "Const", "attr": {"value": {"tensor": {"dtype": "DT_FLOAT", "tensorShape": {"dim": [{"size": "3"}, {"size": "3"}, {"size": "1"}, {"size": "1"}]}}}, "dtype": {"type": "DT_FLOAT"}}}, {"name": "model_230/tf.nn.convolution_920/convolution/filter", "op": "Const", "attr": {"value": {"tensor": {"dtype": "DT_FLOAT", "tensorShape": {"dim": [{"size": "3"}, {"size": "3"}, {"size": "1"}, {"size": "1"}]}}}, "dtype": {"type": "DT_FLOAT"}}}, {"name": "model_230/tf.nn.convolution_921/convolution/filter", "op": "Const", "attr": {"value": {"tensor": {"dtype": "DT_FLOAT", "tensorShape": {"dim": [{"size": "3"}, {"size": "3"}, {"size": "1"}, {"size": "1"}]}}}, "dtype": {"type": "DT_FLOAT"}}}, {"name": "model_230/tf.nn.convolution_922/convolution/filter", "op": "Const", "attr": {"value": {"tensor": {"dtype": "DT_FLOAT", "tensorShape": {"dim": [{"size": "3"}, {"size": "3"}, {"size": "1"}, {"size": "1"}]}}}, "dtype": {"type": "DT_FLOAT"}}}, {"name": "model_230/tf.nn.convolution_923/convolution/filter", "op": "Const", "attr": {"value": {"tensor": {"dtype": "DT_FLOAT", "tensorShape": {"dim": [{"size": "3"}, {"size": "3"}, {"size": "1"}, {"size": "1"}]}}}, "dtype": {"type": "DT_FLOAT"}}}, {"name": "model_230/tf.nn.convolution_924/convolution/filter", "op": "Const", "attr": {"value": {"tensor": {"dtype": "DT_FLOAT", "tensorShape": {"dim": [{"size": "3"}, {"size": "3"}, {"size": "1"}, {"size": "1"}]}}}, "dtype": {"type": "DT_FLOAT"}}}, {"name": "model_230/tf.nn.convolution_925/convolution/filter", "op": "Const", "attr": {"value": {"tensor": {"dtype": "DT_FLOAT", "tensorShape": {"dim": [{"size": "3"}, {"size": "3"}, {"size": "1"}, {"size": "1"}]}}}, "dtype": {"type": "DT_FLOAT"}}}, {"name": "model_230/tf.nn.convolution_926/convolution/filter", "op": "Const", "attr": {"value": {"tensor": {"dtype": "DT_FLOAT", "tensorShape": {"dim": [{"size": "3"}, {"size": "3"}, {"size": "1"}, {"size": "1"}]}}}, "dtype": {"type": "DT_FLOAT"}}}, {"name": "model_230/tf.nn.convolution_927/convolution/filter", "op": "Const", "attr": {"value": {"tensor": {"dtype": "DT_FLOAT", "tensorShape": {"dim": [{"size": "3"}, {"size": "3"}, {"size": "1"}, {"size": "1"}]}}}, "dtype": {"type": "DT_FLOAT"}}}, {"name": "model_230/tf.nn.convolution_928/convolution/filter", "op": "Const", "attr": {"value": {"tensor": {"dtype": "DT_FLOAT", "tensorShape": {"dim": [{"size": "3"}, {"size": "3"}, {"size": "1"}, {"size": "1"}]}}}, "dtype": {"type": "DT_FLOAT"}}}, {"name": "model_230/tf.nn.convolution_929/convolution/filter", "op": "Const", "attr": {"value": {"tensor": {"dtype": "DT_FLOAT", "tensorShape": {"dim": [{"size": "3"}, {"size": "3"}, {"size": "1"}, {"size": "1"}]}}}, "dtype": {"type": "DT_FLOAT"}}}, {"name": "model_230/tf.nn.convolution_930/convolution/filter", "op": "Const", "attr": {"value": {"tensor": {"dtype": "DT_FLOAT", "tensorShape": {"dim": [{"size": "3"}, {"size": "3"}, {"size": "1"}, {"size": "1"}]}}}, "dtype": {"type": "DT_FLOAT"}}}, {"name": "model_230/tf.nn.convolution_931/convolution/filter", "op": "Const", "attr": {"value": {"tensor": {"dtype": "DT_FLOAT", "tensorShape": {"dim": [{"size": "3"}, {"size": "3"}, {"size": "1"}, {"size": "1"}]}}}, "dtype": {"type": "DT_FLOAT"}}}, {"name": "model_230/tf.nn.convolution_932/convolution/filter", "op": "Const", "attr": {"value": {"tensor": {"dtype": "DT_FLOAT", "tensorShape": {"dim": [{"size": "3"}, {"size": "3"}, {"size": "1"}, {"size": "1"}]}}}, "dtype": {"type": "DT_FLOAT"}}}, {"name": "model_230/tf.nn.convolution_933/convolution/filter", "op": "Const", "attr": {"value": {"tensor": {"dtype": "DT_FLOAT", "tensorShape": {"dim": [{"size": "3"}, {"size": "3"}, {"size": "1"}, {"size": "1"}]}}}, "dtype": {"type": "DT_FLOAT"}}}, {"name": "model_230/tf.nn.convolution_934/convolution/filter", "op": "Const", "attr": {"value": {"tensor": {"dtype": "DT_FLOAT", "tensorShape": {"dim": [{"size": "3"}, {"size": "3"}, {"size": "1"}, {"size": "1"}]}}}, "dtype": {"type": "DT_FLOAT"}}}, {"name": "model_230/tf.nn.convolution_935/convolution/filter", "op": "Const", "attr": {"value": {"tensor": {"dtype": "DT_FLOAT", "tensorShape": {"dim": [{"size": "3"}, {"size": "3"}, {"size": "1"}, {"size": "1"}]}}}, "dtype": {"type": "DT_FLOAT"}}}, {"name": "model_230/tf.nn.convolution_936/convolution/filter", "op": "Const", "attr": {"value": {"tensor": {"dtype": "DT_FLOAT", "tensorShape": {"dim": [{"size": "3"}, {"size": "3"}, {"size": "1"}, {"size": "1"}]}}}, "dtype": {"type": "DT_FLOAT"}}}, {"name": "model_230/tf.nn.convolution_937/convolution/filter", "op": "Const", "attr": {"value": {"tensor": {"dtype": "DT_FLOAT", "tensorShape": {"dim": [{"size": "3"}, {"size": "3"}, {"size": "1"}, {"size": "1"}]}}}, "dtype": {"type": "DT_FLOAT"}}}, {"name": "model_230/tf.nn.convolution_938/convolution/filter", "op": "Const", "attr": {"value": {"tensor": {"dtype": "DT_FLOAT", "tensorShape": {"dim": [{"size": "3"}, {"size": "3"}, {"size": "1"}, {"size": "1"}]}}}, "dtype": {"type": "DT_FLOAT"}}}, {"name": "model_230/tf.nn.convolution_939/convolution/filter", "op": "Const", "attr": {"value": {"tensor": {"dtype": "DT_FLOAT", "tensorShape": {"dim": [{"size": "3"}, {"size": "3"}, {"size": "1"}, {"size": "1"}]}}}, "dtype": {"type": "DT_FLOAT"}}}, {"name": "model_230/tf.nn.convolution_940/convolution/filter", "op": "Const", "attr": {"value": {"tensor": {"dtype": "DT_FLOAT", "tensorShape": {"dim": [{"size": "3"}, {"size": "3"}, {"size": "1"}, {"size": "1"}]}}}, "dtype": {"type": "DT_FLOAT"}}}, {"name": "model_230/tf.nn.convolution_941/convolution/filter", "op": "Const", "attr": {"value": {"tensor": {"dtype": "DT_FLOAT", "tensorShape": {"dim": [{"size": "3"}, {"size": "3"}, {"size": "1"}, {"size": "1"}]}}}, "dtype": {"type": "DT_FLOAT"}}}, {"name": "model_230/tf.nn.convolution_942/convolution/filter", "op": "Const", "attr": {"value": {"tensor": {"dtype": "DT_FLOAT", "tensorShape": {"dim": [{"size": "3"}, {"size": "3"}, {"size": "1"}, {"size": "1"}]}}}, "dtype": {"type": "DT_FLOAT"}}}, {"name": "model_230/tf.nn.convolution_943/convolution/filter", "op": "Const", "attr": {"value": {"tensor": {"dtype": "DT_FLOAT", "tensorShape": {"dim": [{"size": "3"}, {"size": "3"}, {"size": "1"}, {"size": "1"}]}}}, "dtype": {"type": "DT_FLOAT"}}}, {"name": "model_230/tf.nn.convolution_944/convolution/filter", "op": "Const", "attr": {"value": {"tensor": {"dtype": "DT_FLOAT", "tensorShape": {"dim": [{"size": "3"}, {"size": "3"}, {"size": "1"}, {"size": "1"}]}}}, "dtype": {"type": "DT_FLOAT"}}}, {"name": "model_230/tf.nn.convolution_945/convolution/filter", "op": "Const", "attr": {"value": {"tensor": {"dtype": "DT_FLOAT", "tensorShape": {"dim": [{"size": "3"}, {"size": "3"}, {"size": "1"}, {"size": "1"}]}}}, "dtype": {"type": "DT_FLOAT"}}}, {"name": "model_230/tf.nn.convolution_946/convolution/filter", "op": "Const", "attr": {"value": {"tensor": {"dtype": "DT_FLOAT", "tensorShape": {"dim": [{"size": "3"}, {"size": "3"}, {"size": "1"}, {"size": "1"}]}}}, "dtype": {"type": "DT_FLOAT"}}}, {"name": "model_230/tf.nn.convolution_947/convolution/filter", "op": "Const", "attr": {"value": {"tensor": {"dtype": "DT_FLOAT", "tensorShape": {"dim": [{"size": "3"}, {"size": "3"}, {"size": "1"}, {"size": "1"}]}}}, "dtype": {"type": "DT_FLOAT"}}}, {"name": "model_230/tf.nn.convolution_948/convolution/filter", "op": "Const", "attr": {"value": {"tensor": {"dtype": "DT_FLOAT", "tensorShape": {"dim": [{"size": "3"}, {"size": "3"}, {"size": "1"}, {"size": "1"}]}}}, "dtype": {"type": "DT_FLOAT"}}}, {"name": "model_230/tf.nn.convolution_949/convolution/filter", "op": "Const", "attr": {"value": {"tensor": {"dtype": "DT_FLOAT", "tensorShape": {"dim": [{"size": "3"}, {"size": "3"}, {"size": "1"}, {"size": "1"}]}}}, "dtype": {"type": "DT_FLOAT"}}}, {"name": "model_230/tf.nn.convolution_950/convolution/filter", "op": "Const", "attr": {"value": {"tensor": {"dtype": "DT_FLOAT", "tensorShape": {"dim": [{"size": "3"}, {"size": "3"}, {"size": "1"}, {"size": "1"}]}}}, "dtype": {"type": "DT_FLOAT"}}}, {"name": "model_230/tf.nn.convolution_951/convolution/filter", "op": "Const", "attr": {"value": {"tensor": {"dtype": "DT_FLOAT", "tensorShape": {"dim": [{"size": "3"}, {"size": "3"}, {"size": "1"}, {"size": "1"}]}}}, "dtype": {"type": "DT_FLOAT"}}}, {"name": "model_230/tf.nn.convolution_952/convolution/filter", "op": "Const", "attr": {"value": {"tensor": {"dtype": "DT_FLOAT", "tensorShape": {"dim": [{"size": "3"}, {"size": "3"}, {"size": "1"}, {"size": "1"}]}}}, "dtype": {"type": "DT_FLOAT"}}}, {"name": "model_230/tf.nn.convolution_953/convolution/filter", "op": "Const", "attr": {"value": {"tensor": {"dtype": "DT_FLOAT", "tensorShape": {"dim": [{"size": "3"}, {"size": "3"}, {"size": "1"}, {"size": "1"}]}}}, "dtype": {"type": "DT_FLOAT"}}}, {"name": "model_230/tf.nn.convolution_954/convolution/filter", "op": "Const", "attr": {"value": {"tensor": {"dtype": "DT_FLOAT", "tensorShape": {"dim": [{"size": "3"}, {"size": "3"}, {"size": "1"}, {"size": "1"}]}}}, "dtype": {"type": "DT_FLOAT"}}}, {"name": "model_230/tf.nn.convolution_955/convolution/filter", "op": "Const", "attr": {"value": {"tensor": {"dtype": "DT_FLOAT", "tensorShape": {"dim": [{"size": "3"}, {"size": "3"}, {"size": "1"}, {"size": "1"}]}}}, "dtype": {"type": "DT_FLOAT"}}}, {"name": "model_230/tf.nn.convolution_956/convolution/filter", "op": "Const", "attr": {"value": {"tensor": {"dtype": "DT_FLOAT", "tensorShape": {"dim": [{"size": "3"}, {"size": "3"}, {"size": "1"}, {"size": "1"}]}}}, "dtype": {"type": "DT_FLOAT"}}}, {"name": "model_230/tf.nn.convolution_957/convolution/filter", "op": "Const", "attr": {"value": {"tensor": {"dtype": "DT_FLOAT", "tensorShape": {"dim": [{"size": "3"}, {"size": "3"}, {"size": "1"}, {"size": "1"}]}}}, "dtype": {"type": "DT_FLOAT"}}}, {"name": "model_230/tf.nn.convolution_958/convolution/filter", "op": "Const", "attr": {"value": {"tensor": {"dtype": "DT_FLOAT", "tensorShape": {"dim": [{"size": "3"}, {"size": "3"}, {"size": "1"}, {"size": "1"}]}}}, "dtype": {"type": "DT_FLOAT"}}}, {"name": "model_230/tf.nn.convolution_959/convolution/filter", "op": "Const", "attr": {"value": {"tensor": {"dtype": "DT_FLOAT", "tensorShape": {"dim": [{"size": "3"}, {"size": "3"}, {"size": "1"}, {"size": "1"}]}}}, "dtype": {"type": "DT_FLOAT"}}}, {"name": "model_230/tf.nn.convolution_960/convolution/filter", "op": "Const", "attr": {"value": {"tensor": {"dtype": "DT_FLOAT", "tensorShape": {"dim": [{"size": "3"}, {"size": "3"}, {"size": "1"}, {"size": "1"}]}}}, "dtype": {"type": "DT_FLOAT"}}}, {"name": "model_230/tf.nn.convolution_961/convolution/filter", "op": "Const", "attr": {"value": {"tensor": {"dtype": "DT_FLOAT", "tensorShape": {"dim": [{"size": "3"}, {"size": "3"}, {"size": "1"}, {"size": "1"}]}}}, "dtype": {"type": "DT_FLOAT"}}}, {"name": "model_230/tf.nn.convolution_962/convolution/filter", "op": "Const", "attr": {"value": {"tensor": {"dtype": "DT_FLOAT", "tensorShape": {"dim": [{"size": "3"}, {"size": "3"}, {"size": "1"}, {"size": "1"}]}}}, "dtype": {"type": "DT_FLOAT"}}}, {"name": "model_230/tf.nn.convolution_963/convolution/filter", "op": "Const", "attr": {"value": {"tensor": {"dtype": "DT_FLOAT", "tensorShape": {"dim": [{"size": "3"}, {"size": "3"}, {"size": "1"}, {"size": "1"}]}}}, "dtype": {"type": "DT_FLOAT"}}}, {"name": "model_230/tf.nn.convolution_964/convolution/filter", "op": "Const", "attr": {"value": {"tensor": {"dtype": "DT_FLOAT", "tensorShape": {"dim": [{"size": "3"}, {"size": "3"}, {"size": "1"}, {"size": "1"}]}}}, "dtype": {"type": "DT_FLOAT"}}}, {"name": "model_230/tf.nn.convolution_965/convolution/filter", "op": "Const", "attr": {"value": {"tensor": {"dtype": "DT_FLOAT", "tensorShape": {"dim": [{"size": "3"}, {"size": "3"}, {"size": "1"}, {"size": "1"}]}}}, "dtype": {"type": "DT_FLOAT"}}}, {"name": "model_230/tf.nn.convolution_966/convolution/filter", "op": "Const", "attr": {"value": {"tensor": {"dtype": "DT_FLOAT", "tensorShape": {"dim": [{"size": "3"}, {"size": "3"}, {"size": "1"}, {"size": "1"}]}}}, "dtype": {"type": "DT_FLOAT"}}}, {"name": "model_230/tf.nn.convolution_967/convolution/filter", "op": "Const", "attr": {"value": {"tensor": {"dtype": "DT_FLOAT", "tensorShape": {"dim": [{"size": "3"}, {"size": "3"}, {"size": "1"}, {"size": "1"}]}}}, "dtype": {"type": "DT_FLOAT"}}}, {"name": "model_230/tf.nn.convolution_968/convolution/filter", "op": "Const", "attr": {"value": {"tensor": {"dtype": "DT_FLOAT", "tensorShape": {"dim": [{"size": "3"}, {"size": "3"}, {"size": "1"}, {"size": "1"}]}}}, "dtype": {"type": "DT_FLOAT"}}}, {"name": "model_230/tf.nn.convolution_969/convolution/filter", "op": "Const", "attr": {"value": {"tensor": {"dtype": "DT_FLOAT", "tensorShape": {"dim": [{"size": "3"}, {"size": "3"}, {"size": "1"}, {"size": "1"}]}}}, "dtype": {"type": "DT_FLOAT"}}}, {"name": "model_230/tf.nn.convolution_970/convolution/filter", "op": "Const", "attr": {"value": {"tensor": {"dtype": "DT_FLOAT", "tensorShape": {"dim": [{"size": "3"}, {"size": "3"}, {"size": "1"}, {"size": "1"}]}}}, "dtype": {"type": "DT_FLOAT"}}}, {"name": "model_230/tf.nn.convolution_971/convolution/filter", "op": "Const", "attr": {"value": {"tensor": {"dtype": "DT_FLOAT", "tensorShape": {"dim": [{"size": "3"}, {"size": "3"}, {"size": "1"}, {"size": "1"}]}}}, "dtype": {"type": "DT_FLOAT"}}}, {"name": "model_230/tf.nn.convolution_972/convolution/filter", "op": "Const", "attr": {"value": {"tensor": {"dtype": "DT_FLOAT", "tensorShape": {"dim": [{"size": "3"}, {"size": "3"}, {"size": "1"}, {"size": "1"}]}}}, "dtype": {"type": "DT_FLOAT"}}}, {"name": "model_230/tf.nn.convolution_973/convolution/filter", "op": "Const", "attr": {"value": {"tensor": {"dtype": "DT_FLOAT", "tensorShape": {"dim": [{"size": "3"}, {"size": "3"}, {"size": "1"}, {"size": "1"}]}}}, "dtype": {"type": "DT_FLOAT"}}}, {"name": "model_230/tf.nn.convolution_974/convolution/filter", "op": "Const", "attr": {"value": {"tensor": {"dtype": "DT_FLOAT", "tensorShape": {"dim": [{"size": "3"}, {"size": "3"}, {"size": "1"}, {"size": "1"}]}}}, "dtype": {"type": "DT_FLOAT"}}}, {"name": "model_230/tf.nn.convolution_975/convolution/filter", "op": "Const", "attr": {"value": {"tensor": {"dtype": "DT_FLOAT", "tensorShape": {"dim": [{"size": "3"}, {"size": "3"}, {"size": "1"}, {"size": "1"}]}}}, "dtype": {"type": "DT_FLOAT"}}}, {"name": "model_230/tf.nn.convolution_976/convolution/filter", "op": "Const", "attr": {"value": {"tensor": {"dtype": "DT_FLOAT", "tensorShape": {"dim": [{"size": "3"}, {"size": "3"}, {"size": "1"}, {"size": "1"}]}}}, "dtype": {"type": "DT_FLOAT"}}}, {"name": "model_230/tf.nn.convolution_977/convolution/filter", "op": "Const", "attr": {"value": {"tensor": {"dtype": "DT_FLOAT", "tensorShape": {"dim": [{"size": "3"}, {"size": "3"}, {"size": "1"}, {"size": "1"}]}}}, "dtype": {"type": "DT_FLOAT"}}}, {"name": "model_230/tf.nn.convolution_978/convolution/filter", "op": "Const", "attr": {"value": {"tensor": {"dtype": "DT_FLOAT", "tensorShape": {"dim": [{"size": "3"}, {"size": "3"}, {"size": "1"}, {"size": "1"}]}}}, "dtype": {"type": "DT_FLOAT"}}}, {"name": "model_230/tf.nn.convolution_979/convolution/filter", "op": "Const", "attr": {"value": {"tensor": {"dtype": "DT_FLOAT", "tensorShape": {"dim": [{"size": "3"}, {"size": "3"}, {"size": "1"}, {"size": "1"}]}}}, "dtype": {"type": "DT_FLOAT"}}}, {"name": "model_230/tf.nn.convolution_980/convolution/filter", "op": "Const", "attr": {"value": {"tensor": {"dtype": "DT_FLOAT", "tensorShape": {"dim": [{"size": "3"}, {"size": "3"}, {"size": "1"}, {"size": "1"}]}}}, "dtype": {"type": "DT_FLOAT"}}}, {"name": "model_230/tf.nn.convolution_981/convolution/filter", "op": "Const", "attr": {"value": {"tensor": {"dtype": "DT_FLOAT", "tensorShape": {"dim": [{"size": "3"}, {"size": "3"}, {"size": "1"}, {"size": "1"}]}}}, "dtype": {"type": "DT_FLOAT"}}}, {"name": "model_230/tf.nn.convolution_982/convolution/filter", "op": "Const", "attr": {"value": {"tensor": {"dtype": "DT_FLOAT", "tensorShape": {"dim": [{"size": "3"}, {"size": "3"}, {"size": "1"}, {"size": "1"}]}}}, "dtype": {"type": "DT_FLOAT"}}}, {"name": "model_230/tf.nn.convolution_983/convolution/filter", "op": "Const", "attr": {"value": {"tensor": {"dtype": "DT_FLOAT", "tensorShape": {"dim": [{"size": "3"}, {"size": "3"}, {"size": "1"}, {"size": "1"}]}}}, "dtype": {"type": "DT_FLOAT"}}}, {"name": "model_230/tf.nn.convolution_984/convolution/filter", "op": "Const", "attr": {"value": {"tensor": {"dtype": "DT_FLOAT", "tensorShape": {"dim": [{"size": "3"}, {"size": "3"}, {"size": "1"}, {"size": "1"}]}}}, "dtype": {"type": "DT_FLOAT"}}}, {"name": "model_230/tf.nn.convolution_985/convolution/filter", "op": "Const", "attr": {"value": {"tensor": {"dtype": "DT_FLOAT", "tensorShape": {"dim": [{"size": "3"}, {"size": "3"}, {"size": "1"}, {"size": "1"}]}}}, "dtype": {"type": "DT_FLOAT"}}}, {"name": "model_230/tf.nn.convolution_986/convolution/filter", "op": "Const", "attr": {"value": {"tensor": {"dtype": "DT_FLOAT", "tensorShape": {"dim": [{"size": "3"}, {"size": "3"}, {"size": "1"}, {"size": "1"}]}}}, "dtype": {"type": "DT_FLOAT"}}}, {"name": "model_230/tf.nn.convolution_987/convolution/filter", "op": "Const", "attr": {"value": {"tensor": {"dtype": "DT_FLOAT", "tensorShape": {"dim": [{"size": "3"}, {"size": "3"}, {"size": "1"}, {"size": "1"}]}}}, "dtype": {"type": "DT_FLOAT"}}}, {"name": "model_230/tf.nn.convolution_988/convolution/filter", "op": "Const", "attr": {"value": {"tensor": {"dtype": "DT_FLOAT", "tensorShape": {"dim": [{"size": "3"}, {"size": "3"}, {"size": "1"}, {"size": "1"}]}}}, "dtype": {"type": "DT_FLOAT"}}}, {"name": "model_230/tf.nn.convolution_989/convolution/filter", "op": "Const", "attr": {"value": {"tensor": {"dtype": "DT_FLOAT", "tensorShape": {"dim": [{"size": "3"}, {"size": "3"}, {"size": "1"}, {"size": "1"}]}}}, "dtype": {"type": "DT_FLOAT"}}}, {"name": "model_230/tf.nn.convolution_990/convolution/filter", "op": "Const", "attr": {"value": {"tensor": {"dtype": "DT_FLOAT", "tensorShape": {"dim": [{"size": "3"}, {"size": "3"}, {"size": "1"}, {"size": "1"}]}}}, "dtype": {"type": "DT_FLOAT"}}}, {"name": "model_230/tf.nn.convolution_991/convolution/filter", "op": "Const", "attr": {"value": {"tensor": {"dtype": "DT_FLOAT", "tensorShape": {"dim": [{"size": "3"}, {"size": "3"}, {"size": "1"}, {"size": "1"}]}}}, "dtype": {"type": "DT_FLOAT"}}}, {"name": "model_230/tf.nn.convolution_992/convolution/filter", "op": "Const", "attr": {"value": {"tensor": {"dtype": "DT_FLOAT", "tensorShape": {"dim": [{"size": "3"}, {"size": "3"}, {"size": "1"}, {"size": "1"}]}}}, "dtype": {"type": "DT_FLOAT"}}}, {"name": "model_230/tf.nn.convolution_993/convolution/filter", "op": "Const", "attr": {"value": {"tensor": {"dtype": "DT_FLOAT", "tensorShape": {"dim": [{"size": "3"}, {"size": "3"}, {"size": "1"}, {"size": "1"}]}}}, "dtype": {"type": "DT_FLOAT"}}}, {"name": "model_230/tf.nn.convolution_994/convolution/filter", "op": "Const", "attr": {"value": {"tensor": {"dtype": "DT_FLOAT", "tensorShape": {"dim": [{"size": "3"}, {"size": "3"}, {"size": "1"}, {"size": "1"}]}}}, "dtype": {"type": "DT_FLOAT"}}}, {"name": "model_230/tf.nn.convolution_995/convolution/filter", "op": "Const", "attr": {"value": {"tensor": {"dtype": "DT_FLOAT", "tensorShape": {"dim": [{"size": "3"}, {"size": "3"}, {"size": "1"}, {"size": "1"}]}}}, "dtype": {"type": "DT_FLOAT"}}}, {"name": "model_230/tf.nn.convolution_996/convolution/filter", "op": "Const", "attr": {"value": {"tensor": {"dtype": "DT_FLOAT", "tensorShape": {"dim": [{"size": "3"}, {"size": "3"}, {"size": "1"}, {"size": "1"}]}}}, "dtype": {"type": "DT_FLOAT"}}}, {"name": "model_230/tf.nn.convolution_997/convolution/filter", "op": "Const", "attr": {"value": {"tensor": {"dtype": "DT_FLOAT", "tensorShape": {"dim": [{"size": "3"}, {"size": "3"}, {"size": "1"}, {"size": "1"}]}}}, "dtype": {"type": "DT_FLOAT"}}}, {"name": "model_230/tf.nn.convolution_998/convolution/filter", "op": "Const", "attr": {"value": {"tensor": {"dtype": "DT_FLOAT", "tensorShape": {"dim": [{"size": "3"}, {"size": "3"}, {"size": "1"}, {"size": "1"}]}}}, "dtype": {"type": "DT_FLOAT"}}}, {"name": "model_230/tf.nn.convolution_999/convolution/filter", "op": "Const", "attr": {"value": {"tensor": {"dtype": "DT_FLOAT", "tensorShape": {"dim": [{"size": "3"}, {"size": "3"}, {"size": "1"}, {"size": "1"}]}}}, "dtype": {"type": "DT_FLOAT"}}}, {"name": "model_230/tf.nn.convolution_1000/convolution/filter", "op": "Const", "attr": {"value": {"tensor": {"dtype": "DT_FLOAT", "tensorShape": {"dim": [{"size": "3"}, {"size": "3"}, {"size": "1"}, {"size": "1"}]}}}, "dtype": {"type": "DT_FLOAT"}}}, {"name": "model_230/tf.nn.convolution_1001/convolution/filter", "op": "Const", "attr": {"value": {"tensor": {"dtype": "DT_FLOAT", "tensorShape": {"dim": [{"size": "3"}, {"size": "3"}, {"size": "1"}, {"size": "1"}]}}}, "dtype": {"type": "DT_FLOAT"}}}, {"name": "model_230/tf.nn.convolution_1002/convolution/filter", "op": "Const", "attr": {"value": {"tensor": {"dtype": "DT_FLOAT", "tensorShape": {"dim": [{"size": "3"}, {"size": "3"}, {"size": "1"}, {"size": "1"}]}}}, "dtype": {"type": "DT_FLOAT"}}}, {"name": "model_230/tf.nn.convolution_1003/convolution/filter", "op": "Const", "attr": {"value": {"tensor": {"dtype": "DT_FLOAT", "tensorShape": {"dim": [{"size": "3"}, {"size": "3"}, {"size": "1"}, {"size": "1"}]}}}, "dtype": {"type": "DT_FLOAT"}}}, {"name": "model_230/tf.nn.convolution_1004/convolution/filter", "op": "Const", "attr": {"value": {"tensor": {"dtype": "DT_FLOAT", "tensorShape": {"dim": [{"size": "3"}, {"size": "3"}, {"size": "1"}, {"size": "1"}]}}}, "dtype": {"type": "DT_FLOAT"}}}, {"name": "model_230/tf.nn.convolution_1005/convolution/filter", "op": "Const", "attr": {"value": {"tensor": {"dtype": "DT_FLOAT", "tensorShape": {"dim": [{"size": "3"}, {"size": "3"}, {"size": "1"}, {"size": "1"}]}}}, "dtype": {"type": "DT_FLOAT"}}}, {"name": "model_230/tf.nn.convolution_1006/convolution/filter", "op": "Const", "attr": {"value": {"tensor": {"dtype": "DT_FLOAT", "tensorShape": {"dim": [{"size": "3"}, {"size": "3"}, {"size": "1"}, {"size": "1"}]}}}, "dtype": {"type": "DT_FLOAT"}}}, {"name": "model_230/tf.nn.convolution_1007/convolution/filter", "op": "Const", "attr": {"value": {"tensor": {"dtype": "DT_FLOAT", "tensorShape": {"dim": [{"size": "3"}, {"size": "3"}, {"size": "1"}, {"size": "1"}]}}}, "dtype": {"type": "DT_FLOAT"}}}, {"name": "model_230/tf.split_4/split/split_dim", "op": "Const", "attr": {"value": {"tensor": {"dtype": "DT_INT32", "tensorShape": {}}}, "dtype": {"type": "DT_INT32"}}}, {"name": "model_230/tf.strided_slice_62/ones_like/tensor", "op": "Const", "attr": {"value": {"tensor": {"dtype": "DT_INT64", "tensorShape": {"dim": [{"size": "4"}]}}}, "dtype": {"type": "DT_INT64"}}}, {"name": "model_230/tf.strided_slice_62/StridedSlice/end", "op": "Const", "attr": {"value": {"tensor": {"dtype": "DT_INT64", "tensorShape": {"dim": [{"size": "4"}]}}}, "dtype": {"type": "DT_INT64"}}}, {"name": "model_230/tf.strided_slice_62/ones_like", "op": "Const", "attr": {"value": {"tensor": {"dtype": "DT_INT64", "tensorShape": {"dim": [{"size": "4"}]}}}, "dtype": {"type": "DT_INT64"}}}, {"name": "model_230/tf.nn.convolution_741/convolution/filter", "op": "Const", "attr": {"value": {"tensor": {"dtype": "DT_FLOAT", "tensorShape": {"dim": [{"size": "1"}, {"size": "1"}, {"size": "256"}, {"size": "128"}]}}}, "dtype": {"type": "DT_FLOAT"}}}, {"name": "model_230/tf.math.add_347/Add/y", "op": "Const", "attr": {"value": {"tensor": {"dtype": "DT_FLOAT", "tensorShape": {"dim": [{"size": "128"}]}}}, "dtype": {"type": "DT_FLOAT"}}}, {"name": "model_230/tf.nn.convolution_743/convolution/filter", "op": "Const", "attr": {"value": {"tensor": {"dtype": "DT_FLOAT", "tensorShape": {"dim": [{"size": "3"}, {"size": "3"}, {"size": "128"}, {"size": "128"}]}}}, "dtype": {"type": "DT_FLOAT"}}}, {"name": "model_230/tf.math.add_349/Add/y", "op": "Const", "attr": {"value": {"tensor": {"dtype": "DT_FLOAT", "tensorShape": {"dim": [{"size": "128"}]}}}, "dtype": {"type": "DT_FLOAT"}}}, {"name": "model_230/tf.nn.convolution_744/convolution/filter", "op": "Const", "attr": {"value": {"tensor": {"dtype": "DT_FLOAT", "tensorShape": {"dim": [{"size": "3"}, {"size": "3"}, {"size": "128"}, {"size": "128"}]}}}, "dtype": {"type": "DT_FLOAT"}}}, {"name": "model_230/tf.math.add_350/Add/y", "op": "Const", "attr": {"value": {"tensor": {"dtype": "DT_FLOAT", "tensorShape": {"dim": [{"size": "128"}]}}}, "dtype": {"type": "DT_FLOAT"}}}, {"name": "model_230/tf.nn.convolution_745/convolution/filter", "op": "Const", "attr": {"value": {"tensor": {"dtype": "DT_FLOAT", "tensorShape": {"dim": [{"size": "3"}, {"size": "3"}, {"size": "128"}, {"size": "128"}]}}}, "dtype": {"type": "DT_FLOAT"}}}, {"name": "model_230/tf.math.add_353/Add/y", "op": "Const", "attr": {"value": {"tensor": {"dtype": "DT_FLOAT", "tensorShape": {"dim": [{"size": "128"}]}}}, "dtype": {"type": "DT_FLOAT"}}}, {"name": "model_230/tf.nn.convolution_746/convolution/filter", "op": "Const", "attr": {"value": {"tensor": {"dtype": "DT_FLOAT", "tensorShape": {"dim": [{"size": "3"}, {"size": "3"}, {"size": "128"}, {"size": "128"}]}}}, "dtype": {"type": "DT_FLOAT"}}}, {"name": "model_230/tf.math.add_354/Add/y", "op": "Const", "attr": {"value": {"tensor": {"dtype": "DT_FLOAT", "tensorShape": {"dim": [{"size": "128"}]}}}, "dtype": {"type": "DT_FLOAT"}}}, {"name": "model_230/tf.compat.v1.pad_18/Pad/paddings", "op": "Const", "attr": {"value": {"tensor": {"dtype": "DT_INT32", "tensorShape": {"dim": [{"size": "4"}, {"size": "2"}]}}}, "dtype": {"type": "DT_INT32"}}}, {"name": "model_230/tf.nn.convolution_739/convolution/filter", "op": "Const", "attr": {"value": {"tensor": {"dtype": "DT_FLOAT", "tensorShape": {"dim": [{"size": "3"}, {"size": "3"}, {"size": "512"}, {"size": "512"}]}}}, "dtype": {"type": "DT_FLOAT"}}}, {"name": "model_230/tf.math.add_345/Add/y", "op": "Const", "attr": {"value": {"tensor": {"dtype": "DT_FLOAT", "tensorShape": {"dim": [{"size": "512"}]}}}, "dtype": {"type": "DT_FLOAT"}}}, {"name": "model_230/tf.nn.convolution_740/convolution/filter", "op": "Const", "attr": {"value": {"tensor": {"dtype": "DT_FLOAT", "tensorShape": {"dim": [{"size": "1"}, {"size": "1"}, {"size": "512"}, {"size": "512"}]}}}, "dtype": {"type": "DT_FLOAT"}}}, {"name": "model_230/tf.math.add_346/Add/y", "op": "Const", "attr": {"value": {"tensor": {"dtype": "DT_FLOAT", "tensorShape": {"dim": [{"size": "512"}]}}}, "dtype": {"type": "DT_FLOAT"}}}, {"name": "model_230/tf.strided_slice_63/ones_like/tensor", "op": "Const", "attr": {"value": {"tensor": {"dtype": "DT_INT64", "tensorShape": {"dim": [{"size": "4"}]}}}, "dtype": {"type": "DT_INT64"}}}, {"name": "model_230/tf.strided_slice_63/StridedSlice/end", "op": "Const", "attr": {"value": {"tensor": {"dtype": "DT_INT64", "tensorShape": {"dim": [{"size": "4"}]}}}, "dtype": {"type": "DT_INT64"}}}, {"name": "model_230/tf.strided_slice_63/ones_like", "op": "Const", "attr": {"value": {"tensor": {"dtype": "DT_INT64", "tensorShape": {"dim": [{"size": "4"}]}}}, "dtype": {"type": "DT_INT64"}}}, {"name": "model_230/tf.nn.convolution_742/convolution/filter", "op": "Const", "attr": {"value": {"tensor": {"dtype": "DT_FLOAT", "tensorShape": {"dim": [{"size": "1"}, {"size": "1"}, {"size": "256"}, {"size": "128"}]}}}, "dtype": {"type": "DT_FLOAT"}}}, {"name": "model_230/tf.math.add_348/Add/y", "op": "Const", "attr": {"value": {"tensor": {"dtype": "DT_FLOAT", "tensorShape": {"dim": [{"size": "128"}]}}}, "dtype": {"type": "DT_FLOAT"}}}, {"name": "model_230/tf.concat_72/concat/axis", "op": "Const", "attr": {"value": {"tensor": {"dtype": "DT_INT32", "tensorShape": {}}}, "dtype": {"type": "DT_INT32"}}}, {"name": "model_230/tf.nn.convolution_747/convolution/filter", "op": "Const", "attr": {"value": {"tensor": {"dtype": "DT_FLOAT", "tensorShape": {"dim": [{"size": "1"}, {"size": "1"}, {"size": "256"}, {"size": "256"}]}}}, "dtype": {"type": "DT_FLOAT"}}}, {"name": "model_230/tf.math.add_357/Add/y", "op": "Const", "attr": {"value": {"tensor": {"dtype": "DT_FLOAT", "tensorShape": {"dim": [{"size": "256"}]}}}, "dtype": {"type": "DT_FLOAT"}}}, {"name": "model_230/tf.concat_73/concat/axis", "op": "Const", "attr": {"value": {"tensor": {"dtype": "DT_INT32", "tensorShape": {}}}, "dtype": {"type": "DT_INT32"}}}, {"name": "model_230/tf.nn.convolution_748/convolution/filter", "op": "Const", "attr": {"value": {"tensor": {"dtype": "DT_FLOAT", "tensorShape": {"dim": [{"size": "1"}, {"size": "1"}, {"size": "768"}, {"size": "512"}]}}}, "dtype": {"type": "DT_FLOAT"}}}, {"name": "model_230/tf.math.add_358/Add/y", "op": "Const", "attr": {"value": {"tensor": {"dtype": "DT_FLOAT", "tensorShape": {"dim": [{"size": "512"}]}}}, "dtype": {"type": "DT_FLOAT"}}}, {"name": "model_230/tf.nn.convolution_749/convolution/filter", "op": "Const", "attr": {"value": {"tensor": {"dtype": "DT_FLOAT", "tensorShape": {"dim": [{"size": "1"}, {"size": "1"}, {"size": "512"}, {"size": "256"}]}}}, "dtype": {"type": "DT_FLOAT"}}}, {"name": "model_230/tf.math.add_359/Add/y", "op": "Const", "attr": {"value": {"tensor": {"dtype": "DT_FLOAT", "tensorShape": {"dim": [{"size": "256"}]}}}, "dtype": {"type": "DT_FLOAT"}}}, {"name": "model_230/tf.concat_74/concat/axis", "op": "Const", "attr": {"value": {"tensor": {"dtype": "DT_INT32", "tensorShape": {}}}, "dtype": {"type": "DT_INT32"}}}, {"name": "model_230/tf.nn.convolution_750/convolution/filter", "op": "Const", "attr": {"value": {"tensor": {"dtype": "DT_FLOAT", "tensorShape": {"dim": [{"size": "1"}, {"size": "1"}, {"size": "1024"}, {"size": "512"}]}}}, "dtype": {"type": "DT_FLOAT"}}}, {"name": "model_230/tf.math.add_360/Add/y", "op": "Const", "attr": {"value": {"tensor": {"dtype": "DT_FLOAT", "tensorShape": {"dim": [{"size": "512"}]}}}, "dtype": {"type": "DT_FLOAT"}}}, {"name": "model_230/tf.nn.convolution_751/convolution/filter", "op": "Const", "attr": {"value": {"tensor": {"dtype": "DT_FLOAT", "tensorShape": {"dim": [{"size": "1"}, {"size": "1"}, {"size": "512"}, {"size": "512"}]}}}, "dtype": {"type": "DT_FLOAT"}}}, {"name": "model_230/tf.math.add_361/Add/y", "op": "Const", "attr": {"value": {"tensor": {"dtype": "DT_FLOAT", "tensorShape": {"dim": [{"size": "512"}]}}}, "dtype": {"type": "DT_FLOAT"}}}, {"name": "model_230/tf.strided_slice_65/StridedSlice/begin", "op": "Const", "attr": {"value": {"tensor": {"dtype": "DT_INT32", "tensorShape": {"dim": [{"size": "4"}]}}}, "dtype": {"type": "DT_INT32"}}}, {"name": "model_230/tf.strided_slice_65/StridedSlice/end", "op": "Const", "attr": {"value": {"tensor": {"dtype": "DT_INT32", "tensorShape": {"dim": [{"size": "4"}]}}}, "dtype": {"type": "DT_INT32"}}}, {"name": "model_230/tf.strided_slice_65/ones_like", "op": "Const", "attr": {"value": {"tensor": {"dtype": "DT_INT32", "tensorShape": {"dim": [{"size": "4"}]}}}, "dtype": {"type": "DT_INT32"}}}, {"name": "model_230/tf.nn.convolution_752/convolution/filter", "op": "Const", "attr": {"value": {"tensor": {"dtype": "DT_FLOAT", "tensorShape": {"dim": [{"size": "1"}, {"size": "1"}, {"size": "256"}, {"size": "512"}]}}}, "dtype": {"type": "DT_FLOAT"}}}, {"name": "model_230/tf.math.add_362/Add/y", "op": "Const", "attr": {"value": {"tensor": {"dtype": "DT_FLOAT", "tensorShape": {"dim": [{"size": "512"}]}}}, "dtype": {"type": "DT_FLOAT"}}}, {"name": "model_230/tf.compat.v1.transpose_512/transpose/perm", "op": "Const", "attr": {"value": {"tensor": {"dtype": "DT_INT32", "tensorShape": {"dim": [{"size": "4"}]}}}, "dtype": {"type": "DT_INT32"}}}, {"name": "model_230/tf.reshape_108/Reshape/shape", "op": "Const", "attr": {"value": {"tensor": {"dtype": "DT_INT32", "tensorShape": {"dim": [{"size": "4"}]}}}, "dtype": {"type": "DT_INT32"}}}, {"name": "model_230/tf.strided_slice_68/StridedSlice/begin", "op": "Const", "attr": {"value": {"tensor": {"dtype": "DT_INT32", "tensorShape": {"dim": [{"size": "4"}]}}}, "dtype": {"type": "DT_INT32"}}}, {"name": "model_230/tf.strided_slice_68/StridedSlice/end", "op": "Const", "attr": {"value": {"tensor": {"dtype": "DT_INT32", "tensorShape": {"dim": [{"size": "4"}]}}}, "dtype": {"type": "DT_INT32"}}}, {"name": "model_230/tf.strided_slice_68/ones_like", "op": "Const", "attr": {"value": {"tensor": {"dtype": "DT_INT32", "tensorShape": {"dim": [{"size": "4"}]}}}, "dtype": {"type": "DT_INT32"}}}, {"name": "model_230/tf.reshape_111/Reshape/shape", "op": "Const", "attr": {"value": {"tensor": {"dtype": "DT_INT32", "tensorShape": {"dim": [{"size": "4"}]}}}, "dtype": {"type": "DT_INT32"}}}, {"name": "model_230/tf.compat.v1.transpose_520/transpose/perm", "op": "Const", "attr": {"value": {"tensor": {"dtype": "DT_INT32", "tensorShape": {"dim": [{"size": "4"}]}}}, "dtype": {"type": "DT_INT32"}}}, {"name": "model_230/tf.nn.convolution_1008/convolution/filter", "op": "Const", "attr": {"value": {"tensor": {"dtype": "DT_FLOAT", "tensorShape": {"dim": [{"size": "3"}, {"size": "3"}, {"size": "1"}, {"size": "1"}]}}}, "dtype": {"type": "DT_FLOAT"}}}, {"name": "model_230/tf.concat_75/concat/axis", "op": "Const", "attr": {"value": {"tensor": {"dtype": "DT_INT32", "tensorShape": {}}}, "dtype": {"type": "DT_INT32"}}}, {"name": "model_230/tf.nn.convolution_1009/convolution/filter", "op": "Const", "attr": {"value": {"tensor": {"dtype": "DT_FLOAT", "tensorShape": {"dim": [{"size": "1"}, {"size": "1"}, {"size": "256"}, {"size": "256"}]}}}, "dtype": {"type": "DT_FLOAT"}}}, {"name": "model_230/tf.math.add_366/Add/y", "op": "Const", "attr": {"value": {"tensor": {"dtype": "DT_FLOAT", "tensorShape": {"dim": [{"size": "256"}]}}}, "dtype": {"type": "DT_FLOAT"}}}, {"name": "model_230/tf.nn.convolution_1010/convolution/filter", "op": "Const", "attr": {"value": {"tensor": {"dtype": "DT_FLOAT", "tensorShape": {"dim": [{"size": "1"}, {"size": "1"}, {"size": "256"}, {"size": "512"}]}}}, "dtype": {"type": "DT_FLOAT"}}}, {"name": "model_230/tf.math.add_369/Add/y", "op": "Const", "attr": {"value": {"tensor": {"dtype": "DT_FLOAT", "tensorShape": {"dim": [{"size": "512"}]}}}, "dtype": {"type": "DT_FLOAT"}}}, {"name": "model_230/tf.nn.convolution_1011/convolution/filter", "op": "Const", "attr": {"value": {"tensor": {"dtype": "DT_FLOAT", "tensorShape": {"dim": [{"size": "1"}, {"size": "1"}, {"size": "512"}, {"size": "256"}]}}}, "dtype": {"type": "DT_FLOAT"}}}, {"name": "model_230/tf.concat_76/concat/axis", "op": "Const", "attr": {"value": {"tensor": {"dtype": "DT_INT32", "tensorShape": {}}}, "dtype": {"type": "DT_INT32"}}}, {"name": "model_230/tf.nn.convolution_1012/convolution/filter", "op": "Const", "attr": {"value": {"tensor": {"dtype": "DT_FLOAT", "tensorShape": {"dim": [{"size": "1"}, {"size": "1"}, {"size": "512"}, {"size": "512"}]}}}, "dtype": {"type": "DT_FLOAT"}}}, {"name": "model_230/tf.math.add_373/Add/y", "op": "Const", "attr": {"value": {"tensor": {"dtype": "DT_FLOAT", "tensorShape": {"dim": [{"size": "512"}]}}}, "dtype": {"type": "DT_FLOAT"}}}, {"name": "model_230/tf.image.resize_4/resize/size", "op": "Const", "attr": {"value": {"tensor": {"dtype": "DT_INT32", "tensorShape": {"dim": [{"size": "2"}]}}}, "dtype": {"type": "DT_INT32"}}}, {"name": "model_230/tf.strided_slice_60/ones_like/tensor", "op": "Const", "attr": {"value": {"tensor": {"dtype": "DT_INT64", "tensorShape": {"dim": [{"size": "4"}]}}}, "dtype": {"type": "DT_INT64"}}}, {"name": "model_230/tf.strided_slice_60/StridedSlice/end", "op": "Const", "attr": {"value": {"tensor": {"dtype": "DT_INT64", "tensorShape": {"dim": [{"size": "4"}]}}}, "dtype": {"type": "DT_INT64"}}}, {"name": "model_230/tf.strided_slice_60/ones_like", "op": "Const", "attr": {"value": {"tensor": {"dtype": "DT_INT64", "tensorShape": {"dim": [{"size": "4"}]}}}, "dtype": {"type": "DT_INT64"}}}, {"name": "model_230/tf.nn.convolution_731/convolution/filter", "op": "Const", "attr": {"value": {"tensor": {"dtype": "DT_FLOAT", "tensorShape": {"dim": [{"size": "1"}, {"size": "1"}, {"size": "256"}, {"size": "128"}]}}}, "dtype": {"type": "DT_FLOAT"}}}, {"name": "model_230/tf.math.add_333/Add/y", "op": "Const", "attr": {"value": {"tensor": {"dtype": "DT_FLOAT", "tensorShape": {"dim": [{"size": "128"}]}}}, "dtype": {"type": "DT_FLOAT"}}}, {"name": "model_230/tf.nn.convolution_733/convolution/filter", "op": "Const", "attr": {"value": {"tensor": {"dtype": "DT_FLOAT", "tensorShape": {"dim": [{"size": "3"}, {"size": "3"}, {"size": "128"}, {"size": "128"}]}}}, "dtype": {"type": "DT_FLOAT"}}}, {"name": "model_230/tf.math.add_335/Add/y", "op": "Const", "attr": {"value": {"tensor": {"dtype": "DT_FLOAT", "tensorShape": {"dim": [{"size": "128"}]}}}, "dtype": {"type": "DT_FLOAT"}}}, {"name": "model_230/tf.nn.convolution_734/convolution/filter", "op": "Const", "attr": {"value": {"tensor": {"dtype": "DT_FLOAT", "tensorShape": {"dim": [{"size": "3"}, {"size": "3"}, {"size": "128"}, {"size": "128"}]}}}, "dtype": {"type": "DT_FLOAT"}}}, {"name": "model_230/tf.math.add_336/Add/y", "op": "Const", "attr": {"value": {"tensor": {"dtype": "DT_FLOAT", "tensorShape": {"dim": [{"size": "128"}]}}}, "dtype": {"type": "DT_FLOAT"}}}, {"name": "model_230/tf.nn.convolution_735/convolution/filter", "op": "Const", "attr": {"value": {"tensor": {"dtype": "DT_FLOAT", "tensorShape": {"dim": [{"size": "3"}, {"size": "3"}, {"size": "128"}, {"size": "128"}]}}}, "dtype": {"type": "DT_FLOAT"}}}, {"name": "model_230/tf.math.add_339/Add/y", "op": "Const", "attr": {"value": {"tensor": {"dtype": "DT_FLOAT", "tensorShape": {"dim": [{"size": "128"}]}}}, "dtype": {"type": "DT_FLOAT"}}}, {"name": "model_230/tf.nn.convolution_736/convolution/filter", "op": "Const", "attr": {"value": {"tensor": {"dtype": "DT_FLOAT", "tensorShape": {"dim": [{"size": "3"}, {"size": "3"}, {"size": "128"}, {"size": "128"}]}}}, "dtype": {"type": "DT_FLOAT"}}}, {"name": "model_230/tf.math.add_340/Add/y", "op": "Const", "attr": {"value": {"tensor": {"dtype": "DT_FLOAT", "tensorShape": {"dim": [{"size": "128"}]}}}, "dtype": {"type": "DT_FLOAT"}}}, {"name": "model_230/tf.compat.v1.pad_17/Pad/paddings", "op": "Const", "attr": {"value": {"tensor": {"dtype": "DT_INT32", "tensorShape": {"dim": [{"size": "4"}, {"size": "2"}]}}}, "dtype": {"type": "DT_INT32"}}}, {"name": "model_230/tf.nn.convolution_729/convolution/filter", "op": "Const", "attr": {"value": {"tensor": {"dtype": "DT_FLOAT", "tensorShape": {"dim": [{"size": "3"}, {"size": "3"}, {"size": "512"}, {"size": "512"}]}}}, "dtype": {"type": "DT_FLOAT"}}}, {"name": "model_230/tf.math.add_331/Add/y", "op": "Const", "attr": {"value": {"tensor": {"dtype": "DT_FLOAT", "tensorShape": {"dim": [{"size": "512"}]}}}, "dtype": {"type": "DT_FLOAT"}}}, {"name": "model_230/tf.nn.convolution_730/convolution/filter", "op": "Const", "attr": {"value": {"tensor": {"dtype": "DT_FLOAT", "tensorShape": {"dim": [{"size": "1"}, {"size": "1"}, {"size": "512"}, {"size": "512"}]}}}, "dtype": {"type": "DT_FLOAT"}}}, {"name": "model_230/tf.math.add_332/Add/y", "op": "Const", "attr": {"value": {"tensor": {"dtype": "DT_FLOAT", "tensorShape": {"dim": [{"size": "512"}]}}}, "dtype": {"type": "DT_FLOAT"}}}, {"name": "model_230/tf.strided_slice_61/ones_like/tensor", "op": "Const", "attr": {"value": {"tensor": {"dtype": "DT_INT64", "tensorShape": {"dim": [{"size": "4"}]}}}, "dtype": {"type": "DT_INT64"}}}, {"name": "model_230/tf.strided_slice_61/StridedSlice/end", "op": "Const", "attr": {"value": {"tensor": {"dtype": "DT_INT64", "tensorShape": {"dim": [{"size": "4"}]}}}, "dtype": {"type": "DT_INT64"}}}, {"name": "model_230/tf.strided_slice_61/ones_like", "op": "Const", "attr": {"value": {"tensor": {"dtype": "DT_INT64", "tensorShape": {"dim": [{"size": "4"}]}}}, "dtype": {"type": "DT_INT64"}}}, {"name": "model_230/tf.nn.convolution_732/convolution/filter", "op": "Const", "attr": {"value": {"tensor": {"dtype": "DT_FLOAT", "tensorShape": {"dim": [{"size": "1"}, {"size": "1"}, {"size": "256"}, {"size": "128"}]}}}, "dtype": {"type": "DT_FLOAT"}}}, {"name": "model_230/tf.math.add_334/Add/y", "op": "Const", "attr": {"value": {"tensor": {"dtype": "DT_FLOAT", "tensorShape": {"dim": [{"size": "128"}]}}}, "dtype": {"type": "DT_FLOAT"}}}, {"name": "model_230/tf.concat_70/concat/axis", "op": "Const", "attr": {"value": {"tensor": {"dtype": "DT_INT32", "tensorShape": {}}}, "dtype": {"type": "DT_INT32"}}}, {"name": "model_230/tf.nn.convolution_737/convolution/filter", "op": "Const", "attr": {"value": {"tensor": {"dtype": "DT_FLOAT", "tensorShape": {"dim": [{"size": "1"}, {"size": "1"}, {"size": "256"}, {"size": "256"}]}}}, "dtype": {"type": "DT_FLOAT"}}}, {"name": "model_230/tf.math.add_343/Add/y", "op": "Const", "attr": {"value": {"tensor": {"dtype": "DT_FLOAT", "tensorShape": {"dim": [{"size": "256"}]}}}, "dtype": {"type": "DT_FLOAT"}}}, {"name": "model_230/tf.concat_71/concat/axis", "op": "Const", "attr": {"value": {"tensor": {"dtype": "DT_INT32", "tensorShape": {}}}, "dtype": {"type": "DT_INT32"}}}, {"name": "model_230/tf.nn.convolution_738/convolution/filter", "op": "Const", "attr": {"value": {"tensor": {"dtype": "DT_FLOAT", "tensorShape": {"dim": [{"size": "1"}, {"size": "1"}, {"size": "768"}, {"size": "512"}]}}}, "dtype": {"type": "DT_FLOAT"}}}, {"name": "model_230/tf.math.add_344/Add/y", "op": "Const", "attr": {"value": {"tensor": {"dtype": "DT_FLOAT", "tensorShape": {"dim": [{"size": "512"}]}}}, "dtype": {"type": "DT_FLOAT"}}}, {"name": "model_230/tf.concat_77/concat/axis", "op": "Const", "attr": {"value": {"tensor": {"dtype": "DT_INT32", "tensorShape": {}}}, "dtype": {"type": "DT_INT32"}}}, {"name": "model_230/tf.nn.convolution_1013/convolution/filter", "op": "Const", "attr": {"value": {"tensor": {"dtype": "DT_FLOAT", "tensorShape": {"dim": [{"size": "1"}, {"size": "1"}, {"size": "1024"}, {"size": "512"}]}}}, "dtype": {"type": "DT_FLOAT"}}}, {"name": "model_230/tf.math.add_374/Add/y", "op": "Const", "attr": {"value": {"tensor": {"dtype": "DT_FLOAT", "tensorShape": {"dim": [{"size": "512"}]}}}, "dtype": {"type": "DT_FLOAT"}}}, {"name": "model_230/tf.strided_slice_70/ones_like/tensor", "op": "Const", "attr": {"value": {"tensor": {"dtype": "DT_INT64", "tensorShape": {"dim": [{"size": "4"}]}}}, "dtype": {"type": "DT_INT64"}}}, {"name": "model_230/tf.strided_slice_70/StridedSlice/end", "op": "Const", "attr": {"value": {"tensor": {"dtype": "DT_INT64", "tensorShape": {"dim": [{"size": "4"}]}}}, "dtype": {"type": "DT_INT64"}}}, {"name": "model_230/tf.strided_slice_70/ones_like", "op": "Const", "attr": {"value": {"tensor": {"dtype": "DT_INT64", "tensorShape": {"dim": [{"size": "4"}]}}}, "dtype": {"type": "DT_INT64"}}}, {"name": "model_230/tf.nn.convolution_1015/convolution/filter", "op": "Const", "attr": {"value": {"tensor": {"dtype": "DT_FLOAT", "tensorShape": {"dim": [{"size": "1"}, {"size": "1"}, {"size": "256"}, {"size": "128"}]}}}, "dtype": {"type": "DT_FLOAT"}}}, {"name": "model_230/tf.math.add_376/Add/y", "op": "Const", "attr": {"value": {"tensor": {"dtype": "DT_FLOAT", "tensorShape": {"dim": [{"size": "128"}]}}}, "dtype": {"type": "DT_FLOAT"}}}, {"name": "model_230/tf.concat_78/concat/axis", "op": "Const", "attr": {"value": {"tensor": {"dtype": "DT_INT32", "tensorShape": {}}}, "dtype": {"type": "DT_INT32"}}}, {"name": "model_230/tf.nn.convolution_1020/convolution/filter", "op": "Const", "attr": {"value": {"tensor": {"dtype": "DT_FLOAT", "tensorShape": {"dim": [{"size": "1"}, {"size": "1"}, {"size": "256"}, {"size": "256"}]}}}, "dtype": {"type": "DT_FLOAT"}}}, {"name": "model_230/tf.math.add_385/Add/y", "op": "Const", "attr": {"value": {"tensor": {"dtype": "DT_FLOAT", "tensorShape": {"dim": [{"size": "256"}]}}}, "dtype": {"type": "DT_FLOAT"}}}, {"name": "model_230/tf.concat_79/concat/axis", "op": "Const", "attr": {"value": {"tensor": {"dtype": "DT_INT32", "tensorShape": {}}}, "dtype": {"type": "DT_INT32"}}}, {"name": "model_230/tf.nn.convolution_1021/convolution/filter", "op": "Const", "attr": {"value": {"tensor": {"dtype": "DT_FLOAT", "tensorShape": {"dim": [{"size": "1"}, {"size": "1"}, {"size": "768"}, {"size": "512"}]}}}, "dtype": {"type": "DT_FLOAT"}}}, {"name": "model_230/tf.math.add_386/Add/y", "op": "Const", "attr": {"value": {"tensor": {"dtype": "DT_FLOAT", "tensorShape": {"dim": [{"size": "512"}]}}}, "dtype": {"type": "DT_FLOAT"}}}, {"name": "model_230/tf.image.resize_5/resize/size", "op": "Const", "attr": {"value": {"tensor": {"dtype": "DT_INT32", "tensorShape": {"dim": [{"size": "2"}]}}}, "dtype": {"type": "DT_INT32"}}}, {"name": "model_230/tf.strided_slice_58/ones_like/tensor", "op": "Const", "attr": {"value": {"tensor": {"dtype": "DT_INT64", "tensorShape": {"dim": [{"size": "4"}]}}}, "dtype": {"type": "DT_INT64"}}}, {"name": "model_230/tf.strided_slice_58/StridedSlice/end", "op": "Const", "attr": {"value": {"tensor": {"dtype": "DT_INT64", "tensorShape": {"dim": [{"size": "4"}]}}}, "dtype": {"type": "DT_INT64"}}}, {"name": "model_230/tf.strided_slice_58/ones_like", "op": "Const", "attr": {"value": {"tensor": {"dtype": "DT_INT64", "tensorShape": {"dim": [{"size": "4"}]}}}, "dtype": {"type": "DT_INT64"}}}, {"name": "model_230/tf.nn.convolution_721/convolution/filter", "op": "Const", "attr": {"value": {"tensor": {"dtype": "DT_FLOAT", "tensorShape": {"dim": [{"size": "1"}, {"size": "1"}, {"size": "128"}, {"size": "64"}]}}}, "dtype": {"type": "DT_FLOAT"}}}, {"name": "model_230/tf.math.add_319/Add/y", "op": "Const", "attr": {"value": {"tensor": {"dtype": "DT_FLOAT", "tensorShape": {"dim": [{"size": "64"}]}}}, "dtype": {"type": "DT_FLOAT"}}}, {"name": "model_230/tf.nn.convolution_723/convolution/filter", "op": "Const", "attr": {"value": {"tensor": {"dtype": "DT_FLOAT", "tensorShape": {"dim": [{"size": "3"}, {"size": "3"}, {"size": "64"}, {"size": "64"}]}}}, "dtype": {"type": "DT_FLOAT"}}}, {"name": "model_230/tf.math.add_321/Add/y", "op": "Const", "attr": {"value": {"tensor": {"dtype": "DT_FLOAT", "tensorShape": {"dim": [{"size": "64"}]}}}, "dtype": {"type": "DT_FLOAT"}}}, {"name": "model_230/tf.nn.convolution_724/convolution/filter", "op": "Const", "attr": {"value": {"tensor": {"dtype": "DT_FLOAT", "tensorShape": {"dim": [{"size": "3"}, {"size": "3"}, {"size": "64"}, {"size": "64"}]}}}, "dtype": {"type": "DT_FLOAT"}}}, {"name": "model_230/tf.math.add_322/Add/y", "op": "Const", "attr": {"value": {"tensor": {"dtype": "DT_FLOAT", "tensorShape": {"dim": [{"size": "64"}]}}}, "dtype": {"type": "DT_FLOAT"}}}, {"name": "model_230/tf.nn.convolution_725/convolution/filter", "op": "Const", "attr": {"value": {"tensor": {"dtype": "DT_FLOAT", "tensorShape": {"dim": [{"size": "3"}, {"size": "3"}, {"size": "64"}, {"size": "64"}]}}}, "dtype": {"type": "DT_FLOAT"}}}, {"name": "model_230/tf.math.add_325/Add/y", "op": "Const", "attr": {"value": {"tensor": {"dtype": "DT_FLOAT", "tensorShape": {"dim": [{"size": "64"}]}}}, "dtype": {"type": "DT_FLOAT"}}}, {"name": "model_230/tf.nn.convolution_726/convolution/filter", "op": "Const", "attr": {"value": {"tensor": {"dtype": "DT_FLOAT", "tensorShape": {"dim": [{"size": "3"}, {"size": "3"}, {"size": "64"}, {"size": "64"}]}}}, "dtype": {"type": "DT_FLOAT"}}}, {"name": "model_230/tf.math.add_326/Add/y", "op": "Const", "attr": {"value": {"tensor": {"dtype": "DT_FLOAT", "tensorShape": {"dim": [{"size": "64"}]}}}, "dtype": {"type": "DT_FLOAT"}}}, {"name": "model_230/tf.strided_slice_56/ones_like/tensor", "op": "Const", "attr": {"value": {"tensor": {"dtype": "DT_INT64", "tensorShape": {"dim": [{"size": "4"}]}}}, "dtype": {"type": "DT_INT64"}}}, {"name": "model_230/tf.strided_slice_56/StridedSlice/end", "op": "Const", "attr": {"value": {"tensor": {"dtype": "DT_INT64", "tensorShape": {"dim": [{"size": "4"}]}}}, "dtype": {"type": "DT_INT64"}}}, {"name": "model_230/tf.strided_slice_56/ones_like", "op": "Const", "attr": {"value": {"tensor": {"dtype": "DT_INT64", "tensorShape": {"dim": [{"size": "4"}]}}}, "dtype": {"type": "DT_INT64"}}}, {"name": "model_230/tf.nn.convolution_711/convolution/filter", "op": "Const", "attr": {"value": {"tensor": {"dtype": "DT_FLOAT", "tensorShape": {"dim": [{"size": "1"}, {"size": "1"}, {"size": "64"}, {"size": "32"}]}}}, "dtype": {"type": "DT_FLOAT"}}}, {"name": "model_230/tf.math.add_305/Add/y", "op": "Const", "attr": {"value": {"tensor": {"dtype": "DT_FLOAT", "tensorShape": {"dim": [{"size": "32"}]}}}, "dtype": {"type": "DT_FLOAT"}}}, {"name": "model_230/tf.nn.convolution_713/convolution/filter", "op": "Const", "attr": {"value": {"tensor": {"dtype": "DT_FLOAT", "tensorShape": {"dim": [{"size": "3"}, {"size": "3"}, {"size": "32"}, {"size": "32"}]}}}, "dtype": {"type": "DT_FLOAT"}}}, {"name": "model_230/tf.math.add_307/Add/y", "op": "Const", "attr": {"value": {"tensor": {"dtype": "DT_FLOAT", "tensorShape": {"dim": [{"size": "32"}]}}}, "dtype": {"type": "DT_FLOAT"}}}, {"name": "model_230/tf.nn.convolution_714/convolution/filter", "op": "Const", "attr": {"value": {"tensor": {"dtype": "DT_FLOAT", "tensorShape": {"dim": [{"size": "3"}, {"size": "3"}, {"size": "32"}, {"size": "32"}]}}}, "dtype": {"type": "DT_FLOAT"}}}, {"name": "model_230/tf.math.add_308/Add/y", "op": "Const", "attr": {"value": {"tensor": {"dtype": "DT_FLOAT", "tensorShape": {"dim": [{"size": "32"}]}}}, "dtype": {"type": "DT_FLOAT"}}}, {"name": "model_230/tf.nn.convolution_715/convolution/filter", "op": "Const", "attr": {"value": {"tensor": {"dtype": "DT_FLOAT", "tensorShape": {"dim": [{"size": "3"}, {"size": "3"}, {"size": "32"}, {"size": "32"}]}}}, "dtype": {"type": "DT_FLOAT"}}}, {"name": "model_230/tf.math.add_311/Add/y", "op": "Const", "attr": {"value": {"tensor": {"dtype": "DT_FLOAT", "tensorShape": {"dim": [{"size": "32"}]}}}, "dtype": {"type": "DT_FLOAT"}}}, {"name": "model_230/tf.nn.convolution_716/convolution/filter", "op": "Const", "attr": {"value": {"tensor": {"dtype": "DT_FLOAT", "tensorShape": {"dim": [{"size": "3"}, {"size": "3"}, {"size": "32"}, {"size": "32"}]}}}, "dtype": {"type": "DT_FLOAT"}}}, {"name": "model_230/tf.math.add_312/Add/y", "op": "Const", "attr": {"value": {"tensor": {"dtype": "DT_FLOAT", "tensorShape": {"dim": [{"size": "32"}]}}}, "dtype": {"type": "DT_FLOAT"}}}, {"name": "model_230/tf.compat.v1.pad_14/Pad/paddings", "op": "Const", "attr": {"value": {"tensor": {"dtype": "DT_INT32", "tensorShape": {"dim": [{"size": "4"}, {"size": "2"}]}}}, "dtype": {"type": "DT_INT32"}}}, {"name": "model_230/tf.nn.convolution_708/convolution/filter", "op": "Const", "attr": {"value": {"tensor": {"dtype": "DT_FLOAT", "tensorShape": {"dim": [{"size": "3"}, {"size": "3"}, {"size": "3"}, {"size": "64"}]}}}, "dtype": {"type": "DT_FLOAT"}}}, {"name": "model_230/tf.math.add_302/Add/y", "op": "Const", "attr": {"value": {"tensor": {"dtype": "DT_FLOAT", "tensorShape": {"dim": [{"size": "64"}]}}}, "dtype": {"type": "DT_FLOAT"}}}, {"name": "model_230/tf.compat.v1.pad_15/Pad/paddings", "op": "Const", "attr": {"value": {"tensor": {"dtype": "DT_INT32", "tensorShape": {"dim": [{"size": "4"}, {"size": "2"}]}}}, "dtype": {"type": "DT_INT32"}}}, {"name": "model_230/tf.nn.convolution_709/convolution/filter", "op": "Const", "attr": {"value": {"tensor": {"dtype": "DT_FLOAT", "tensorShape": {"dim": [{"size": "3"}, {"size": "3"}, {"size": "64"}, {"size": "128"}]}}}, "dtype": {"type": "DT_FLOAT"}}}, {"name": "model_230/tf.math.add_303/Add/y", "op": "Const", "attr": {"value": {"tensor": {"dtype": "DT_FLOAT", "tensorShape": {"dim": [{"size": "128"}]}}}, "dtype": {"type": "DT_FLOAT"}}}, {"name": "model_230/tf.nn.convolution_710/convolution/filter", "op": "Const", "attr": {"value": {"tensor": {"dtype": "DT_FLOAT", "tensorShape": {"dim": [{"size": "1"}, {"size": "1"}, {"size": "128"}, {"size": "128"}]}}}, "dtype": {"type": "DT_FLOAT"}}}, {"name": "model_230/tf.math.add_304/Add/y", "op": "Const", "attr": {"value": {"tensor": {"dtype": "DT_FLOAT", "tensorShape": {"dim": [{"size": "128"}]}}}, "dtype": {"type": "DT_FLOAT"}}}, {"name": "model_230/tf.strided_slice_57/ones_like/tensor", "op": "Const", "attr": {"value": {"tensor": {"dtype": "DT_INT64", "tensorShape": {"dim": [{"size": "4"}]}}}, "dtype": {"type": "DT_INT64"}}}, {"name": "model_230/tf.strided_slice_57/StridedSlice/end", "op": "Const", "attr": {"value": {"tensor": {"dtype": "DT_INT64", "tensorShape": {"dim": [{"size": "4"}]}}}, "dtype": {"type": "DT_INT64"}}}, {"name": "model_230/tf.strided_slice_57/ones_like", "op": "Const", "attr": {"value": {"tensor": {"dtype": "DT_INT64", "tensorShape": {"dim": [{"size": "4"}]}}}, "dtype": {"type": "DT_INT64"}}}, {"name": "model_230/tf.nn.convolution_712/convolution/filter", "op": "Const", "attr": {"value": {"tensor": {"dtype": "DT_FLOAT", "tensorShape": {"dim": [{"size": "1"}, {"size": "1"}, {"size": "64"}, {"size": "32"}]}}}, "dtype": {"type": "DT_FLOAT"}}}, {"name": "model_230/tf.math.add_306/Add/y", "op": "Const", "attr": {"value": {"tensor": {"dtype": "DT_FLOAT", "tensorShape": {"dim": [{"size": "32"}]}}}, "dtype": {"type": "DT_FLOAT"}}}, {"name": "model_230/tf.concat_66/concat/axis", "op": "Const", "attr": {"value": {"tensor": {"dtype": "DT_INT32", "tensorShape": {}}}, "dtype": {"type": "DT_INT32"}}}, {"name": "model_230/tf.nn.convolution_717/convolution/filter", "op": "Const", "attr": {"value": {"tensor": {"dtype": "DT_FLOAT", "tensorShape": {"dim": [{"size": "1"}, {"size": "1"}, {"size": "64"}, {"size": "64"}]}}}, "dtype": {"type": "DT_FLOAT"}}}, {"name": "model_230/tf.math.add_315/Add/y", "op": "Const", "attr": {"value": {"tensor": {"dtype": "DT_FLOAT", "tensorShape": {"dim": [{"size": "64"}]}}}, "dtype": {"type": "DT_FLOAT"}}}, {"name": "model_230/tf.concat_67/concat/axis", "op": "Const", "attr": {"value": {"tensor": {"dtype": "DT_INT32", "tensorShape": {}}}, "dtype": {"type": "DT_INT32"}}}, {"name": "model_230/tf.nn.convolution_718/convolution/filter", "op": "Const", "attr": {"value": {"tensor": {"dtype": "DT_FLOAT", "tensorShape": {"dim": [{"size": "1"}, {"size": "1"}, {"size": "192"}, {"size": "256"}]}}}, "dtype": {"type": "DT_FLOAT"}}}, {"name": "model_230/tf.math.add_316/Add/y", "op": "Const", "attr": {"value": {"tensor": {"dtype": "DT_FLOAT", "tensorShape": {"dim": [{"size": "256"}]}}}, "dtype": {"type": "DT_FLOAT"}}}, {"name": "model_230/tf.compat.v1.pad_16/Pad/paddings", "op": "Const", "attr": {"value": {"tensor": {"dtype": "DT_INT32", "tensorShape": {"dim": [{"size": "4"}, {"size": "2"}]}}}, "dtype": {"type": "DT_INT32"}}}, {"name": "model_230/tf.nn.convolution_719/convolution/filter", "op": "Const", "attr": {"value": {"tensor": {"dtype": "DT_FLOAT", "tensorShape": {"dim": [{"size": "3"}, {"size": "3"}, {"size": "256"}, {"size": "256"}]}}}, "dtype": {"type": "DT_FLOAT"}}}, {"name": "model_230/tf.math.add_317/Add/y", "op": "Const", "attr": {"value": {"tensor": {"dtype": "DT_FLOAT", "tensorShape": {"dim": [{"size": "256"}]}}}, "dtype": {"type": "DT_FLOAT"}}}, {"name": "model_230/tf.nn.convolution_720/convolution/filter", "op": "Const", "attr": {"value": {"tensor": {"dtype": "DT_FLOAT", "tensorShape": {"dim": [{"size": "1"}, {"size": "1"}, {"size": "256"}, {"size": "256"}]}}}, "dtype": {"type": "DT_FLOAT"}}}, {"name": "model_230/tf.math.add_318/Add/y", "op": "Const", "attr": {"value": {"tensor": {"dtype": "DT_FLOAT", "tensorShape": {"dim": [{"size": "256"}]}}}, "dtype": {"type": "DT_FLOAT"}}}, {"name": "model_230/tf.strided_slice_59/ones_like/tensor", "op": "Const", "attr": {"value": {"tensor": {"dtype": "DT_INT64", "tensorShape": {"dim": [{"size": "4"}]}}}, "dtype": {"type": "DT_INT64"}}}, {"name": "model_230/tf.strided_slice_59/StridedSlice/end", "op": "Const", "attr": {"value": {"tensor": {"dtype": "DT_INT64", "tensorShape": {"dim": [{"size": "4"}]}}}, "dtype": {"type": "DT_INT64"}}}, {"name": "model_230/tf.strided_slice_59/ones_like", "op": "Const", "attr": {"value": {"tensor": {"dtype": "DT_INT64", "tensorShape": {"dim": [{"size": "4"}]}}}, "dtype": {"type": "DT_INT64"}}}, {"name": "model_230/tf.nn.convolution_722/convolution/filter", "op": "Const", "attr": {"value": {"tensor": {"dtype": "DT_FLOAT", "tensorShape": {"dim": [{"size": "1"}, {"size": "1"}, {"size": "128"}, {"size": "64"}]}}}, "dtype": {"type": "DT_FLOAT"}}}, {"name": "model_230/tf.math.add_320/Add/y", "op": "Const", "attr": {"value": {"tensor": {"dtype": "DT_FLOAT", "tensorShape": {"dim": [{"size": "64"}]}}}, "dtype": {"type": "DT_FLOAT"}}}, {"name": "model_230/tf.concat_68/concat/axis", "op": "Const", "attr": {"value": {"tensor": {"dtype": "DT_INT32", "tensorShape": {}}}, "dtype": {"type": "DT_INT32"}}}, {"name": "model_230/tf.nn.convolution_727/convolution/filter", "op": "Const", "attr": {"value": {"tensor": {"dtype": "DT_FLOAT", "tensorShape": {"dim": [{"size": "1"}, {"size": "1"}, {"size": "128"}, {"size": "128"}]}}}, "dtype": {"type": "DT_FLOAT"}}}, {"name": "model_230/tf.math.add_329/Add/y", "op": "Const", "attr": {"value": {"tensor": {"dtype": "DT_FLOAT", "tensorShape": {"dim": [{"size": "128"}]}}}, "dtype": {"type": "DT_FLOAT"}}}, {"name": "model_230/tf.concat_69/concat/axis", "op": "Const", "attr": {"value": {"tensor": {"dtype": "DT_INT32", "tensorShape": {}}}, "dtype": {"type": "DT_INT32"}}}, {"name": "model_230/tf.nn.convolution_728/convolution/filter", "op": "Const", "attr": {"value": {"tensor": {"dtype": "DT_FLOAT", "tensorShape": {"dim": [{"size": "1"}, {"size": "1"}, {"size": "384"}, {"size": "512"}]}}}, "dtype": {"type": "DT_FLOAT"}}}, {"name": "model_230/tf.math.add_330/Add/y", "op": "Const", "attr": {"value": {"tensor": {"dtype": "DT_FLOAT", "tensorShape": {"dim": [{"size": "512"}]}}}, "dtype": {"type": "DT_FLOAT"}}}, {"name": "model_230/tf.concat_80/concat/axis", "op": "Const", "attr": {"value": {"tensor": {"dtype": "DT_INT32", "tensorShape": {}}}, "dtype": {"type": "DT_INT32"}}}, {"name": "model_230/tf.nn.convolution_1022/convolution/filter", "op": "Const", "attr": {"value": {"tensor": {"dtype": "DT_FLOAT", "tensorShape": {"dim": [{"size": "1"}, {"size": "1"}, {"size": "1024"}, {"size": "256"}]}}}, "dtype": {"type": "DT_FLOAT"}}}, {"name": "model_230/tf.math.add_387/Add/y", "op": "Const", "attr": {"value": {"tensor": {"dtype": "DT_FLOAT", "tensorShape": {"dim": [{"size": "256"}]}}}, "dtype": {"type": "DT_FLOAT"}}}, {"name": "model_230/tf.strided_slice_72/ones_like/tensor", "op": "Const", "attr": {"value": {"tensor": {"dtype": "DT_INT64", "tensorShape": {"dim": [{"size": "4"}]}}}, "dtype": {"type": "DT_INT64"}}}, {"name": "model_230/tf.strided_slice_72/StridedSlice/end", "op": "Const", "attr": {"value": {"tensor": {"dtype": "DT_INT64", "tensorShape": {"dim": [{"size": "4"}]}}}, "dtype": {"type": "DT_INT64"}}}, {"name": "model_230/tf.strided_slice_72/ones_like", "op": "Const", "attr": {"value": {"tensor": {"dtype": "DT_INT64", "tensorShape": {"dim": [{"size": "4"}]}}}, "dtype": {"type": "DT_INT64"}}}, {"name": "model_230/tf.nn.convolution_1024/convolution/filter", "op": "Const", "attr": {"value": {"tensor": {"dtype": "DT_FLOAT", "tensorShape": {"dim": [{"size": "1"}, {"size": "1"}, {"size": "128"}, {"size": "64"}]}}}, "dtype": {"type": "DT_FLOAT"}}}, {"name": "model_230/tf.math.add_389/Add/y", "op": "Const", "attr": {"value": {"tensor": {"dtype": "DT_FLOAT", "tensorShape": {"dim": [{"size": "64"}]}}}, "dtype": {"type": "DT_FLOAT"}}}, {"name": "model_230/tf.concat_81/concat/axis", "op": "Const", "attr": {"value": {"tensor": {"dtype": "DT_INT32", "tensorShape": {}}}, "dtype": {"type": "DT_INT32"}}}, {"name": "model_230/tf.nn.convolution_1029/convolution/filter", "op": "Const", "attr": {"value": {"tensor": {"dtype": "DT_FLOAT", "tensorShape": {"dim": [{"size": "1"}, {"size": "1"}, {"size": "128"}, {"size": "128"}]}}}, "dtype": {"type": "DT_FLOAT"}}}, {"name": "model_230/tf.math.add_398/Add/y", "op": "Const", "attr": {"value": {"tensor": {"dtype": "DT_FLOAT", "tensorShape": {"dim": [{"size": "128"}]}}}, "dtype": {"type": "DT_FLOAT"}}}, {"name": "model_230/tf.concat_82/concat/axis", "op": "Const", "attr": {"value": {"tensor": {"dtype": "DT_INT32", "tensorShape": {}}}, "dtype": {"type": "DT_INT32"}}}, {"name": "model_230/tf.nn.convolution_1030/convolution/filter", "op": "Const", "attr": {"value": {"tensor": {"dtype": "DT_FLOAT", "tensorShape": {"dim": [{"size": "1"}, {"size": "1"}, {"size": "384"}, {"size": "256"}]}}}, "dtype": {"type": "DT_FLOAT"}}}, {"name": "model_230/tf.math.add_399/Add/y", "op": "Const", "attr": {"value": {"tensor": {"dtype": "DT_FLOAT", "tensorShape": {"dim": [{"size": "256"}]}}}, "dtype": {"type": "DT_FLOAT"}}}, {"name": "model_230/tf.nn.convolution_1034/convolution/filter", "op": "Const", "attr": {"value": {"tensor": {"dtype": "DT_FLOAT", "tensorShape": {"dim": [{"size": "3"}, {"size": "3"}, {"size": "256"}, {"size": "256"}]}}}, "dtype": {"type": "DT_FLOAT"}}}, {"name": "model_230/tf.math.add_404/Add/y", "op": "Const", "attr": {"value": {"tensor": {"dtype": "DT_FLOAT", "tensorShape": {"dim": [{"size": "256"}]}}}, "dtype": {"type": "DT_FLOAT"}}}, {"name": "model_230/tf.math.add_408/Add/y", "op": "Const", "attr": {"value": {"tensor": {"dtype": "DT_FLOAT", "tensorShape": {"dim": [{"size": "256"}]}}}, "dtype": {"type": "DT_FLOAT"}}}, {"name": "model_230/tf.nn.convolution_1039/convolution/filter", "op": "Const", "attr": {"value": {"tensor": {"dtype": "DT_FLOAT", "tensorShape": {"dim": [{"size": "3"}, {"size": "3"}, {"size": "256"}, {"size": "256"}]}}}, "dtype": {"type": "DT_FLOAT"}}}, {"name": "model_230/tf.math.add_410/Add/y", "op": "Const", "attr": {"value": {"tensor": {"dtype": "DT_FLOAT", "tensorShape": {"dim": [{"size": "256"}]}}}, "dtype": {"type": "DT_FLOAT"}}}, {"name": "model_230/tf.nn.convolution_1042/convolution/filter", "op": "Const", "attr": {"value": {"tensor": {"dtype": "DT_FLOAT", "tensorShape": {"dim": [{"size": "1"}, {"size": "1"}, {"size": "256"}, {"size": "32"}]}}}, "dtype": {"type": "DT_FLOAT"}}}, {"name": "model_230/tf.math.add_414/Add/y", "op": "Const", "attr": {"value": {"tensor": {"dtype": "DT_FLOAT", "tensorShape": {"dim": [{"size": "32"}]}}}, "dtype": {"type": "DT_FLOAT"}}}, {"name": "x", "op": "Placeholder", "attr": {"shape": {"shape": {"dim": [{"size": "1"}, {"size": "640"}, {"size": "640"}, {"size": "3"}]}}, "dtype": {"type": "DT_FLOAT"}}}, {"name": "model_230/tf.compat.v1.pad_14/Pad", "op": "Pad", "input": ["x", "model_230/tf.compat.v1.pad_14/Pad/paddings"], "attr": {"Tpaddings": {"type": "DT_INT32"}, "T": {"type": "DT_FLOAT"}}}, {"name": "model_230/tf.math.add_302/Add", "op": "_FusedConv2D", "input": ["model_230/tf.compat.v1.pad_14/Pad", "model_230/tf.nn.convolution_708/convolution/filter", "model_230/tf.math.add_302/Add/y"], "device": "/device:CPU:0", "attr": {"num_host_args": {"i": "0"}, "data_format": {"s": "TkhXQw=="}, "filter_format": {"s": "SFdJTw=="}, "fused_ops": {"list": {"s": ["Qmlhc0FkZA=="]}}, "num_args": {"i": "1"}, "strides": {"list": {"i": ["1", "2", "2", "1"]}}, "TArgs": {"list": {"type": ["DT_FLOAT"]}}, "padding": {"s": "VkFMSUQ="}, "use_cudnn_on_gpu": {"b": true}, "leakyrelu_alpha": {"f": 0.2}, "epsilon": {"f": 0.0}, "T": {"type": "DT_FLOAT"}, "explicit_paddings": {"list": {}}, "dilations": {"list": {"i": ["1", "1", "1", "1"]}}}}, {"name": "model_230/tf.math.sigmoid_176/Sigmoid", "op": "Sigmoid", "input": ["model_230/tf.math.add_302/Add"], "attr": {"T": {"type": "DT_FLOAT"}}}, {"name": "model_230/tf.math.multiply_809/Mul", "op": "Mul", "input": ["model_230/tf.math.add_302/Add", "model_230/tf.math.sigmoid_176/Sigmoid"], "attr": {"T": {"type": "DT_FLOAT"}}}, {"name": "model_230/tf.compat.v1.pad_15/Pad", "op": "Pad", "input": ["model_230/tf.math.multiply_809/Mul", "model_230/tf.compat.v1.pad_15/Pad/paddings"], "attr": {"Tpaddings": {"type": "DT_INT32"}, "T": {"type": "DT_FLOAT"}}}, {"name": "model_230/tf.math.add_303/Add", "op": "_FusedConv2D", "input": ["model_230/tf.compat.v1.pad_15/Pad", "model_230/tf.nn.convolution_709/convolution/filter", "model_230/tf.math.add_303/Add/y"], "device": "/device:CPU:0", "attr": {"num_host_args": {"i": "0"}, "data_format": {"s": "TkhXQw=="}, "filter_format": {"s": "SFdJTw=="}, "fused_ops": {"list": {"s": ["Qmlhc0FkZA=="]}}, "num_args": {"i": "1"}, "strides": {"list": {"i": ["1", "2", "2", "1"]}}, "TArgs": {"list": {"type": ["DT_FLOAT"]}}, "padding": {"s": "VkFMSUQ="}, "use_cudnn_on_gpu": {"b": true}, "leakyrelu_alpha": {"f": 0.2}, "epsilon": {"f": 0.0}, "T": {"type": "DT_FLOAT"}, "explicit_paddings": {"list": {}}, "dilations": {"list": {"i": ["1", "1", "1", "1"]}}}}, {"name": "model_230/tf.math.sigmoid_177/Sigmoid", "op": "Sigmoid", "input": ["model_230/tf.math.add_303/Add"], "attr": {"T": {"type": "DT_FLOAT"}}}, {"name": "model_230/tf.math.multiply_813/Mul", "op": "Mul", "input": ["model_230/tf.math.add_303/Add", "model_230/tf.math.sigmoid_177/Sigmoid"], "attr": {"T": {"type": "DT_FLOAT"}}}, {"name": "model_230/tf.math.add_304/Add", "op": "_FusedConv2D", "input": ["model_230/tf.math.multiply_813/Mul", "model_230/tf.nn.convolution_710/convolution/filter", "model_230/tf.math.add_304/Add/y"], "device": "/device:CPU:0", "attr": {"num_host_args": {"i": "0"}, "data_format": {"s": "Tk…
: "float32"}, {"name": "model_230/tf.math.add_441/Add/y", "shape": [128], "dtype": "float32"}, {"name": "model_230/tf.concat_87/concat/axis", "shape": [], "dtype": "int32"}, {"name": "model_230/tf.nn.convolution_1070/convolution/filter", "shape": [1, 1, 256, 256], "dtype": "float32"}, {"name": "model_230/tf.math.add_452/Add/y", "shape": [256], "dtype": "float32"}, {"name": "model_230/tf.concat_88/concat/axis", "shape": [], "dtype": "int32"}, {"name": "model_230/tf.nn.convolution_1071/convolution/filter", "shape": [1, 1, 768, 512], "dtype": "float32"}, {"name": "model_230/tf.math.add_453/Add/y", "shape": [512], "dtype": "float32"}, {"name": "model_230/tf.nn.convolution_1073/convolution/filter", "shape": [3, 3, 512, 64], "dtype": "float32"}, {"name": "model_230/tf.math.add_456/Add/y", "shape": [64], "dtype": "float32"}, {"name": "model_230/tf.nn.convolution_1076/convolution/filter", "shape": [3, 3, 64, 64], "dtype": "float32"}, {"name": "model_230/tf.math.add_459/Add/y", "shape": [64], "dtype": "float32"}, {"name": "model_230/tf.nn.convolution_1078/convolution/filter", "shape": [1, 1, 64, 32], "dtype": "float32"}, {"name": "model_230/tf.math.add_462/Add/y", "shape": [32], "dtype": "float32"}, {"name": "model_230/tf.compat.v1.transpose_641/transpose/perm", "shape": [4], "dtype": "int32"}, {"name": "model_230/tf.reshape_138/Reshape/shape", "shape": [3], "dtype": "int32"}, {"name": "model_230/tf.concat_90/concat/axis", "shape": [], "dtype": "int32"}, {"name": "model_230/output0/concat/axis", "shape": [], "dtype": "int32"}, {"name": "model_230/tf.nn.conv2d_transpose/conv2d_transpose/input_sizes", "shape": [4], "dtype": "int32"}, {"name": "model_230/tf.nn.conv2d_transpose/conv2d_transpose/filter", "shape": [2, 2, 256, 256], "dtype": "float32"}, {"name": "model_230/tf.strided_slice_71/ones_like/tensor", "shape": [4], "dtype": "int32"}, {"name": "model_230/tf.strided_slice_71/StridedSlice/end", "shape": [4], "dtype": "int32"}, {"name": "model_230/tf.strided_slice_71/ones_like", "shape": [4], "dtype": "int32"}, {"name": "model_230/tf.nn.convolution_1023/convolution/filter", "shape": [1, 1, 128, 64], "dtype": "float32"}, {"name": "model_230/tf.math.add_388/Add/y", "shape": [64], "dtype": "float32"}, {"name": "model_230/tf.nn.convolution_1025/convolution/filter", "shape": [3, 3, 64, 64], "dtype": "float32"}, {"name": "model_230/tf.math.add_390/Add/y", "shape": [64], "dtype": "float32"}, {"name": "model_230/tf.nn.convolution_1026/convolution/filter", "shape": [3, 3, 64, 64], "dtype": "float32"}, {"name": "model_230/tf.math.add_391/Add/y", "shape": [64], "dtype": "float32"}, {"name": "model_230/tf.nn.convolution_1027/convolution/filter", "shape": [3, 3, 64, 64], "dtype": "float32"}, {"name": "model_230/tf.math.add_394/Add/y", "shape": [64], "dtype": "float32"}, {"name": "model_230/tf.nn.convolution_1028/convolution/filter", "shape": [3, 3, 64, 64], "dtype": "float32"}, {"name": "model_230/tf.math.add_395/Add/y", "shape": [64], "dtype": "float32"}, {"name": "model_230/tf.strided_slice_69/ones_like/tensor", "shape": [4], "dtype": "int32"}, {"name": "model_230/tf.strided_slice_69/StridedSlice/end", "shape": [4], "dtype": "int32"}, {"name": "model_230/tf.strided_slice_69/ones_like", "shape": [4], "dtype": "int32"}, {"name": "model_230/tf.nn.convolution_1014/convolution/filter", "shape": [1, 1, 256, 128], "dtype": "float32"}, {"name": "model_230/tf.math.add_375/Add/y", "shape": [128], "dtype": "float32"}, {"name": "model_230/tf.nn.convolution_1016/convolution/filter", "shape": [3, 3, 128, 128], "dtype": "float32"}, {"name": "model_230/tf.math.add_377/Add/y", "shape": [128], "dtype": "float32"}, {"name": "model_230/tf.nn.convolution_1017/convolution/filter", "shape": [3, 3, 128, 128], "dtype": "float32"}, {"name": "model_230/tf.math.add_378/Add/y", "shape": [128], "dtype": "float32"}, {"name": "model_230/tf.nn.convolution_1018/convolution/filter", "shape": [3, 3, 128, 128], "dtype": "float32"}, {"name": "model_230/tf.math.add_381/Add/y", "shape": [128], "dtype": "float32"}, {"name": "model_230/tf.nn.convolution_1019/convolution/filter", "shape": [3, 3, 128, 128], "dtype": "float32"}, {"name": "model_230/tf.math.add_382/Add/y", "shape": [128], "dtype": "float32"}, {"name": "model_230/tf.strided_slice_64/StridedSlice/begin", "shape": [4], "dtype": "int32"}, {"name": "model_230/tf.strided_slice_64/StridedSlice/end", "shape": [4], "dtype": "int32"}, {"name": "model_230/tf.strided_slice_64/ones_like", "shape": [4], "dtype": "int32"}, {"name": "model_230/tf.math.add_370/Add/y", "shape": [256], "dtype": "float32"}, {"name": "model_230/tf.math.add_363/Add/y", "shape": [256], "dtype": "float32"}, {"name": "model_230/tf.strided_slice_66/StridedSlice/begin", "shape": [4], "dtype": "int32"}, {"name": "model_230/tf.strided_slice_66/StridedSlice/end", "shape": [4], "dtype": "int32"}, {"name": "model_230/tf.strided_slice_66/ones_like", "shape": [4], "dtype": "int32"}, {"name": "model_230/tf.strided_slice_67/StridedSlice/begin", "shape": [4], "dtype": "int32"}, {"name": "model_230/tf.strided_slice_67/StridedSlice/end", "shape": [4], "dtype": "int32"}, {"name": "model_230/tf.strided_slice_67/ones_like", "shape": [4], "dtype": "int32"}, {"name": "model_230/tf.math.multiply_1000/Mul/y", "shape": [], "dtype": "float32"}, {"name": "model_230/tf.reshape_114/Reshape/shape", "shape": [4], "dtype": "int32"}, {"name": "model_230/tf.compat.v1.transpose_527/transpose/perm", "shape": [4], "dtype": "int32"}, {"name": "model_230/tf.nn.convolution_753/convolution/filter", "shape": [3, 3, 1, 1], "dtype": "float32"}, {"name": "model_230/tf.nn.convolution_754/convolution/filter", "shape": [3, 3, 1, 1], "dtype": "float32"}, {"name": "model_230/tf.nn.convolution_755/convolution/filter", "shape": [3, 3, 1, 1], "dtype": "float32"}, {"name": "model_230/tf.nn.convolution_756/convolution/filter", "shape": [3, 3, 1, 1], "dtype": "float32"}, {"name": "model_230/tf.nn.convolution_757/convolution/filter", "shape": [3, 3, 1, 1], "dtype": "float32"}, {"name": "model_230/tf.nn.convolution_758/convolution/filter", "shape": [3, 3, 1, 1], "dtype": "float32"}, {"name": "model_230/tf.nn.convolution_759/convolution/filter", "shape": [3, 3, 1, 1], "dtype": "float32"}, {"name": "model_230/tf.nn.convolution_760/convolution/filter", "shape": [3, 3, 1, 1], "dtype": "float32"}, {"name": "model_230/tf.nn.convolution_761/convolution/filter", "shape": [3, 3, 1, 1], "dtype": "float32"}, {"name": "model_230/tf.nn.convolution_762/convolution/filter", "shape": [3, 3, 1, 1], "dtype": "float32"}, {"name": "model_230/tf.nn.convolution_763/convolution/filter", "shape": [3, 3, 1, 1], "dtype": "float32"}, {"name": "model_230/tf.nn.convolution_764/convolution/filter", "shape": [3, 3, 1, 1], "dtype": "float32"}, {"name": "model_230/tf.nn.convolution_765/convolution/filter", "shape": [3, 3, 1, 1], "dtype": "float32"}, {"name": "model_230/tf.nn.convolution_766/convolution/filter", "shape": [3, 3, 1, 1], "dtype": "float32"}, {"name": "model_230/tf.nn.convolution_767/convolution/filter", "shape": [3, 3, 1, 1], "dtype": "float32"}, {"name": "model_230/tf.nn.convolution_768/convolution/filter", "shape": [3, 3, 1, 1], "dtype": "float32"}, {"name": "model_230/tf.nn.convolution_769/convolution/filter", "shape": [3, 3, 1, 1], "dtype": "float32"}, {"name": "model_230/tf.nn.convolution_770/convolution/filter", "shape": [3, 3, 1, 1], "dtype": "float32"}, {"name": "model_230/tf.nn.convolution_771/convolution/filter", "shape": [3, 3, 1, 1], "dtype": "float32"}, {"name": "model_230/tf.nn.convolution_772/convolution/filter", "shape": [3, 3, 1, 1], "dtype": "float32"}, {"name": "model_230/tf.nn.convolution_773/convolution/filter", "shape": [3, 3, 1, 1], "dtype": "float32"}, {"name": "model_230/tf.nn.convolution_774/convolution/filter", "shape": [3, 3, 1, 1], "dtype": "float32"}, {"name": "model_230/tf.nn.convolution_775/convolution/filter", "shape": [3, 3, 1, 1], "dtype": "float32"}, {"name": "model_230/tf.nn.convolution_776/convolution/filter", "shape": [3, 3, 1, 1], "dtype": "float32"}, {"name": "model_230/tf.nn.convolution_777/convolution/filter", "shape": [3, 3, 1, 1], "dtype": "float32"}, {"name": "model_230/tf.nn.convolution_778/convolution/filter", "shape": [3, 3, 1, 1], "dtype": "float32"}, {"name": "model_230/tf.nn.convolution_779/convolution/filter", "shape": [3, 3, 1, 1], "dtype": "float32"}, {"name": "model_230/tf.nn.convolution_780/convolution/filter", "shape": [3, 3, 1, 1], "dtype": "float32"}, {"name": "model_230/tf.nn.convolution_781/convolution/filter", "shape": [3, 3, 1, 1], "dtype": "float32"}, {"name": "model_230/tf.nn.convolution_782/convolution/filter", "shape": [3, 3, 1, 1], "dtype": "float32"}, {"name": "model_230/tf.nn.convolution_783/convolution/filter", "shape": [3, 3, 1, 1], "dtype": "float32"}, {"name": "model_230/tf.nn.convolution_784/convolution/filter", "shape": [3, 3, 1, 1], "dtype": "float32"}, {"name": "model_230/tf.nn.convolution_785/convolution/filter", "shape": [3, 3, 1, 1], "dtype": "float32"}, {"name": "model_230/tf.nn.convolution_786/convolution/filter", "shape": [3, 3, 1, 1], "dtype": "float32"}, {"name": "model_230/tf.nn.convolution_787/convolution/filter", "shape": [3, 3, 1, 1], "dtype": "float32"}, {"name": "model_230/tf.nn.convolution_788/convolution/filter", "shape": [3, 3, 1, 1], "dtype": "float32"}, {"name": "model_230/tf.nn.convolution_789/convolution/filter", "shape": [3, 3, 1, 1], "dtype": "float32"}, {"name": "model_230/tf.nn.convolution_790/convolution/filter", "shape": [3, 3, 1, 1], "dtype": "float32"}, {"name": "model_230/tf.nn.convolution_791/convolution/filter", "shape": [3, 3, 1, 1], "dtype": "float32"}, {"name": "model_230/tf.nn.convolution_792/convolution/filter", "shape": [3, 3, 1, 1], "dtype": "float32"}, {"name": "model_230/tf.nn.convolution_793/convolution/filter", "shape": [3, 3, 1, 1], "dtype": "float32"}, {"name": "model_230/tf.nn.convolution_794/convolution/filter", "shape": [3, 3, 1, 1], "dtype": "float32"}, {"name": "model_230/tf.nn.convolution_795/convolution/filter", "shape": [3, 3, 1, 1], "dtype": "float32"}, {"name": "model_230/tf.nn.convolution_796/convolution/filter", "shape": [3, 3, 1, 1], "dtype": "float32"}, {"name": "model_230/tf.nn.convolution_797/convolution/filter", "shape": [3, 3, 1, 1], "dtype": "float32"}, {"name": "model_230/tf.nn.convolution_798/convolution/filter", "shape": [3, 3, 1, 1], "dtype": "float32"}, {"name": "model_230/tf.nn.convolution_799/convolution/filter", "shape": [3, 3, 1, 1], "dtype": "float32"}, {"name": "model_230/tf.nn.convolution_800/convolution/filter", "shape": [3, 3, 1, 1], "dtype": "float32"}, {"name": "model_230/tf.nn.convolution_801/convolution/filter", "shape": [3, 3, 1, 1], "dtype": "float32"}, {"name": "model_230/tf.nn.convolution_802/convolution/filter", "shape": [3, 3, 1, 1], "dtype": "float32"}, {"name": "model_230/tf.nn.convolution_803/convolution/filter", "shape": [3, 3, 1, 1], "dtype": "float32"}, {"name": "model_230/tf.nn.convolution_804/convolution/filter", "shape": [3, 3, 1, 1], "dtype": "float32"}, {"name": "model_230/tf.nn.convolution_805/convolution/filter", "shape": [3, 3, 1, 1], "dtype": "float32"}, {"name": "model_230/tf.nn.convolution_806/convolution/filter", "shape": [3, 3, 1, 1], "dtype": "float32"}, {"name": "model_230/tf.nn.convolution_807/convolution/filter", "shape": [3, 3, 1, 1], "dtype": "float32"}, {"name": "model_230/tf.nn.convolution_808/convolution/filter", "shape": [3, 3, 1, 1], "dtype": "float32"}, {"name": "model_230/tf.nn.convolution_809/convolution/filter", "shape": [3, 3, 1, 1], "dtype": "float32"}, {"name": "model_230/tf.nn.convolution_810/convolution/filter", "shape": [3, 3, 1, 1], "dtype": "float32"}, {"name": "model_230/tf.nn.convolution_811/convolution/filter", "shape": [3, 3, 1, 1], "dtype": "float32"}, {"name": "model_230/tf.nn.convolution_812/convolution/filter", "shape": [3, 3, 1, 1], "dtype": "float32"}, {"name": "model_230/tf.nn.convolution_813/convolution/filter", "shape": [3, 3, 1, 1], "dtype": "float32"}, {"name": "model_230/tf.nn.convolution_814/convolution/filter", "shape": [3, 3, 1, 1], "dtype": "float32"}, {"name": "model_230/tf.nn.convolution_815/convolution/filter", "shape": [3, 3, 1, 1], "dtype": "float32"}, {"name": "model_230/tf.nn.convolution_816/convolution/filter", "shape": [3, 3, 1, 1], "dtype": "float32"}, {"name": "model_230/tf.nn.convolution_817/convolution/filter", "shape": [3, 3, 1, 1], "dtype": "float32"}, {"name": "model_230/tf.nn.convolution_818/convolution/filter", "shape": [3, 3, 1, 1], "dtype": "float32"}, {"name": "model_230/tf.nn.convolution_819/convolution/filter", "shape": [3, 3, 1, 1], "dtype": "float32"}, {"name": "model_230/tf.nn.convolution_820/convolution/filter", "shape": [3, 3, 1, 1], "dtype": "float32"}, {"name": "model_230/tf.nn.convolution_821/convolution/filter", "shape": [3, 3, 1, 1], "dtype": "float32"}, {"name": "model_230/tf.nn.convolution_822/convolution/filter", "shape": [3, 3, 1, 1], "dtype": "float32"}, {"name": "model_230/tf.nn.convolution_823/convolution/filter", "shape": [3, 3, 1, 1], "dtype": "float32"}, {"name": "model_230/tf.nn.convolution_824/convolution/filter", "shape": [3, 3, 1, 1], "dtype": "float32"}, {"name": "model_230/tf.nn.convolution_825/convolution/filter", "shape": [3, 3, 1, 1], "dtype": "float32"}, {"name": "model_230/tf.nn.convolution_826/convolution/filter", "shape": [3, 3, 1, 1], "dtype": "float32"}, {"name": "model_230/tf.nn.convolution_827/convolution/filter", "shape": [3, 3, 1, 1], "dtype": "float32"}, {"name": "model_230/tf.nn.convolution_828/convolution/filter", "shape": [3, 3, 1, 1], "dtype": "float32"}, {"name": "model_230/tf.nn.convolution_829/convolution/filter", "shape": [3, 3, 1, 1], "dtype": "float32"}, {"name": "model_230/tf.nn.convolution_830/convolution/filter", "shape": [3, 3, 1, 1], "dtype": "float32"}, {"name": "model_230/tf.nn.convolution_831/convolution/filter", "shape": [3, 3, 1, 1], "dtype": "float32"}, {"name": "model_230/tf.nn.convolution_832/convolution/filter", "shape": [3, 3, 1, 1], "dtype": "float32"}, {"name": "model_230/tf.nn.convolution_833/convolution/filter", "shape": [3, 3, 1, 1], "dtype": "float32"}, {"name": "model_230/tf.nn.convolution_834/convolution/filter", "shape": [3, 3, 1, 1], "dtype": "float32"}, {"name": "model_230/tf.nn.convolution_835/convolution/filter", "shape": [3, 3, 1, 1], "dtype": "float32"}, {"name": "model_230/tf.nn.convolution_836/convolution/filter", "shape": [3, 3, 1, 1], "dtype": "float32"}, {"name": "model_230/tf.nn.convolution_837/convolution/filter", "shape": [3, 3, 1, 1], "dtype": "float32"}, {"name": "model_230/tf.nn.convolution_838/convolution/filter", "shape": [3, 3, 1, 1], "dtype": "float32"}, {"name": "model_230/tf.nn.convolution_839/convolution/filter", "shape": [3, 3, 1, 1], "dtype": "float32"}, {"name": "model_230/tf.nn.convolution_840/convolution/filter", "shape": [3, 3, 1, 1], "dtype": "float32"}, {"name": "model_230/tf.nn.convolution_841/convolution/filter", "shape": [3, 3, 1, 1], "dtype": "float32"}, {"name": "model_230/tf.nn.convolution_842/convolution/filter", "shape": [3, 3, 1, 1], "dtype": "float32"}, {"name": "model_230/tf.nn.convolution_843/convolution/filter", "shape": [3, 3, 1, 1], "dtype": "float32"}, {"name": "model_230/tf.nn.convolution_844/convolution/filter", "shape": [3, 3, 1, 1], "dtype": "float32"}, {"name": "model_230/tf.nn.convolution_845/convolution/filter", "shape": [3, 3, 1, 1], "dtype": "float32"}, {"name": "model_230/tf.nn.convolution_846/convolution/filter", "shape": [3, 3, 1, 1], "dtype": "float32"}, {"name": "model_230/tf.nn.convolution_847/convolution/filter", "shape": [3, 3, 1, 1], "dtype": "float32"}, {"name": "model_230/tf.nn.convolution_848/convolution/filter", "shape": [3, 3, 1, 1], "dtype": "float32"}, {"name": "model_230/tf.nn.convolution_849/convolution/filter", "shape": [3, 3, 1, 1], "dtype": "float32"}, {"name": "model_230/tf.nn.convolution_850/convolution/filter", "shape": [3, 3, 1, 1], "dtype": "float32"}, {"name": "model_230/tf.nn.convolution_851/convolution/filter", "shape": [3, 3, 1, 1], "dtype": "float32"}, {"name": "model_230/tf.nn.convolution_852/convolution/filter", "shape": [3, 3, 1, 1], "dtype": "float32"}, {"name": "model_230/tf.nn.convolution_853/convolution/filter", "shape": [3, 3, 1, 1], "dtype": "float32"}, {"name": "model_230/tf.nn.convolution_854/convolution/filter", "shape": [3, 3, 1, 1], "dtype": "float32"}, {"name": "model_230/tf.nn.convolution_855/convolution/filter", "shape": [3, 3, 1, 1], "dtype": "float32"}, {"name": "model_230/tf.nn.convolution_856/convolution/filter", "shape": [3, 3, 1, 1], "dtype": "float32"}, {"name": "model_230/tf.nn.convolution_857/convolution/filter", "shape": [3, 3, 1, 1], "dtype": "float32"}, {"name": "model_230/tf.nn.convolution_858/convolution/filter", "shape": [3, 3, 1, 1], "dtype": "float32"}, {"name": "model_230/tf.nn.convolution_859/convolution/filter", "shape": [3, 3, 1, 1], "dtype": "float32"}, {"name": "model_230/tf.nn.convolution_860/convolution/filter", "shape": [3, 3, 1, 1], "dtype": "float32"}, {"name": "model_230/tf.nn.convolution_861/convolution/filter", "shape": [3, 3, 1, 1], "dtype": "float32"}, {"name": "model_230/tf.nn.convolution_862/convolution/filter", "shape": [3, 3, 1, 1], "dtype": "float32"}, {"name": "model_230/tf.nn.convolution_863/convolution/filter", "shape": [3, 3, 1, 1], "dtype": "float32"}, {"name": "model_230/tf.nn.convolution_864/convolution/filter", "shape": [3, 3, 1, 1], "dtype": "float32"}, {"name": "model_230/tf.nn.convolution_865/convolution/filter", "shape": [3, 3, 1, 1], "dtype": "float32"}, {"name": "model_230/tf.nn.convolution_866/convolution/filter", "shape": [3, 3, 1, 1], "dtype": "float32"}, {"name": "model_230/tf.nn.convolution_867/convolution/filter", "shape": [3, 3, 1, 1], "dtype": "float32"}, {"name": "model_230/tf.nn.convolution_868/convolution/filter", "shape": [3, 3, 1, 1], "dtype": "float32"}, {"name": "model_230/tf.nn.convolution_869/convolution/filter", "shape": [3, 3, 1, 1], "dtype": "float32"}, {"name": "model_230/tf.nn.convolution_870/convolution/filter", "shape": [3, 3, 1, 1], "dtype": "float32"}, {"name": "model_230/tf.nn.convolution_871/convolution/filter", "shape": [3, 3, 1, 1], "dtype": "float32"}, {"name": "model_230/tf.nn.convolution_872/convolution/filter", "shape": [3, 3, 1, 1], "dtype": "float32"}, {"name": "model_230/tf.nn.convolution_873/convolution/filter", "shape": [3, 3, 1, 1], "dtype": "float32"}, {"name": "model_230/tf.nn.convolution_874/convolution/filter", "shape": [3, 3, 1, 1], "dtype": "float32"}, {"name": "model_230/tf.nn.convolution_875/convolution/filter", "shape": [3, 3, 1, 1], "dtype": "float32"}, {"name": "model_230/tf.nn.convolution_876/convolution/filter", "shape": [3, 3, 1, 1], "dtype": "float32"}, {"name": "model_230/tf.nn.convolution_877/convolution/filter", "shape": [3, 3, 1, 1], "dtype": "float32"}, {"name": "model_230/tf.nn.convolution_878/convolution/filter", "shape": [3, 3, 1, 1], "dtype": "float32"}, {"name": "model_230/tf.nn.convolution_879/convolution/filter", "shape": [3, 3, 1, 1], "dtype": "float32"}, {"name": "model_230/tf.nn.convolution_880/convolution/filter", "shape": [3, 3, 1, 1], "dtype": "float32"}, {"name": "model_230/tf.nn.convolution_881/convolution/filter", "shape": [3, 3, 1, 1], "dtype": "float32"}, {"name": "model_230/tf.nn.convolution_882/convolution/filter", "shape": [3, 3, 1, 1], "dtype": "float32"}, {"name": "model_230/tf.nn.convolution_883/convolution/filter", "shape": [3, 3, 1, 1], "dtype": "float32"}, {"name": "model_230/tf.nn.convolution_884/convolution/filter", "shape": [3, 3, 1, 1], "dtype": "float32"}, {"name": "model_230/tf.nn.convolution_885/convolution/filter", "shape": [3, 3, 1, 1], "dtype": "float32"}, {"name": "model_230/tf.nn.convolution_886/convolution/filter", "shape": [3, 3, 1, 1], "dtype": "float32"}, {"name": "model_230/tf.nn.convolution_887/convolution/filter", "shape": [3, 3, 1, 1], "dtype": "float32"}, {"name": "model_230/tf.nn.convolution_888/convolution/filter", "shape": [3, 3, 1, 1], "dtype": "float32"}, {"name": "model_230/tf.nn.convolution_889/convolution/filter", "shape": [3, 3, 1, 1], "dtype": "float32"}, {"name": "model_230/tf.nn.convolution_890/convolution/filter", "shape": [3, 3, 1, 1], "dtype": "float32"}, {"name": "model_230/tf.nn.convolution_891/convolution/filter", "shape": [3, 3, 1, 1], "dtype": "float32"}, {"name": "model_230/tf.nn.convolution_892/convolution/filter", "shape": [3, 3, 1, 1], "dtype": "float32"}, {"name": "model_230/tf.nn.convolution_893/convolution/filter", "shape": [3, 3, 1, 1], "dtype": "float32"}, {"name": "model_230/tf.nn.convolution_894/convolution/filter", "shape": [3, 3, 1, 1], "dtype": "float32"}, {"name": "model_230/tf.nn.convolution_895/convolution/filter", "shape": [3, 3, 1, 1], "dtype": "float32"}, {"name": "model_230/tf.nn.convolution_896/convolution/filter", "shape": [3, 3, 1, 1], "dtype": "float32"}, {"name": "model_230/tf.nn.convolution_897/convolution/filter", "shape": [3, 3, 1, 1], "dtype": "float32"}, {"name": "model_230/tf.nn.convolution_898/convolution/filter", "shape": [3, 3, 1, 1], "dtype": "float32"}, {"name": "model_230/tf.nn.convolution_899/convolution/filter", "shape": [3, 3, 1, 1], "dtype": "float32"}, {"name": "model_230/tf.nn.convolution_900/convolution/filter", "shape": [3, 3, 1, 1], "dtype": "float32"}, {"name": "model_230/tf.nn.convolution_901/convolution/filter", "shape": [3, 3, 1, 1], "dtype": "float32"}, {"name": "model_230/tf.nn.convolution_902/convolution/filter", "shape": [3, 3, 1, 1], "dtype": "float32"}, {"name": "model_230/tf.nn.convolution_903/convolution/filter", "shape": [3, 3, 1, 1], "dtype": "float32"}, {"name": "model_230/tf.nn.convolution_904/convolution/filter", "shape": [3, 3, 1, 1], "dtype": "float32"}, {"name": "model_230/tf.nn.convolution_905/convolution/filter", "shape": [3, 3, 1, 1], "dtype": "float32"}, {"name": "model_230/tf.nn.convolution_906/convolution/filter", "shape": [3, 3, 1, 1], "dtype": "float32"}, {"name": "model_230/tf.nn.convolution_907/convolution/filter", "shape": [3, 3, 1, 1], "dtype": "float32"}, {"name": "model_230/tf.nn.convolution_908/convolution/filter", "shape": [3, 3, 1, 1], "dtype": "float32"}, {"name": "model_230/tf.nn.convolution_909/convolution/filter", "shape": [3, 3, 1, 1], "dtype": "float32"}, {"name": "model_230/tf.nn.convolution_910/convolution/filter", "shape": [3, 3, 1, 1], "dtype": "float32"}, {"name": "model_230/tf.nn.convolution_911/convolution/filter", "shape": [3, 3, 1, 1], "dtype": "float32"}, {"name": "model_230/tf.nn.convolution_912/convolution/filter", "shape": [3, 3, 1, 1], "dtype": "float32"}, {"name": "model_230/tf.nn.convolution_913/convolution/filter", "shape": [3, 3, 1, 1], "dtype": "float32"}, {"name": "model_230/tf.nn.convolution_914/convolution/filter", "shape": [3, 3, 1, 1], "dtype": "float32"}, {"name": "model_230/tf.nn.convolution_915/convolution/filter", "shape": [3, 3, 1, 1], "dtype": "float32"}, {"name": "model_230/tf.nn.convolution_916/convolution/filter", "shape": [3, 3, 1, 1], "dtype": "float32"}, {"name": "model_230/tf.nn.convolution_917/convolution/filter", "shape": [3, 3, 1, 1], "dtype": "float32"}, {"name": "model_230/tf.nn.convolution_918/convolution/filter", "shape": [3, 3, 1, 1], "dtype": "float32"}, {"name": "model_230/tf.nn.convolution_919/convolution/filter", "shape": [3, 3, 1, 1], "dtype": "float32"}, {"name": "model_230/tf.nn.convolution_920/convolution/filter", "shape": [3, 3, 1, 1], "dtype": "float32"}, {"name": "model_230/tf.nn.convolution_921/convolution/filter", "shape": [3, 3, 1, 1], "dtype": "float32"}, {"name": "model_230/tf.nn.convolution_922/convolution/filter", "shape": [3, 3, 1, 1], "dtype": "float32"}, {"name": "model_230/tf.nn.convolution_923/convolution/filter", "shape": [3, 3, 1, 1], "dtype": "float32"}, {"name": "model_230/tf.nn.convolution_924/convolution/filter", "shape": [3, 3, 1, 1], "dtype": "float32"}, {"name": "model_230/tf.nn.convolution_925/convolution/filter", "shape": [3, 3, 1, 1], "dtype": "float32"}, {"name": "model_230/tf.nn.convolution_926/convolution/filter", "shape": [3, 3, 1, 1], "dtype": "float32"}, {"name": "model_230/tf.nn.convolution_927/convolution/filter", "shape": [3, 3, 1, 1], "dtype": "float32"}, {"name": "model_230/tf.nn.convolution_928/convolution/filter", "shape": [3, 3, 1, 1], "dtype": "float32"}, {"name": "model_230/tf.nn.convolution_929/convolution/filter", "shape": [3, 3, 1, 1], "dtype": "float32"}, {"name": "model_230/tf.nn.convolution_930/convolution/filter", "shape": [3, 3, 1, 1], "dtype": "float32"}, {"name": "model_230/tf.nn.convolution_931/convolution/filter", "shape": [3, 3, 1, 1], "dtype": "float32"}, {"name": "model_230/tf.nn.convolution_932/convolution/filter", "shape": [3, 3, 1, 1], "dtype": "float32"}, {"name": "model_230/tf.nn.convolution_933/convolution/filter", "shape": [3, 3, 1, 1], "dtype": "float32"}, {"name": "model_230/tf.nn.convolution_934/convolution/filter", "shape": [3, 3, 1, 1], "dtype": "float32"}, {"name": "model_230/tf.nn.convolution_935/convolution/filter", "shape": [3, 3, 1, 1], "dtype": "float32"}, {"name": "model_230/tf.nn.convolution_936/convolution/filter", "shape": [3, 3, 1, 1], "dtype": "float32"}, {"name": "model_230/tf.nn.convolution_937/convolution/filter", "shape": [3, 3, 1, 1], "dtype": "float32"}, {"name": "model_230/tf.nn.convolution_938/convolution/filter", "shape": [3, 3, 1, 1], "dtype": "float32"}, {"name": "model_230/tf.nn.convolution_939/convolution/filter", "shape": [3, 3, 1, 1], "dtype": "float32"}, {"name": "model_230/tf.nn.convolution_940/convolution/filter", "shape": [3, 3, 1, 1], "dtype": "float32"}, {"name": "model_230/tf.nn.convolution_941/convolution/filter", "shape": [3, 3, 1, 1], "dtype": "float32"}, {"name": "model_230/tf.nn.convolution_942/convolution/filter", "shape": [3, 3, 1, 1], "dtype": "float32"}, {"name": "model_230/tf.nn.convolution_943/convolution/filter", "shape": [3, 3, 1, 1], "dtype": "float32"}, {"name": "model_230/tf.nn.convolution_944/convolution/filter", "shape": [3, 3, 1, 1], "dtype": "float32"}, {"name": "model_230/tf.nn.convolution_945/convolution/filter", "shape": [3, 3, 1, 1], "dtype": "float32"}, {"name": "model_230/tf.nn.convolution_946/convolution/filter", "shape": [3, 3, 1, 1], "dtype": "float32"}, {"name": "model_230/tf.nn.convolution_947/convolution/filter", "shape": [3, 3, 1, 1], "dtype": "float32"}, {"name": "model_230/tf.nn.convolution_948/convolution/filter", "shape": [3, 3, 1, 1], "dtype": "float32"}, {"name": "model_230/tf.nn.convolution_949/convolution/filter", "shape": [3, 3, 1, 1], "dtype": "float32"}, {"name": "model_230/tf.nn.convolution_950/convolution/filter", "shape": [3, 3, 1, 1], "dtype": "float32"}, {"name": "model_230/tf.nn.convolution_951/convolution/filter", "shape": [3, 3, 1, 1], "dtype": "float32"}, {"name": "model_230/tf.nn.convolution_952/convolution/filter", "shape": [3, 3, 1, 1], "dtype": "float32"}, {"name": "model_230/tf.nn.convolution_953/convolution/filter", "shape": [3, 3, 1, 1], "dtype": "float32"}, {"name": "model_230/tf.nn.convolution_954/convolution/filter", "shape": [3, 3, 1, 1], "dtype": "float32"}, {"name": "model_230/tf.nn.convolution_955/convolution/filter", "shape": [3, 3, 1, 1], "dtype": "float32"}, {"name": "model_230/tf.nn.convolution_956/convolution/filter", "shape": [3, 3, 1, 1], "dtype": "float32"}, {"name": "model_230/tf.nn.convolution_957/convolution/filter", "shape": [3, 3, 1, 1], "dtype": "float32"}, {"name": "model_230/tf.nn.convolution_958/convolution/filter", "shape": [3, 3, 1, 1], "dtype": "float32"}, {"name": "model_230/tf.nn.convolution_959/convolution/filter", "shape": [3, 3, 1, 1], "dtype": "float32"}, {"name": "model_230/tf.nn.convolution_960/convolution/filter", "shape": [3, 3, 1, 1], "dtype": "float32"}, {"name": "model_230/tf.nn.convolution_961/convolution/filter", "shape": [3, 3, 1, 1], "dtype": "float32"}, {"name": "model_230/tf.nn.convolution_962/convolution/filter", "shape": [3, 3, 1, 1], "dtype": "float32"}, {"name": "model_230/tf.nn.convolution_963/convolution/filter", "shape": [3, 3, 1, 1], "dtype": "float32"}, {"name": "model_230/tf.nn.convolution_964/convolution/filter", "shape": [3, 3, 1, 1], "dtype": "float32"}, {"name": "model_230/tf.nn.convolution_965/convolution/filter", "shape": [3, 3, 1, 1], "dtype": "float32"}, {"name": "model_230/tf.nn.convolution_966/convolution/filter", "shape": [3, 3, 1, 1], "dtype": "float32"}, {"name": "model_230/tf.nn.convolution_967/convolution/filter", "shape": [3, 3, 1, 1], "dtype": "float32"}, {"name": "model_230/tf.nn.convolution_968/convolution/filter", "shape": [3, 3, 1, 1], "dtype": "float32"}, {"name": "model_230/tf.nn.convolution_969/convolution/filter", "shape": [3, 3, 1, 1], "dtype": "float32"}, {"name": "model_230/tf.nn.convolution_970/convolution/filter", "shape": [3, 3, 1, 1], "dtype": "float32"}, {"name": "model_230/tf.nn.convolution_971/convolution/filter", "shape": [3, 3, 1, 1], "dtype": "float32"}, {"name": "model_230/tf.nn.convolution_972/convolution/filter", "shape": [3, 3, 1, 1], "dtype": "float32"}, {"name": "model_230/tf.nn.convolution_973/convolution/filter", "shape": [3, 3, 1, 1], "dtype": "float32"}, {"name": "model_230/tf.nn.convolution_974/convolution/filter", "shape": [3, 3, 1, 1], "dtype": "float32"}, {"name": "model_230/tf.nn.convolution_975/convolution/filter", "shape": [3, 3, 1, 1], "dtype": "float32"}, {"name": "model_230/tf.nn.convolution_976/convolution/filter", "shape": [3, 3, 1, 1], "dtype": "float32"}, {"name": "model_230/tf.nn.convolution_977/convolution/filter", "shape": [3, 3, 1, 1], "dtype": "float32"}, {"name": "model_230/tf.nn.convolution_978/convolution/filter", "shape": [3, 3, 1, 1], "dtype": "float32"}, {"name": "model_230/tf.nn.convolution_979/convolution/filter", "shape": [3, 3, 1, 1], "dtype": "float32"}, {"name": "model_230/tf.nn.convolution_980/convolution/filter", "shape": [3, 3, 1, 1], "dtype": "float32"}, {"name": "model_230/tf.nn.convolution_981/convolution/filter", "shape": [3, 3, 1, 1], "dtype": "float32"}, {"name": "model_230/tf.nn.convolution_982/convolution/filter", "shape": [3, 3, 1, 1], "dtype": "float32"}, {"name": "model_230/tf.nn.convolution_983/convolution/filter", "shape": [3, 3, 1, 1], "dtype": "float32"}, {"name": "model_230/tf.nn.convolution_984/convolution/filter", "shape": [3, 3, 1, 1], "dtype": "float32"}, {"name": "model_230/tf.nn.convolution_985/convolution/filter", "shape": [3, 3, 1, 1], "dtype": "float32"}, {"name": "model_230/tf.nn.convolution_986/convolution/filter", "shape": [3, 3, 1, 1], "dtype": "float32"}, {"name": "model_230/tf.nn.convolution_987/convolution/filter", "shape": [3, 3, 1, 1], "dtype": "float32"}, {"name": "model_230/tf.nn.convolution_988/convolution/filter", "shape": [3, 3, 1, 1], "dtype": "float32"}, {"name": "model_230/tf.nn.convolution_989/convolution/filter", "shape": [3, 3, 1, 1], "dtype": "float32"}, {"name": "model_230/tf.nn.convolution_990/convolution/filter", "shape": [3, 3, 1, 1], "dtype": "float32"}, {"name": "model_230/tf.nn.convolution_991/convolution/filter", "shape": [3, 3, 1, 1], "dtype": "float32"}, {"name": "model_230/tf.nn.convolution_992/convolution/filter", "shape": [3, 3, 1, 1], "dtype": "float32"}, {"name": "model_230/tf.nn.convolution_993/convolution/filter", "shape": [3, 3, 1, 1], "dtype": "float32"}, {"name": "model_230/tf.nn.convolution_994/convolution/filter", "shape": [3, 3, 1, 1], "dtype": "float32"}, {"name": "model_230/tf.nn.convolution_995/convolution/filter", "shape": [3, 3, 1, 1], "dtype": "float32"}, {"name": "model_230/tf.nn.convolution_996/convolution/filter", "shape": [3, 3, 1, 1], "dtype": "float32"}, {"name": "model_230/tf.nn.convolution_997/convolution/filter", "shape": [3, 3, 1, 1], "dtype": "float32"}, {"name": "model_230/tf.nn.convolution_998/convolution/filter", "shape": [3, 3, 1, 1], "dtype": "float32"}, {"name": "model_230/tf.nn.convolution_999/convolution/filter", "shape": [3, 3, 1, 1], "dtype": "float32"}, {"name": "model_230/tf.nn.convolution_1000/convolution/filter", "shape": [3, 3, 1, 1], "dtype": "float32"}, {"name": "model_230/tf.nn.convolution_1001/convolution/filter", "shape": [3, 3, 1, 1], "dtype": "float32"}, {"name": "model_230/tf.nn.convolution_1002/convolution/filter", "shape": [3, 3, 1, 1], "dtype": "float32"}, {"name": "model_230/tf.nn.convolution_1003/convolution/filter", "shape": [3, 3, 1, 1], "dtype": "float32"}, {"name": "model_230/tf.nn.convolution_1004/convolution/filter", "shape": [3, 3, 1, 1], "dtype": "float32"}, {"name": "model_230/tf.nn.convolution_1005/convolution/filter", "shape": [3, 3, 1, 1], "dtype": "float32"}, {"name": "model_230/tf.nn.convolution_1006/convolution/filter", "shape": [3, 3, 1, 1], "dtype": "float32"}, {"name": "model_230/tf.nn.convolution_1007/convolution/filter", "shape": [3, 3, 1, 1], "dtype": "float32"}, {"name": "model_230/tf.split_4/split/split_dim", "shape": [], "dtype": "int32"}, {"name": "model_230/tf.strided_slice_62/ones_like/tensor", "shape": [4], "dtype": "int32"}, {"name": "model_230/tf.strided_slice_62/StridedSlice/end", "shape": [4], "dtype": "int32"}, {"name": "model_230/tf.strided_slice_62/ones_like", "shape": [4], "dtype": "int32"}, {"name": "model_230/tf.nn.convolution_741/convolution/filter", "shape": [1, 1, 256, 128], "dtype": "float32"}, {"name": "model_230/tf.math.add_347/Add/y", "shape": [128], "dtype": "float32"}, {"name": "model_230/tf.nn.convolution_743/convolution/filter", "shape": [3, 3, 128, 128], "dtype": "float32"}, {"name": "model_230/tf.math.add_349/Add/y", "shape": [128], "dtype": "float32"}, {"name": "model_230/tf.nn.convolution_744/convolution/filter", "shape": [3, 3, 128, 128], "dtype": "float32"}, {"name": "model_230/tf.math.add_350/Add/y", "shape": [128], "dtype": "float32"}, {"name": "model_230/tf.nn.convolution_745/convolution/filter", "shape": [3, 3, 128, 128], "dtype": "float32"}, {"name": "model_230/tf.math.add_353/Add/y", "shape": [128], "dtype": "float32"}, {"name": "model_230/tf.nn.convolution_746/convolution/filter", "shape": [3, 3, 128, 128], "dtype": "float32"}, {"name": "model_230/tf.math.add_354/Add/y", "shape": [128], "dtype": "float32"}, {"name": "model_230/tf.compat.v1.pad_18/Pad/paddings", "shape": [4, 2], "dtype": "int32"}, {"name": "model_230/tf.nn.convolution_739/convolution/filter", "shape": [3, 3, 512, 512], "dtype": "float32"}, {"name": "model_230/tf.math.add_345/Add/y", "shape": [512], "dtype": "float32"}, {"name": "model_230/tf.nn.convolution_740/convolution/filter", "shape": [1, 1, 512, 512], "dtype": "float32"}, {"name": "model_230/tf.math.add_346/Add/y", "shape": [512], "dtype": "float32"}, {"name": "model_230/tf.strided_slice_63/ones_like/tensor", "shape": [4], "dtype": "int32"}, {"name": "model_230/tf.strided_slice_63/StridedSlice/end", "shape": [4], "dtype": "int32"}, {"name": "model_230/tf.strided_slice_63/ones_like", "shape": [4], "dtype": "int32"}, {"name": "model_230/tf.nn.convolution_742/convolution/filter", "shape": [1, 1, 256, 128], "dtype": "float32"}, {"name": "model_230/tf.math.add_348/Add/y", "shape": [128], "dtype": "float32"}, {"name": "model_230/tf.concat_72/concat/axis", "shape": [], "dtype": "int32"}, {"name": "model_230/tf.nn.convolution_747/convolution/filter", "shape": [1, 1, 256, 256], "dtype": "float32"}, {"name": "model_230/tf.math.add_357/Add/y", "shape": [256], "dtype": "float32"}, {"name": "model_230/tf.concat_73/concat/axis", "shape": [], "dtype": "int32"}, {"name": "model_230/tf.nn.convolution_748/convolution/filter", "shape": [1, 1, 768, 512], "dtype": "float32"}, {"name": "model_230/tf.math.add_358/Add/y", "shape": [512], "dtype": "float32"}, {"name": "model_230/tf.nn.convolution_749/convolution/filter", "shape": [1, 1, 512, 256], "dtype": "float32"}, {"name": "model_230/tf.math.add_359/Add/y", "shape": [256], "dtype": "float32"}, {"name": "model_230/tf.concat_74/concat/axis", "shape": [], "dtype": "int32"}, {"name": "model_230/tf.nn.convolution_750/convolution/filter", "shape": [1, 1, 1024, 512], "dtype": "float32"}, {"name": "model_230/tf.math.add_360/Add/y", "shape": [512], "dtype": "float32"}, {"name": "model_230/tf.nn.convolution_751/convolution/filter", "shape": [1, 1, 512, 512], "dtype": "float32"}, {"name": "model_230/tf.math.add_361/Add/y", "shape": [512], "dtype": "float32"}, {"name": "model_230/tf.strided_slice_65/StridedSlice/begin", "shape": [4], "dtype": "int32"}, {"name": "model_230/tf.strided_slice_65/StridedSlice/end", "shape": [4], "dtype": "int32"}, {"name": "model_230/tf.strided_slice_65/ones_like", "shape": [4], "dtype": "int32"}, {"name": "model_230/tf.nn.convolution_752/convolution/filter", "shape": [1, 1, 256, 512], "dtype": "float32"}, {"name": "model_230/tf.math.add_362/Add/y", "shape": [512], "dtype": "float32"}, {"name": "model_230/tf.compat.v1.transpose_512/transpose/perm", "shape": [4], "dtype": "int32"}, {"name": "model_230/tf.reshape_108/Reshape/shape", "shape": [4], "dtype": "int32"}, {"name": "model_230/tf.strided_slice_68/StridedSlice/begin", "shape": [4], "dtype": "int32"}, {"name": "model_230/tf.strided_slice_68/StridedSlice/end", "shape": [4], "dtype": "int32"}, {"name": "model_230/tf.strided_slice_68/ones_like", "shape": [4], "dtype": "int32"}, {"name": "model_230/tf.reshape_111/Reshape/shape", "shape": [4], "dtype": "int32"}, {"name": "model_230/tf.compat.v1.transpose_520/transpose/perm", "shape": [4], "dtype": "int32"}, {"name": "model_230/tf.nn.convolution_1008/convolution/filter", "shape": [3, 3, 1, 1], "dtype": "float32"}, {"name": "model_230/tf.concat_75/concat/axis", "shape": [], "dtype": "int32"}, {"name": "model_230/tf.nn.convolution_1009/convolution/filter", "shape": [1, 1, 256, 256], "dtype": "float32"}, {"name": "model_230/tf.math.add_366/Add/y", "shape": [256], "dtype": "float32"}, {"name": "model_230/tf.nn.convolution_1010/convolution/filter", "shape": [1, 1, 256, 512], "dtype": "float32"}, {"name": "model_230/tf.math.add_369/Add/y", "shape": [512], "dtype": "float32"}, {"name": "model_230/tf.nn.convolution_1011/convolution/filter", "shape": [1, 1, 512, 256], "dtype": "float32"}, {"name": "model_230/tf.concat_76/concat/axis", "shape": [], "dtype": "int32"}, {"name": "model_230/tf.nn.convolution_1012/convolution/filter", "shape": [1, 1, 512, 512], "dtype": "float32"}, {"name": "model_230/tf.math.add_373/Add/y", "shape": [512], "dtype": "float32"}, {"name": "model_230/tf.image.resize_4/resize/size", "shape": [2], "dtype": "int32"}, {"name": "model_230/tf.strided_slice_60/ones_like/tensor", "shape": [4], "dtype": "int32"}, {"name": "model_230/tf.strided_slice_60/StridedSlice/end", "shape": [4], "dtype": "int32"}, {"name": "model_230/tf.strided_slice_60/ones_like", "shape": [4], "dtype": "int32"}, {"name": "model_230/tf.nn.convolution_731/convolution/filter", "shape": [1, 1, 256, 128], "dtype": "float32"}, {"name": "model_230/tf.math.add_333/Add/y", "shape": [128], "dtype": "float32"}, {"name": "model_230/tf.nn.convolution_733/convolution/filter", "shape": [3, 3, 128, 128], "dtype": "float32"}, {"name": "model_230/tf.math.add_335/Add/y", "shape": [128], "dtype": "float32"}, {"name": "model_230/tf.nn.convolution_734/convolution/filter", "shape": [3, 3, 128, 128], "dtype": "float32"}, {"name": "model_230/tf.math.add_336/Add/y", "shape": [128], "dtype": "float32"}, {"name": "model_230/tf.nn.convolution_735/convolution/filter", "shape": [3, 3, 128, 128], "dtype": "float32"}, {"name": "model_230/tf.math.add_339/Add/y", "shape": [128], "dtype": "float32"}, {"name": "model_230/tf.nn.convolution_736/convolution/filter", "shape": [3, 3, 128, 128], "dtype": "float32"}, {"name": "model_230/tf.math.add_340/Add/y", "shape": [128], "dtype": "float32"}, {"name": "model_230/tf.compat.v1.pad_17/Pad/paddings", "shape": [4, 2], "dtype": "int32"}, {"name": "model_230/tf.nn.convolution_729/convolution/filter", "shape": [3, 3, 512, 512], "dtype": "float32"}, {"name": "model_230/tf.math.add_331/Add/y", "shape": [512], "dtype": "float32"}, {"name": "model_230/tf.nn.convolution_730/convolution/filter", "shape": [1, 1, 512, 512], "dtype": "float32"}, {"name": "model_230/tf.math.add_332/Add/y", "shape": [512], "dtype": "float32"}, {"name": "model_230/tf.strided_slice_61/ones_like/tensor", "shape": [4], "dtype": "int32"}, {"name": "model_230/tf.strided_slice_61/StridedSlice/end", "shape": [4], "dtype": "int32"}, {"name": "model_230/tf.strided_slice_61/ones_like", "shape": [4], "dtype": "int32"}, {"name": "model_230/tf.nn.convolution_732/convolution/filter", "shape": [1, 1, 256, 128], "dtype": "float32"}, {"name": "model_230/tf.math.add_334/Add/y", "shape": [128], "dtype": "float32"}, {"name": "model_230/tf.concat_70/concat/axis", "shape": [], "dtype": "int32"}, {"name": "model_230/tf.nn.convolution_737/convolution/filter", "shape": [1, 1, 256, 256], "dtype": "float32"}, {"name": "model_230/tf.math.add_343/Add/y", "shape": [256], "dtype": "float32"}, {"name": "model_230/tf.concat_71/concat/axis", "shape": [], "dtype": "int32"}, {"name": "model_230/tf.nn.convolution_738/convolution/filter", "shape": [1, 1, 768, 512], "dtype": "float32"}, {"name": "model_230/tf.math.add_344/Add/y", "shape": [512], "dtype": "float32"}, {"name": "model_230/tf.concat_77/concat/axis", "shape": [], "dtype": "int32"}, {"name": "model_230/tf.nn.convolution_1013/convolution/filter", "shape": [1, 1, 1024, 512], "dtype": "float32"}, {"name": "model_230/tf.math.add_374/Add/y", "shape": [512], "dtype": "float32"}, {"name": "model_230/tf.strided_slice_70/ones_like/tensor", "shape": [4], "dtype": "int32"}, {"name": "model_230/tf.strided_slice_70/StridedSlice/end", "shape": [4], "dtype": "int32"}, {"name": "model_230/tf.strided_slice_70/ones_like", "shape": [4], "dtype": "int32"}, {"name": "model_230/tf.nn.convolution_1015/convolution/filter", "shape": [1, 1, 256, 128], "dtype": "float32"}, {"name": "model_230/tf.math.add_376/Add/y", "shape": [128], "dtype": "float32"}, {"name": "model_230/tf.concat_78/concat/axis", "shape": [], "dtype": "int32"}, {"name": "model_230/tf.nn.convolution_1020/convolution/filter", "shape": [1, 1, 256, 256], "dtype": "float32"}, {"name": "model_230/tf.math.add_385/Add/y", "shape": [256], "dtype": "float32"}, {"name": "model_230/tf.concat_79/concat/axis", "shape": [], "dtype": "int32"}, {"name": "model_230/tf.nn.convolution_1021/convolution/filter", "shape": [1, 1, 768, 512], "dtype": "float32"}, {"name": "model_230/tf.math.add_386/Add/y", "shape": [512], "dtype": "float32"}, {"name": "model_230/tf.image.resize_5/resize/size", "shape": [2], "dtype": "int32"}, {"name": "model_230/tf.strided_slice_58/ones_like/tensor", "shape": [4], "dtype": "int32"}, {"name": "model_230/tf.strided_slice_58/StridedSlice/end", "shape": [4], "dtype": "int32"}, {"name": "model_230/tf.strided_slice_58/ones_like", "shape": [4], "dtype": "int32"}, {"name": "model_230/tf.nn.convolution_721/convolution/filter", "shape": [1, 1, 128, 64], "dtype": "float32"}, {"name": "model_230/tf.math.add_319/Add/y", "shape": [64], "dtype": "float32"}, {"name": "model_230/tf.nn.convolution_723/convolution/filter", "shape": [3, 3, 64, 64], "dtype": "float32"}, {"name": "model_230/tf.math.add_321/Add/y", "shape": [64], "dtype": "float32"}, {"name": "model_230/tf.nn.convolution_724/convolution/filter", "shape": [3, 3, 64, 64], "dtype": "float32"}, {"name": "model_230/tf.math.add_322/Add/y", "shape": [64], "dtype": "float32"}, {"name": "model_230/tf.nn.convolution_725/convolution/filter", "shape": [3, 3, 64, 64], "dtype": "float32"}, {"name": "model_230/tf.math.add_325/Add/y", "shape": [64], "dtype": "float32"}, {"name": "model_230/tf.nn.convolution_726/convolution/filter", "shape": [3, 3, 64, 64], "dtype": "float32"}, {"name": "model_230/tf.math.add_326/Add/y", "shape": [64], "dtype": "float32"}, {"name": "model_230/tf.strided_slice_56/ones_like/tensor", "shape": [4], "dtype": "int32"}, {"name": "model_230/tf.strided_slice_56/StridedSlice/end", "shape": [4], "dtype": "int32"}, {"name": "model_230/tf.strided_slice_56/ones_like", "shape": [4], "dtype": "int32"}, {"name": "model_230/tf.nn.convolution_711/convolution/filter", "shape": [1, 1, 64, 32], "dtype": "float32"}, {"name": "model_230/tf.math.add_305/Add/y", "shape": [32], "dtype": "float32"}, {"name": "model_230/tf.nn.convolution_713/convolution/filter", "shape": [3, 3, 32, 32], "dtype": "float32"}, {"name": "model_230/tf.math.add_307/Add/y", "shape": [32], "dtype": "float32"}, {"name": "model_230/tf.nn.convolution_714/convolution/filter", "shape": [3, 3, 32, 32], "dtype": "float32"}, {"name": "model_230/tf.math.add_308/Add/y", "shape": [32], "dtype": "float32"}, {"name": "model_230/tf.nn.convolution_715/convolution/filter", "shape": [3, 3, 32, 32], "dtype": "float32"}, {"name": "model_230/tf.math.add_311/Add/y", "shape": [32], "dtype": "float32"}, {"name": "model_230/tf.nn.convolution_716/convolution/filter", "shape": [3, 3, 32, 32], "dtype": "float32"}, {"name": "model_230/tf.math.add_312/Add/y", "shape": [32], "dtype": "float32"}, {"name": "model_230/tf.compat.v1.pad_14/Pad/paddings", "shape": [4, 2], "dtype": "int32"}, {"name": "model_230/tf.nn.convolution_708/convolution/filter", "shape": [3, 3, 3, 64], "dtype": "float32"}, {"name": "model_230/tf.math.add_302/Add/y", "shape": [64], "dtype": "float32"}, {"name": "model_230/tf.compat.v1.pad_15/Pad/paddings", "shape": [4, 2], "dtype": "int32"}, {"name": "model_230/tf.nn.convolution_709/convolution/filter", "shape": [3, 3, 64, 128], "dtype": "float32"}, {"name": "model_230/tf.math.add_303/Add/y", "shape": [128], "dtype": "float32"}, {"name": "model_230/tf.nn.convolution_710/convolution/filter", "shape": [1, 1, 128, 128], "dtype": "float32"}, {"name": "model_230/tf.math.add_304/Add/y", "shape": [128], "dtype": "float32"}, {"name": "model_230/tf.strided_slice_57/ones_like/tensor", "shape": [4], "dtype": "int32"}, {"name": "model_230/tf.strided_slice_57/StridedSlice/end", "shape": [4], "dtype": "int32"}, {"name": "model_230/tf.strided_slice_57/ones_like", "shape": [4], "dtype": "int32"}, {"name": "model_230/tf.nn.convolution_712/convolution/filter", "shape": [1, 1, 64, 32], "dtype": "float32"}, {"name": "model_230/tf.math.add_306/Add/y", "shape": [32], "dtype": "float32"}, {"name": "model_230/tf.concat_66/concat/axis", "shape": [], "dtype": "int32"}, {"name": "model_230/tf.nn.convolution_717/convolution/filter", "shape": [1, 1, 64, 64], "dtype": "float32"}, {"name": "model_230/tf.math.add_315/Add/y", "shape": [64], "dtype": "float32"}, {"name": "model_230/tf.concat_67/concat/axis", "shape": [], "dtype": "int32"}, {"name": "model_230/tf.nn.convolution_718/convolution/filter", "shape": [1, 1, 192, 256], "dtype": "float32"}, {"name": "model_230/tf.math.add_316/Add/y", "shape": [256], "dtype": "float32"}, {"name": "model_230/tf.compat.v1.pad_16/Pad/paddings", "shape": [4, 2], "dtype": "int32"}, {"name": "model_230/tf.nn.convolution_719/convolution/filter", "shape": [3, 3, 256, 256], "dtype": "float32"}, {"name": "model_230/tf.math.add_317/Add/y", "shape": [256], "dtype": "float32"}, {"name": "model_230/tf.nn.convolution_720/convolution/filter", "shape": [1, 1, 256, 256], "dtype": "float32"}, {"name": "model_230/tf.math.add_318/Add/y", "shape": [256], "dtype": "float32"}, {"name": "model_230/tf.strided_slice_59/ones_like/tensor", "shape": [4], "dtype": "int32"}, {"name": "model_230/tf.strided_slice_59/StridedSlice/end", "shape": [4], "dtype": "int32"}, {"name": "model_230/tf.strided_slice_59/ones_like", "shape": [4], "dtype": "int32"}, {"name": "model_230/tf.nn.convolution_722/convolution/filter", "shape": [1, 1, 128, 64], "dtype": "float32"}, {"name": "model_230/tf.math.add_320/Add/y", "shape": [64], "dtype": "float32"}, {"name": "model_230/tf.concat_68/concat/axis", "shape": [], "dtype": "int32"}, {"name": "model_230/tf.nn.convolution_727/convolution/filter", "shape": [1, 1, 128, 128], "dtype": "float32"}, {"name": "model_230/tf.math.add_329/Add/y", "shape": [128], "dtype": "float32"}, {"name": "model_230/tf.concat_69/concat/axis", "shape": [], "dtype": "int32"}, {"name": "model_230/tf.nn.convolution_728/convolution/filter", "shape": [1, 1, 384, 512], "dtype": "float32"}, {"name": "model_230/tf.math.add_330/Add/y", "shape": [512], "dtype": "float32"}, {"name": "model_230/tf.concat_80/concat/axis", "shape": [], "dtype": "int32"}, {"name": "model_230/tf.nn.convolution_1022/convolution/filter", "shape": [1, 1, 1024, 256], "dtype": "float32"}, {"name": "model_230/tf.math.add_387/Add/y", "shape": [256], "dtype": "float32"}, {"name": "model_230/tf.strided_slice_72/ones_like/tensor", "shape": [4], "dtype": "int32"}, {"name": "model_230/tf.strided_slice_72/StridedSlice/end", "shape": [4], "dtype": "int32"}, {"name": "model_230/tf.strided_slice_72/ones_like", "shape": [4], "dtype": "int32"}, {"name": "model_230/tf.nn.convolution_1024/convolution/filter", "shape": [1, 1, 128, 64], "dtype": "float32"}, {"name": "model_230/tf.math.add_389/Add/y", "shape": [64], "dtype": "float32"}, {"name": "model_230/tf.concat_81/concat/axis", "shape": [], "dtype": "int32"}, {"name": "model_230/tf.nn.convolution_1029/convolution/filter", "shape": [1, 1, 128, 128], "dtype": "float32"}, {"name": "model_230/tf.math.add_398/Add/y", "shape": [128], "dtype": "float32"}, {"name": "model_230/tf.concat_82/concat/axis", "shape": [], "dtype": "int32"}, {"name": "model_230/tf.nn.convolution_1030/convolution/filter", "shape": [1, 1, 384, 256], "dtype": "float32"}, {"name": "model_230/tf.math.add_399/Add/y", "shape": [256], "dtype": "float32"}, {"name": "model_230/tf.nn.convolution_1034/convolution/filter", "shape": [3, 3, 256, 256], "dtype": "float32"}, {"name": "model_230/tf.math.add_404/Add/y", "shape": [256], "dtype": "float32"}, {"name": "model_230/tf.math.add_408/Add/y", "shape": [256], "dtype": "float32"}, {"name": "model_230/tf.nn.convolution_1039/convolution/filter", "shape": [3, 3, 256, 256], "dtype": "float32"}, {"name": "model_230/tf.math.add_410/Add/y", "shape": [256], "dtype": "float32"}, {"name": "model_230/tf.nn.convolution_1042/convolution/filter", "shape": [1, 1, 256, 32], "dtype": "float32"}, {"name": "model_230/tf.math.add_414/Add/y", "shape": [32], "dtype": "float32"}]}]}